src/training/critic.pth (torch, 200436 bytes, 7 tensors)

0.weight f4 [256, 31]
00000000: 6190 053d 06b4 783e 9706 803d c962 8e3d
00000010: 9d1a f93d 2763 b0bd f5ed 4abd ded1 a0bd
00000020: 87ab c1bd ca6f 28be 5e12 ecbd 4bdc 2e3e
00000030: d774 1a3e e7c5 113e 07b4 d13b 9113 e63d
00000040: 5388 4f3e e8f1 42bc f362 163e e2ec 133e
00000050: 05bf 923d d010 123c 35f6 aa3d 8dee 713b
00000060: 4288 5c3d 6869 32bd 357f 0fbe a884 4dbd
00000070: 4d53 993d 3fca 67bd 7a43 05be 4058 05bd
00000080: 3894 a83e 7edf a6bd ca5c 123e 3ca8 c03d
00000090: 38f2 7bbd 2546 1c3e 4ea5 073e 81e8 e83d
000000a0: 040f ff3d 7810 b53d 5b5a cabd 7056 c73d
000000b0: 273d 643d ae51 333e 1256 623e d03b 97bc
000000c0: 2686 f73d 5d40 f2bc ea71 e13d ff95 493e
000000d0: 0bd5 353d 39cd 113e 310d 4bbe 0721 93bd
000000e0: 4b0d 9ebd dca5 813d eaa4 d33d 0366 36bd
000000f0: 9264 5e3d 7751 17be 0900 183e 0d25 4f3e
00000100: 9c90 d0bd 2be1 d23d 5a78 283d f625 4d3d
00000110: 0a2d 73bd f739 2a3e aaba d43b aaa8 01be
00000120: e766 ebbd ca09 21be 20d2 19be 79ed 36be
00000130: c2cb 483d 1930 f1bd 379f 563e f803 a2bd
00000140: 31a6 0bbe 0d17 30be b0df 9cbd 2d1c 333e
00000150: 5fa7 d33d 27bd f23d 1338 f13d 876c a5bd
00000160: e520 013d 9cb9 11be d9c9 a3bd 651c d63c
00000170: c3b1 e2bd 899e 073d 6713 e23d 4f80 85bb
00000180: 737d 153e 8a3e 83bc 217a c4bd 8021 e13d
00000190: 582f 5fbd bf68 673d 52d4 04be 30fa b2bd
000001a0: a6a2 8abd c94f 243e 062c 9b3b 2e9a 093e
000001b0: 02ed 203d fcb4 4a3e 800e 583e 2bb7 7c3c
000001c0: af9d 11bc 5d4c 843d 74e3 c43c 6189 10be
000001d0: 5206 4a3d 6e02 2f3e 33af 5fbb 06ba a4bc
000001e0: 3dc3 043e 81fe 21be 57ea e73d 8de6 0f3d
000001f0: 269c 353d 225b ee3d 06b3 a93d b704 06be
00000200: e58f ebbd 0182 5e3c 51d5 acbc aefe 293d
00000210: 3615 2f3e 21b1 2c3c 8a31 0f3e 13a1 953d
00000220: 9037 d03d 2865 3fbd b6d8 283e eb7d 5d3e
00000230: 2f5a 8d3c 2a6a 7fbd c8a7 1b3e 625f e13c
00000240: 38a7 7fbd 4e8f 5d3e 78e2 b3bc eda2 17be
00000250: c729 15be 09a3 05be 7aa3 3e3d fd97 843d
00000260: c1f1 f33c 1558 243e dd92 95bd 2e16 af3d
00000270: 891b 71be 201c 50be 8a09 893d fc80 c1bc
00000280: 2568 edbd 4c80 9ebd 851b 2d3d 82d4 15bc
00000290: 4cae 31be b348 98bd 444f 123e fb42 903c
000002a0: 95fb 13be 2037 2dbe 96ac fbbd 4052 16be
000002b0: e26e eabd 5856 0abe 0aad 683d 1cf0 12be
000002c0: 8b53 48be 0bf7 36bd 544b cbbc ff42 fa3d
000002d0: c419 553d 4ec2 43bd a367 233e 0958 05be
000002e0: b934 66bc fd43 cdbd bf4d 243d 17dc 993e
000002f0: 19df e6bd 8f24 663c f0bf d1bd 1070 fe3c
00000300: 1d39 1bbe c7d8 9abc 54fd f63c 9abd 073e
00000310: baa8 db3d e036 c8bd 3c5c 573e b29a f93d
00000320: 211c 6dbd ec63 e2bc c05e 48bd f435 8bbc
00000330: 418b 0e3e 4c3d 37be a857 dd3d a63e ec3d
00000340: b641 29be 8d99 a6bd 749d 943d 4a2e 273e
00000350: 71ae 803d da4a 083e 4f17 4f3d 51ca ce3d
00000360: 2179 103e 9b2a 70be 6600 f0bd 2df4 51bd
00000370: e876 03be cdb7 52bd 0c97 0bbe 967d 123b
00000380: e0a7 d2bd 3801 7d3d 273e 793d 85ca 213e
00000390: 8834 abbd cdeb 13be 8f27 6ebc ef21 62bc
000003a0: cead c63d 1443 993d b808 d53d 1045 a0bd
000003b0: 7f88 acbd 8ac7 0ebe 1b78 9cbd 995c 373e
000003c0: 4026 ccbd 9db4 0abe 84b0 14bd 132c 053e
000003d0: df8c 21be 8341 323d 1d92 f3bb bafc 023e
000003e0: 17e0 ae3d 9762 963e cf39 643e edb7 31be
000003f0: 0a58 0b3d 02cc c43a 38a2 37be 91ec 09be
0.032608394 0.24287423 0.06251257 0.069524355 0.12163279 -0.08612662 -0.04954334 -0.07852529
-0.09456544 -0.16448894 -0.11526941 0.17076223 0.15083633 0.1423565 0.0063996348 0.11234201
0.20266847 -0.011898495 0.14686184 0.14445832 0.0716534 0.008915141 0.083477415 0.003691587
0.053840883 -0.043557554 -0.1401337 -0.05017534 0.074865915 -0.05658936 -0.13014022 -0.032554865
0.32925582 -0.081480965 0.14293209 0.09407088 -0.061510295 0.15261133 0.13246652 0.113724716
0.12454036 0.08841032 -0.09880515 0.097332835 0.055722382 0.17511627 0.22103146 -0.018461138
0.12086134 -0.029571706 0.110080555 0.19686125 0.044392627 0.14238442 -0.19829251 -0.07184034
-0.07717379 0.06330463 0.10334189 -0.04453088 0.05429513 -0.1477717 0.14843763 0.20228978
-0.10183832 0.10296854 0.0411304 0.05008503 -0.059369124 0.16623674 0.0064919787 -0.12661996
-0.114942364 -0.1572639 -0.15021563 -0.17864026 0.049022444 -0.11776752 0.20959173 -0.07910913
-0.13637616 -0.17196293 -0.076598525 0.17491217 0.10334658 0.11852484 0.117782734 -0.080773406
0.03152551 -0.1423096 -0.07997484 0.026136586 -0.110690616 0.033110175 0.11038857 -0.0040741335
0.14598636 -0.016021032 -0.09593607 0.10992718 -0.05448851 0.056496378 -0.12971619 -0.08739126
-0.06769304 0.1604606 0.0047354726 0.13437721 0.03928853 0.19795603 0.21099281 0.01542453
-0.008887692 0.06459878 0.02403424 -0.14114906 0.049322434 0.1709077 -0.0034131526 -0.020108234
0.12965102 -0.15819742 0.11323994 0.03513198 0.044338368 0.11638476 0.08286099 -0.13087736
-0.11502055 0.0135808 -0.021097811 0.041502647 0.17097935 0.010540278 0.13983741 0.07306113
0.10166848 -0.04672733 0.16488919 0.21630065 0.017254917 -0.062357105 0.15200722 0.027511302
-0.06241533 0.21636698 -0.021958575 -0.14808245 -0.14566718 -0.13050474 0.046542622 0.06474302
0.029778363 0.16049226 -0.073034026 0.08549152 -0.2354566 -0.20323229 0.066912726 -0.023621075
-0.115921296 -0.077393144 0.042262573 -0.009144904 -0.17351645 -0.07435741 0.1428805 0.017610064
-0.1445144 -0.1691556 -0.122887775 -0.14679813 -0.114469305 -0.135095 0.056805648 -0.14349407
-0.19563119 -0.044669192 -0.024816193 0.1221981 0.052026525 -0.047792725 0.15957503 -0.13021864
-0.014050656 -0.10022733 0.040113207 0.30050728 -0.11273021 0.014046802 -0.10241687 0.031059295
-0.15158506 -0.018902196 0.030150093 0.13255921 0.107255414 -0.097760916 0.21031278 0.12187709
-0.057888154 -0.027635537 -0.048918486 -0.0169935 0.13920309 -0.17894477 0.10807735 0.11535387
-0.16528973 -0.08134756 0.07256594 0.16326252 0.06283272 0.13309804 0.05055934 0.100971825
0.14108707 -0.23453753 -0.11718826 -0.051258255 -0.12838328 -0.051444817 -0.13631839 0.0022352687
-0.10285926 0.06176874 0.06085029 0.15799911 -0.08359629 -0.1444542 -0.014535799 -0.013802036
0.09701119 0.07483497 0.104020536 -0.078256726 -0.08424472 -0.13943306 -0.07640096 0.17906417
-0.09968233 -0.13545461 -0.03630115 0.13005094 -0.15776394 0.043519508 -0.0074331895 0.1279172
0.085388355 0.29372093 0.22287677 -0.17355318 0.034019507 0.0015014412 -0.17932975 -0.13469149

0.bias f4 [256]
00000000: 72e4 1c3e 34a6 143d 7001 1cbe 94ca fe3c
00000010: a703 283e e51f 3abe 1ecd 583e 9417 c4bd
00000020: d3f0 4c3d 88f7 853d 85de e43d 8554 37bb
00000030: f098 3bbe c002 623d 9adb 253e 7016 04bc
00000040: e6d9 3cbe 4535 3dbe 0076 d33d 3f11 a13d
00000050: 958c 533e 3a6a e63d f9a6 2ebe 3ca9 b8bb
00000060: 7e2b 18be 26bb 59be ac45 56be 3f5f 493e
00000070: 9db3 05be 3b98 fc3d 37b0 5d3d 9c7e 563d
00000080: 381c 94bd 1dab a9bd d537 883d d13a 273e
00000090: 0a66 4ebd b389 5b3e c9b3 27be 0ef0 50be
000000a0: bd18 a53d 4993 32bd 73ea 183e 0e35 693e
000000b0: 4f64 0fbe f9f3 d0bc 0ec9 2d3e 0f0b 3dbe
000000c0: df6c c6bd e4a5 663e b9d9 02be c682 0cbc
000000d0: b2da 56be 7d14 bbbd d3c2 713c b5cd aebd
000000e0: 1a49 073e fc70 68be 5359 03bd 949d 8e3d
000000f0: 8c97 e3bc f906 023e bba4 a9bd b0ed 433e
00000100: c690 9bbd 0d2b 76bd 176d 41be e96a ff3d
00000110: e305 9d3c 6e05 ad3c 3337 38be 00d4 383e
00000120: 9440 f43d b641 c13d 2c13 fdbd 0304 cd3d
00000130: 7549 56bd 8b7a 673e eedf 183e 0716 0c3e
00000140: 3b9b 10be f016 c1bc 8b42 b73d 8dca 75bd
00000150: e17c c43c cc6e d0bd 1d46 f7bd 984d e53d
00000160: 06b8 2dbe 88cb 193e 5a72 073e 1007 023e
00000170: d005 353e 5815 16be ed13 e8bd acac 1bbe
00000180: ff5b 94bc 1c7d 063d 021e 113d 2013 7ebd
00000190: e51b 30be 7317 bfbd 7049 1ebd c7a0 983c
000001a0: 4102 e13d 361f 913d 8678 1dbe 203a 28be
000001b0: edd1 f83d 86ca f7bd 0870 fc3d 9ba6 cb3c
000001c0: b8bb b5ba ac38 5fbe 1395 1fbe 0304 e8bc
000001d0: 1f32 3abe aa14 313e d5dd dbbd ca18 853b
000001e0: b1a9 783c d2da 17be 065a 2e3d d536 81bd
000001f0: fce2 8e3d 7ac5 9ebd a542 3a3e 0826 43bd
00000200: ab8b ae3d 1e37 b23d 1b13 113c 7fc4 373a
00000210: a81e 0ebe 479a d4bc 7cbd e23c a5ba 4fbe
00000220: e618 acbd 6647 923d d8c3 f9bd e55b 50be
00000230: e722 0c3e 181c 223e 500d abbb 74d1 eb3c
00000240: c6fe a4bd f829 d43d a911 6c3e 7bcb c6bd
00000250: 96db 98bd 022c c9bc 5849 a23b 3fe2 9b3d
00000260: d7be 48be d7df 5d3d 1950 25be 475a 513e
00000270: 3b7d 483d 1a40 4cba 0f69 dcbd 371d 9cbd
00000280: b40d f03d eaf8 913d 7182 3e3e f056 2fbd
00000290: 5c51 07be fdcd 953d c37b edbd 0e72 63be
000002a0: 6f3b 61be 3fe9 27be 11da 35be 7787 503e
000002b0: 4d88 5c3e 52ca 5c3e 29a3 5ebd 37e1 28be
000002c0: c91b 633e a963 0e3e 24dc 8dbd b8e8 45be
000002d0: dbe5 edbb 192e 0b3e 2ab4 1f3e 823d 9abd
000002e0: 1471 94bd 49be 74bd 0ee6 debd a644 5d3e
000002f0: aea1 4e3d 0ed0 c3bd 0a3a bfbd e05a b1bd
00000300: ff8b 533d 390d c23d 8e7e 443d 77a5 10be
00000310: 2dad dfbd 9391 3a3e c179 623e 36c1 c1bd
00000320: 9424 e33d 87a3 743c a31e 493e 25fa 91bd
00000330: c80c 56be 2933 3f3e 1a9b a6bd 25da ff3c
00000340: 946f 0cbd 26f1 23be a011 5c3d 8c3d 283e
00000350: 265c 0f3e f244 d73d 69cc ff3d a905 4d3e
00000360: 4ac7 94bd d7b8 183d 8469 b1bd 7766 6ebe
00000370: 0ba1 b73d 2250 aa3d 2680 46bc 9886 79bd
00000380: 1e12 2ebd c6dd e2bc 6516 223e 6773 f13d
00000390: a5e1 cfbc 0121 9b3d 3696 56bd 7fba 07be
000003a0: 39e5 febd 4ef6 013e d100 41be 6bf7 343d
000003b0: c22e b4bd 9ca1 013c b699 4b3d aaac e83d
000003c0: 400c 7b3d 1916 8ebc 7ecf cd3d f5ce eebd
000003d0: db0f 393d 8736 4fbe 66a9 b63d 9466 7abb
000003e0: fcc8 8a3d 8249 913d 869f 3e3d 2d24 e1bd
000003f0: e6cb 9d3d 5550 493d 9853 6a3d fc52 afbd
0.1532152 0.036291316 -0.15234923 0.031102456 0.16407643 -0.1817623 0.21171996 -0.0957481
0.050034355 0.065413535 0.11175255 -0.0027973962 -0.1832006 0.055178404 0.16197053 -0.00806199
-0.18442497 -0.18477352 0.10325241 0.078646176 0.20659097 0.1125073 -0.17055883 -0.0056354087
-0.14860341 -0.21262798 -0.20925015 0.1966524 -0.13056798 0.12333723 0.05412313 0.052366838
-0.07231945 -0.082845904 0.06651274 0.1633103 -0.05039028 0.21439247 -0.16377176 -0.20404074
0.08061359 -0.043597493 0.14933185 0.22774145 -0.14003108 -0.02550696 0.16971228 -0.1846125
-0.09688734 0.2252422 -0.12778367 -0.008576101 -0.20981863 -0.09134767 0.014755922 -0.08535329
0.1321148 -0.2269935 -0.032067608 0.069636494 -0.027782224 0.12697972 -0.08283373 0.1913364
-0.07595973 -0.06009965 -0.1888927 0.12471563 0.019167846 0.021120753 -0.17989807 0.18049622
0.1192638 0.094363615 -0.12357172 0.10010531 -0.052316148 0.2260534 0.14929172 0.13680278
-0.14121716 -0.023570508 0.08948239 -0.06000762 0.023985328 -0.10177383 -0.1207392 0.111964405
-0.1696473 0.15019047 0.13227215 0.12698007 0.17677999 -0.1465658 -0.113319255 -0.15202588
-0.018110273 0.032834157 0.03542901 -0.062029958 -0.17198141 -0.093306445 -0.038644254 0.018631352
0.10986758 0.07086031 -0.15378007 -0.16428423 0.12149415 -0.12099175 0.12326056 0.024859717
-0.0013865149 -0.21798962 -0.15584211 -0.028322225 -0.18183182 0.17293039 -0.107356705 0.004061793
0.015177176 -0.14829567 0.04256632 -0.063092865 0.069768876 -0.077525094 0.18189485 -0.04764369
0.08522733 0.08701919 0.008854653 0.0007010176 -0.13878882 -0.025952471 0.027678244 -0.20286043
-0.084031865 0.071425244 -0.12195557 -0.20347555 0.13685189 0.1583103 -0.005220093 0.028786398
-0.08056407 0.103595674 0.23053612 -0.097067796 -0.07463758 -0.024557117 0.004952591 0.076115124
-0.1960405 0.05416855 -0.16143836 0.20444594 0.048947554 -0.00077915343 -0.10762226 -0.0762276
0.11721364 0.07127555 0.18604447 -0.04280752 -0.1321463 0.0731468 -0.11595871 -0.22211477
-0.21995328 -0.1639757 -0.17758967 0.20364176 0.2153637 0.21561554 -0.05435482 -0.16492163
0.22178568 0.13905205 -0.06926754 -0.19327056 -0.007260067 0.13591804 0.15596071 -0.07531263
-0.072481304 -0.059751783 -0.10883723 0.21608219 0.05044716 -0.09561168 -0.09337242 -0.08659911
0.051647183 0.09475178 0.047972254 -0.1412562 -0.109217025 0.18219595 0.22116758 -0.0946068
0.11090961 0.014931566 0.19640593 -0.071277894 -0.20903313 0.1867186 -0.08135052 0.03123195
-0.034286097 -0.1600996 0.053727746 0.16429728 0.13999996 0.10511197 0.1249016 0.2002169
-0.07264574 0.037285652 -0.08662704 -0.23281275 0.089662634 0.08316065 -0.012115514 -0.060919374
-0.042497747 -0.02769364 0.15828855 0.117895894 -0.02537615 0.07574654 -0.052389346 -0.13254736
-0.124460645 0.12691614 -0.18847968 0.04418127 -0.08797981 0.007912066 0.049707137 0.11361058
0.06129098 -0.017344521 0.100493416 -0.11660568 0.045181137 -0.20235644 0.08919029 -0.0038208114
0.06776616 0.07094099 0.046538852 -0.10993228 0.07704906 0.049148876 0.057208627 -0.0856075

2.weight f4 [128, 256]
00000000: 5102 653d 4846 9cbb 7c20 79bd 1496 773d
00000010: 10ec 80bd 35f5 47bd 7367 9f3c 41d0 253d
00000020: fe86 5b3b 058c 15bb 1a95 6c3d 39c6 afbc
00000030: a89a aa3c 2b42 cf3a 1d1b 4f3c c6f2 d7bc
00000040: 1727 4b3c b657 e33c 9221 31bd f8b1 053d
00000050: f878 093d 4323 a73b 4cad 3b3c c25d 2ebd
00000060: fd39 3bbd 93fb 8b3c 50bb c4bb 8b3c 993b
00000070: 422e 113d a8b2 493d 04e4 05bd 039d 49bc
00000080: 664d 153d fc24 3d3d f13e 18bc 18ac f4bb
00000090: 8130 5d3b 06e4 ed3c 1d28 b83c 1993 7a3d
000000a0: f369 7fbd 95a6 db3c 03fc 23bc 18a7 0a3d
000000b0: 5785 43bd 6b95 be3c b9b9 14bc 9551 953c
000000c0: fec9 aebb d745 95bc 0de0 3e3d eafc 9abc
000000d0: 8284 9d3d 8818 4d3d f833 4f3d 3df2 31bc
000000e0: d62e 593d 702a 863d 3a13 3a3c cfbe 6d3c
000000f0: 3029 09bd b7fa 833c fb33 2cbd 7ee0 6dbd
00000100: 406a 333d c10a 013d 4c12 ec3c c3d7 acbb
00000110: f91f b73c 7faa 733d a3d0 dc3c 74c6 9a3c
00000120: 3f76 093d 5591 f3bc d1ee 4f3d 42d3 7f3d
00000130: 0972 f03a 6591 123d 6615 6bbd 0093 49bd
00000140: 740e 393d 9d33 10bc 9564 02bd e1af 103d
00000150: 5b64 d9bc d161 6d3c 9f16 0f3d 09f9 93bc
00000160: 6526 6cbd 2616 643d 433d 09bd bacd f53b
00000170: 3608 023d 02c2 42bd f03b f63c 80ee 17bd
00000180: db92 56bd f051 46bc bde8 b9bc c7aa 24bb
00000190: f721 793d 2202 413d 11ff 84bd 1cfc 2dbd
000001a0: 70ab 46bd 5ef7 583d 2a66 b33c 0b21 afbc
000001b0: 80bb 8c3c fc92 c33c 33ca 3cbd 4dd6 f9bc
000001c0: 09dc 01bd aa5b 5dbd 093c 7b3d 2f47 a63c
000001d0: 5c00 703c 1e3d be3c b6e0 c2bc 3b3c 8fba
000001e0: da09 4c3d 2358 f1bc 4214 45bd 1e0d 463d
000001f0: 2e74 72bc f5c7 2f3d 5012 20bc 6dca dabc
00000200: 35d1 57bd 4c80 003d 35e8 39bd 3f5d 453d
00000210: ddba edbc e253 46bd 33bc 9a3b 5dbe 43bd
00000220: c260 1fbd 6f89 883c 9dc8 7e3d f7b9 4abc
00000230: 6bd1 73bd 5afb ccbc 100b 1bbd 542b afbc
00000240: 07db e3bc 2bb5 8d3c bb00 1dba 261d 5cbd
00000250: 44c2 88bd 6fb3 febc f132 b13c fc8a 563c
00000260: 2226 683c f6f4 5ebc 03c0 5dbd 37ff 683d
00000270: e6f4 103a bb5b 52bd 75fd 2db9 3b08 2c3d
00000280: b9a7 49bd 39e1 3abd 4cbb 033d 9a64 82bb
00000290: c9f9 c6bc 812c 78bd 7233 81bd e7cc 9ebc
000002a0: 844e c6bc 5939 9cbc 3a52 233d 6b58 5e3d
000002b0: 70d5 a0bb 3362 ef3c bde3 9fba 79d1 353d
000002c0: c342 1dbd 80b4 8f3b b7d4 95bc ee77 e83c
000002d0: 4d28 3f3d 34bc 8abc 6b9d 10bd ed6a 2d3d
000002e0: 4523 f03c 8b0b 903c ea3d 49bd 03d3 b3bb
000002f0: 3c1e 083d bb15 733d 0ff7 edbc 4884 49bd
00000300: 8673 7c3d b41f 853d bdcf f83a 4787 d1bc
00000310: 37bb e3bc e627 6abd d4b0 5f3d 7aad 4f3b
00000320: 4eeb 243d 42ad c5bc dffb 753d 45c2 143d
00000330: 1a62 f7bc ca1b 30bd eee1 d83c f30d 48bb
00000340: d05a 073d f3bc abbc 6caf 55bd 136a 42bd
00000350: 1009 22bd ff73 3a3d 030c 073d 03c0 783d
00000360: 76f4 d7bc d19d f83b b4ad fe3c dcb4 923c
00000370: 5781 703d 06e4 863c 823b 313d 80ce 63bd
00000380: 82fa 14bb bdab 873d d662 303c d62e 553d
00000390: b439 42bd c55d 103c 6508 04bd 4e63 5c3c
000003a0: 4ff8 0e3d 02a2 023d 5bca 40bd 0921 e83c
000003b0: 6e1a 6b3c 8bf9 80bc caf8 22bd 5d25 ef3c
000003c0: fd2f 11bd 5b0e 86bc bed7 ccbb 2577 c2bc
000003d0: fb30 7b3d 7184 12bc 2d76 d4bc 79bc 823c
000003e0: 9af9 11bd fb73 1cbd cae8 76ba 0bf7 af3c
000003f0: 6074 10bd dec2 9d3c 21c2 c8bc 89ff c73c
0.055910412 -0.0047691204 -0.060821995 0.06044586 -0.06295025 -0.048817832 0.019458508 0.04048181
0.003349721 -0.0022819054 0.05775938 -0.021456825 0.020825699 0.0015812566 0.012640742 -0.02636088
0.012399456 0.027751785 -0.043244906 0.032640427 0.03356263 0.005100639 0.011454891 -0.042569883
-0.0457096 0.017087733 -0.0060037747 0.0046764067 0.035444506 0.049242646 -0.032688156 -0.012305501
0.036450766 0.04617785 -0.00929235 -0.0074668042 0.0033750834 0.029039394 0.022480065 0.06117544
-0.0623569 0.026812831 -0.010008815 0.03385076 -0.047734585 0.023264607 -0.009077483 0.018227378
-0.005334138 -0.018221779 0.04660039 -0.018919427 0.076912895 0.050072223 0.05058667 -0.010860977
0.05302318 0.06551063 0.011357123 0.014510824 -0.033486545 0.016110761 -0.04204176 -0.05807542
0.0438025 0.031504396 0.028817318 -0.0052747442 0.022354113 0.05948877 0.026954954 0.018893458
0.033560034 -0.029732386 0.050764862 0.06245733 0.0018344532 0.03578319 -0.057393454 -0.049212456
0.0451798 -0.008801368 -0.031834204 0.03532398 -0.026537111 0.014488653 0.034933683 -0.018063085
-0.057653803 0.055685185 -0.03350569 0.007501331 0.03174611 -0.0475483 0.030057877 -0.037092686
-0.052386146 -0.012104496 -0.022693986 -0.0025126205 0.060823407 0.047121175 -0.064939626 -0.04247676
-0.04850334 0.052970283 0.021899302 -0.02137806 0.01717925 0.023873799 -0.04609127 -0.030497694
-0.031703983 -0.054042496 0.06133655 0.020297615 0.014648523 0.023222502 -0.023788791 -0.0010927984
0.049814083 -0.029460972 -0.048115022 0.048352353 -0.014798207 0.042915303 -0.009769991 -0.026707852
-0.05268975 0.031372353 -0.045387466 0.04818463 -0.029019767 -0.04841984 0.004722142 -0.047788966
-0.038910635 0.016667096 0.06220304 -0.012373439 -0.05952589 -0.025022198 -0.037852347 -0.021382965
-0.027814401 0.017298302 -0.00059891836 -0.053738736 -0.06677678 -0.03109142 0.021630736 0.01309466
0.014169248 -0.013608208 -0.054138195 0.056884017 0.0005529657 -0.051357012 -0.00016592986 0.042000037
-0.04923222 -0.045624945 0.032161042 -0.003979278 -0.024289029 -0.060589317 -0.063086405 -0.019384814
-0.024207361 -0.019070314 0.03987334 0.05428354 -0.004908256 0.02922163 -0.0012198609 0.04438922
-0.038393747 0.004385531 -0.018289907 0.0283775 0.046669293 -0.016935445 -0.035306375 0.0423383
0.029313693 0.01758363 -0.04913131 -0.005487801 0.03323196 0.059346896 -0.02904847 -0.04919842
0.06163361 0.065001875 0.0018982809 -0.0255772 -0.027799232 -0.057166956 0.054611996 0.0031689093
0.040263467 -0.024130467 0.060054656 0.036318082 -0.030198146 -0.04299525 0.02647492 -0.0030525893
0.03304559 -0.020964121 -0.05216925 -0.04746444 -0.039559424 0.04552078 0.03297044 0.06072999
-0.026361685 0.0075871726 0.031088687 0.017908506 0.058717098 0.016466152 0.04326964 -0.055616856
-0.0022732322 0.06624553 0.010765752 0.05204662 -0.04741831 0.008811419 -0.03223457 0.01345141
0.034904774 0.031892784 -0.04706798 0.028336065 0.014349563 -0.015743991 -0.039788045 0.02919262
-0.035446156 -0.016364267 -0.0062513044 -0.023738453 0.06132601 -0.008942709 -0.025935257 0.015959011
-0.03563843 -0.038196545 -0.00094188435 0.021480104 -0.035267234 0.019257959 -0.02450663 0.02441384

2.bias f4 [128]
00000000: 3449 003d e217 e93d 807b 66bd fef7 263d
00000010: e897 1dbd 9f42 843b 5137 edbd 7812 0c3c
00000020: 7ed3 c13d 7211 d23d 2880 b03d b8b8 b43d
00000030: b5d6 45bd 2d6f e73d ab29 14bb e70c ec3c
00000040: 3ce8 8abb c054 09bd 3164 a6bd 0c3b 73bd
00000050: 67b4 96bb 4157 90bc 57cf 38bd 4e92 5a3d
00000060: 55e7 a23d 3c69 6ebd b087 8cbd fa56 20bd
00000070: c19c ed3c 8526 c33c 28a1 3fbd edcd 133c
00000080: 576e b8bd aea3 7cbc 7d3c 78bb 1e2c 553d
00000090: 9bfa db3d e08f ca3d 12b5 e5bc 3c2a c93c
000000a0: 3eb0 91bd 190a 243d 1b3d a83d e21f 4abd
000000b0: af97 5f3c e88f c23c 6224 903d 9d9d b8bc
000000c0: ca9d db3d ffeb 4d3b 0b51 2e3c d7dc d5bc
000000d0: 4787 a5bd 0ea6 8d3d b6f0 1dbd c9d4 78bd
000000e0: b751 953d 70ac af3c 5a6c 2a3d d08e 24bd
000000f0: 2230 bcbd b4b3 59bc 414a e63c 26b3 e5bd
00000100: 4d2f 3ebd 7b67 f33c 8572 ddbd 260d 52bd
00000110: b5ed 83bd 3f8b ea3d 0077 e23d 842c a93a
00000120: 2a48 5e3d 4335 c03c 104c c93c 030c edbc
00000130: b000 f63a f387 aebd 887a a63d 0bb4 1fbd
00000140: a6a0 b83d 0774 b3bc 1357 5f3c cc42 343d
00000150: ae15 ac3c c225 bd3d dce1 cc3d e625 8b3d
00000160: 6f54 b6bd 92da d1bd a60c 873c 4580 bebc
00000170: 038a 74bd 4fca e3ba 5ee6 9f3d b064 1cbd
00000180: f76c b1bd 0723 cabb 347f 33bc f540 a7bd
00000190: 2c2e bb3d b288 b73d 685a bebd 27b9 d8bd
000001a0: 1657 823b 5979 d53d b7c5 8dbd 454e e5bd
000001b0: daff e9bd 2311 8b3c 77c7 7e3d d233 0c3c
000001c0: 06eb e23d a149 b53d c99c 1cbd 008d d9bd
000001d0: 7cd3 393d 87e7 8ebd 9fec e7bb 77ed d43b
000001e0: 8942 b6bd eeb1 cb3a 5a49 4bbd a268 8bb9
000001f0: fd8e 023c 212a c0ba 7800 4e3d 41e1 32bd
0.031319812 0.113815084 -0.056270123 0.040763848 -0.038474947 0.004036262 -0.115828164 0.008549325
0.09464167 0.10257234 0.08618194 0.08824295 -0.048300464 0.11300502 -0.0022607844 0.028814746
-0.0042391103 -0.03352809 -0.08124579 -0.059382483 -0.0045991424 -0.01761973 -0.04511961 0.053362183
0.07954279 -0.058205828 -0.06861818 -0.039145447 0.02900541 0.023822078 -0.04678455 0.0090212645
-0.09005421 -0.015419884 -0.003787785 0.052044027 0.107411586 0.09890723 -0.028040443 0.024556272
-0.07113694 0.040048692 0.0821478 -0.049346812 0.013647004 0.02375026 0.070381895 -0.022536093
0.10723455 0.0031421182 0.010639439 -0.026106281 -0.08082443 0.06916438 -0.038559638 -0.060749803
0.072909765 0.02144453 0.04160724 -0.04017526 -0.09188868 -0.0132874735 0.028111579 -0.112158105
-0.04643183 0.02971243 -0.108128585 -0.05128207 -0.064418234 0.1145234 0.11057854 0.0012906943
0.05426804 0.023462897 0.024572402 -0.028936392 0.0018768515 -0.08522024 0.0812884 -0.03899006
0.09015016 -0.021905912 0.0136316 0.044009015 0.021006431 0.09235717 0.10004017 0.06794338
-0.08902823 -0.10246767 0.016485523 -0.023254523 -0.05970193 -0.0017379018 0.07807611 -0.03818196
-0.086633615 -0.0061687264 -0.010955621 -0.081666864 0.09139666 0.089616194 -0.092945874 -0.1058219
0.0039776666 0.10423536 -0.06922477 -0.11196569 -0.11425753 0.016975945 0.062201943 0.008557277
0.110799834 0.08851934 -0.03823546 -0.10622597 0.045367703 -0.06977754 -0.007077768 0.0064980346
-0.08899409 0.0015540698 -0.0496305 -0.00026590104 0.007968661 -0.0014660993 0.050293416 -0.04367185

4.weight f4 [64, 128]
00000000: 3454 e13a 2add 233c cbed 7abc ccb3 34bc
00000010: d2c3 943d 8a08 b4bd 04be 10bd c291 7abc
00000020: 1842 4abd 7ee0 5bbd 7481 37bd ef1b e63c
00000030: fd63 a7bd a07a bebd bfbb 813d 9b94 763d
00000040: 857f 0bbd e7d2 1b3c 05dd 75bd 8f53 ba3d
00000050: 1c67 27bc ca53 1e3c ad2a 873b 9997 0bbd
00000060: e7c6 74bd 4d7b 80bd f87f f2bc eeb7 a6bb
00000070: 6066 bb3c 55cb babd ec9e 43bc c9f1 3d3c
00000080: e0a8 55bc 98c5 493b 9127 4dbd ffbc 8abd
00000090: c4c6 39bd 8ae9 d2bc b2cd 843d 8a20 1ebd
000000a0: 284a 113d 3247 4b3d ab47 733d 3d51 3e3d
000000b0: 0cda 9fbd 1b20 563d bdd5 11bd 1238 3b3d
000000c0: 07de a5bc 8edc 4c3c 6df1 55bd 4898 64ba
000000d0: b0b9 8e3d 3437 f5bd fca1 af3d 7644 63bd
000000e0: 530c 8ebd 5095 24bc 67c6 a83d 54fa 85bc
000000f0: ae45 80bb bb3d 45bd 8099 833c dcec 36bd
00000100: d9ef 1c3d d45e f23c 48b5 29bb 9285 403d
00000110: f461 893c d4a1 0cbd 5ee9 ff3b 7be9 633c
00000120: d331 353d 2162 d6bc 2c94 74bd 2135 bd3d
00000130: 3628 e9bd fdf8 d33d d4d4 59bd d3be 663d
00000140: 8a33 b3bc 03ea 583d cf5e 3b3c 3b5f 70bd
00000150: 8651 25bd 894e 73bd 7cd1 73bd 569e 6fbd
00000160: df34 573d 3f9f 1ebd b00e 89bd 0b14 b63d
00000170: 72b1 d23d 2da4 62bd 9191 aabd 496c fc3b
00000180: 0dfe ba3d 6610 b0bd fbf0 10bc 4a01 b73d
00000190: 0396 aabd 77f1 2bbd 46ff 83bd b58f 75bc
000001a0: 0186 4abd 9efd bc3c a4b9 863d 32aa cf3d
000001b0: 467e c43d 3315 95bd d2c4 14bc a699 253d
000001c0: 1576 dabd bdd1 d6bd bc65 64bd 5ea2 1bbc
000001d0: 1fbf 83bd 685c 2bbd d56b bcbd 4dda 563c
000001e0: 87ab 84bd 6cc7 ac3d 4352 39bd ee78 113d
000001f0: 5828 e3bd 973d ec3c 67ea 293d 7dca 553d
00000200: f8ee c8bc 7d10 3a3c ab37 30bc 5940 c23c
00000210: bda7 713d 8092 ee3d 9246 d1bc af62 c63d
00000220: ac68 073c a879 7ebc 1db9 a4bc de5d de3d
00000230: 8330 313d 18e8 d83c 8c20 1a3e 7e3a 78bd
00000240: 3192 ae3d d0dd 8ebd 9a06 f8bd f4b1 a1bd
00000250: b960 87bc f119 ed3c a3de 61bd 1baf e1bb
00000260: e3c6 c73d 61b0 04bd 0b65 d3bc 6814 91bd
00000270: c010 8dbc 7b47 b23c 3ead e73b 8e4c f73d
00000280: c783 c9bd 5bb7 8bbc 9cf2 833c 7c08 a53d
00000290: 14f1 d33d 84c3 c13d 2b91 32bd dae1 ef3c
000002a0: f2d0 62bd 6346 c93d 214e bb3d 9afe 693c
000002b0: d811 5bbd 149d ae3d baee ec3d 495e fa3c
000002c0: cf45 f03d b012 65bd c683 2bbd 4ac7 32ba
000002d0: 085d 91bd dda8 8f3d 8672 a8bd 3a91 74bd
000002e0: 6a55 963d 2a56 b63d 75a3 0abd 91b1 83bd
000002f0: eb08 9bbd 9ea0 9fbd 09ad d03d ec1c 72bd
00000300: 0222 e6bc 618d 083d ed5f fcbd ddcd 133d
00000310: dac6 b63b 3342 053e 93b2 103e c87a 23bd
00000320: eb89 143d 23f9 a73d 67b7 b53d 084e ccbd
00000330: 8368 a63d e644 b2bd fb67 033e 84a5 9f3d
00000340: e93b f83d 2633 15be 4d9c cf3d 759f 0d3b
00000350: 9691 e43d f115 b23c 7a99 123e a51d ff3d
00000360: 6a06 36bd 5994 aabd d226 053e b998 093c
00000370: 4e8e 02be 2f6b 2bbd e2d2 4dbc c3ac 693d
00000380: ce95 18bd 9002 fe3d 0921 10be db59 0fbe
00000390: d288 5b3d b95c fc3d 8600 debd ee20 19be
000003a0: 8d53 95b9 ebd0 c93d 7c47 5fbd 43b7 e5bd
000003b0: 0745 bf3c 2df0 cf3d 4cdb 973d 887d 99bd
000003c0: 81d9 f03c 62de c73d 37ad efbd d7fb 0dbe
000003d0: 75f0 463d 46bd 90bc bd87 40bd 44bd 52bc
000003e0: a299 b43b ee5c e7bd 7e0a 01be 0440 e4bb
000003f0: f016 9d3d 4b10 123e 7373 2f3b 7698 83bd
0.0017191232 0.01000146 -0.015315483 -0.011029195 0.07263912 -0.08790691 -0.035337463 -0.01529354
-0.04937944 -0.05368089 -0.04480119 0.028089492 -0.08173368 -0.093007326 0.06334638 0.060200315
-0.03405716 0.009510732 -0.060025234 0.09097969 -0.010217454 0.009663532 0.0041249604 -0.03408012
-0.05976 -0.06273518 -0.029602036 -0.005087844 0.022875965 -0.09120814 -0.011939745 0.011593291
-0.013040751 0.003078794 -0.05008656 -0.067743294 -0.045355573 -0.025746126 0.06484546 -0.03860525
0.03547111 0.049628444 0.05939452 0.046464194 -0.07805261 0.052276712 -0.035604227 0.04570777
-0.020247472 0.012503756 -0.052232195 -0.00087202014 0.06969011 -0.1197342 0.08575818 -0.05548521
-0.069359444 -0.0100453645 0.08240967 -0.016354717 -0.0039145565 -0.048154574 0.016064405 -0.04465948
0.038314674 0.029586233 -0.0025895406 0.047002383 0.01677034 -0.03433402 0.007809802 0.013910647
0.04423697 -0.026169838 -0.05971162 0.09238649 -0.11384623 0.10350225 -0.053181484 0.056334328
-0.021875162 0.052957546 0.011436178 -0.05868457 -0.04036095 -0.05940107 -0.05952595 -0.05850061
0.052540656 -0.038726088 -0.066922545 0.08890542 0.10287751 -0.05533235 -0.08328546 0.0077033383
0.091304876 -0.08596878 -0.008846517 0.08935793 -0.08329394 -0.041978326 -0.06445174 -0.014987876
-0.049444202 0.023070153 0.06578377 0.10139884 0.09594397 -0.07279434 -0.009080129 0.040429734
-0.106670536 -0.10489223 -0.055761084 -0.009499161 -0.06432938 -0.041836172 -0.09200255 0.01311357
-0.06478029 0.08436474 -0.045244467 0.03551572 -0.11091679 0.028837962 0.04148331 0.05219506
-0.024528012 0.01135647 -0.01075546 0.023712324 0.05899786 0.116490364 -0.025546346 0.09686791
0.008264702 -0.015531935 -0.0201078 0.108577475 0.043259155 0.026477858 0.15051478 -0.060602657
0.085239775 -0.06975901 -0.12110634 -0.0789527 -0.016525613 0.028943034 -0.055143964 -0.0068873293
0.097547315 -0.03239477 -0.025805017 -0.0708397 -0.017219901 0.0217626 0.0070702126 0.120751485
-0.09839588 -0.017055204 0.016106896 0.08058259 0.103487164 0.0946112 -0.043595474 0.0292825
-0.055375047 0.09827878 0.09145761 0.014281893 -0.053483814 0.08526054 0.11568971 0.030562537
0.11732065 -0.055926025 -0.041873716 -0.00068198575 -0.070978224 0.0701463 -0.082249686 -0.05970881
0.0734051 0.08903153 -0.03384729 -0.064303525 -0.0757006 -0.07794307 0.10189254 -0.059109613
-0.028092388 0.033337954 -0.12322984 0.036085 0.005577904 0.13013534 0.1413062 -0.039912015
0.03626434 0.08201816 0.08872872 -0.09975821 0.08125403 -0.087045476 0.12832634 0.077952415
0.12120802 -0.14570293 0.10137234 0.0021609936 0.11160581 0.021738978 0.14316359 0.12456826
-0.04443971 -0.08329076 0.1300309 0.008398228 -0.12749597 -0.041850265 -0.012562485 0.057049524
-0.03725224 0.124028325 -0.14075102 -0.13999121 0.05359728 0.12322373 -0.108399436 -0.14953968
-0.00028481745 0.09854301 -0.054511532 -0.11216595 0.023348344 0.10153232 0.074148744 -0.07494646
0.029400589 0.09759213 -0.1170296 -0.138656 0.04856916 -0.017668378 -0.04700445 -0.012862507
0.0055114785 -0.11297022 -0.12601659 -0.006965639 0.076703906 0.14264028 0.0026771694 -0.06425564

4.bias f4 [64]
00000000: ef3e da3c 22d5 ed3d 11a2 c83d 23bb 77bd
00000010: 6ffb 893b 5b62 96bd 77e4 95bd 8e91 2a3d
00000020: 6bfc 793d f247 063e fcd9 583c 76de cf3c
00000030: 9381 0abe 2680 c43d 0879 5d3b cb93 6a3d
00000040: 43ea ae3c fffd be3c 05db f9bc 88e1 d83b
00000050: 94a5 c73d 420f a8bd 8d44 713d 06d8 e83c
00000060: 9415 b13d d679 c6bd 646b af3c 8942 943c
00000070: 0d48 8a3b a632 dabd f4c5 d7bd d4d4 7ebd
00000080: 27e8 0bbb ba95 acbd ba12 06be 5fbe e13c
00000090: feb5 073e e8b6 d53d 8303 eebc 683b 9cbd
000000a0: c951 e43c 7e45 063e 4845 013c f41f 8a3d
000000b0: 9d4b 64bd 2f1a dfbc 0a4e 6a3c bb06 9fbd
000000c0: 76d5 8fbd 5dca 7cbc 0b9a 0c3c 0481 a43b
000000d0: 758b 743d f5e3 9dba d2e0 0f3e 7427 b23b
000000e0: 062f b63d 9085 53bd 5fca dcbc 038c 723c
000000f0: 6f1a 9e3c 9e84 4e3d 1659 5e3d 38b8 c33d
0.026641337 0.116129175 0.09796537 -0.0604812 0.0042108814 -0.073429786 -0.07318967 0.041642718
0.06103174 0.13113382 0.013235565 0.025374632 -0.13525991 0.09594755 0.0033794064 0.057269853
0.021351939 0.023314474 -0.030499944 0.0066186823 0.097483784 -0.08206035 0.058903266 0.02842332
0.08646694 -0.09691207 0.021413513 0.018098133 0.004220015 -0.10654192 -0.105358034 -0.062214687
-0.002134809 -0.084269956 -0.13093081 0.027556596 0.13253018 0.10435277 -0.029054409 -0.07628518
0.02787103 0.13112447 0.007890053 0.06744376 -0.055736173 -0.027234165 0.0143008325 -0.077649556
-0.07023136 -0.015429107 0.008581649 0.0050202627 0.05970331 -0.0012046086 0.14050606 0.005436832
0.08895688 -0.051641047 -0.026951967 0.014803889 0.019299714 0.050419442 0.054284178 0.09556621

6.weight f4 [1, 64]
00000000: bf84 943d 6c6b b2bd 604f 02be f979 0cba
00000010: b728 f0bd 10de 253e e75d 013e 9f8d 273e
00000020: 65f2 8e3d fbae 00be a468 14be 19ea e9bd
00000030: 1dd0 db3d 4966 12be 87f4 f53d 1486 ffbd
00000040: c082 acbd 5be9 0c3c 1804 0ebe 94a3 c63c
00000050: fcdb 12be eb14 3c3e 115a dc3d 00a9 cc3d
00000060: 1081 7cbd b214 b93d 9b00 fb3d 5632 193e
00000070: 2a9c 093b 1760 993d 8a9a 2f3e 09aa c43d
00000080: fb9b f53d 6e88 363e 99cf 323e 8ea8 cbbd
00000090: 90ac 0fbe ea10 aebd 4034 37be 13ac f43d
000000a0: 7d5f d83d 4abe e7bd a297 cfbd 261c ca3d
000000b0: 90c5 c83d 93d6 babd b534 033e 6dd1 a93d
000000c0: 2c1e ac3d 2cf1 2abe 015a 393d 416d 16be
000000d0: 53c2 283d 60e8 debd 07ec 81bd 216d 1e3d
000000e0: cc0b 98bd 9737 173e 4e00 cbbd d366 e63d
000000f0: a9cd fcbd 9c2e 893d 0c86 c73d 1c51 22be
0.07251882 -0.08711895 -0.12725592 -0.00053587515 -0.11726516 0.16197991 0.12633477 0.16362618
0.06979827 -0.1256675 -0.14493042 -0.11421604 0.10733054 -0.14296831 0.120095305 -0.12476745
-0.08423376 0.008600558 -0.13868749 0.024247922 -0.1434173 0.18367355 0.10759366 0.09993172
-0.06164652 0.090371504 0.12255975 0.14960608 0.0020997622 0.07489031 0.17148796 0.09602744
0.119926415 0.17825481 0.17462005 -0.09944259 -0.14030671 -0.0849932 -0.17891026 0.11946883
0.10565088 -0.11315592 -0.101363435 0.0986865 0.09803307 -0.09122958 0.12813075 0.08291898
0.08404192 -0.16693562 0.04525185 -0.14690115 0.041200947 -0.10884166 -0.06343847 0.038678292
-0.07424125 0.147673 -0.099121675 0.11250081 -0.12343914 0.06698343 0.09742364 -0.15851253
