src/training/critic.pth (torch, 218740 bytes, 7 tensors)

0.weight f4 [256, 49]
0	0xbdfc4795	-0.12318341
1	0x3ddb1ade	0.10698484
2	0xbd3a5713	-0.045493197
3	0x3d9b63ea	0.075874165
4	0x3db1132a	0.086462334
5	0x3bc406dc	0.005982263
6	0xbd9e61fe	-0.07733534
7	0x3dee2bd1	0.11629451
8	0xb99c2db7	-0.000297887
9	0x3e078698	0.13234937
10	0xbe015db4	-0.12633401
11	0xbd81d18c	-0.06338796
12	0xbcff8488	-0.031191126
13	0xbdcd7de8	-0.1003378
14	0xbd40d88e	-0.047081523
15	0xbe13ba37	-0.14426504
16	0xbe155919	-0.1458477
17	0xbd5883fc	-0.052860245
18	0xbcc063b7	-0.023485048
19	0x3b7f0308	0.003891172
20	0xbd2e8173	-0.04260392
21	0x3dc59b97	0.09648817
22	0xbdae2b4e	-0.085043535
23	0xbd89a37a	-0.06720634
24	0xbdfcf5da	-0.1235158
25	0xbcef4178	-0.029206023
26	0x3d2db02a	0.04240433
27	0xbdbb04a7	-0.09131747
28	0xbc544b4a	-0.012957403
29	0xbca9d19c	-0.020729832
30	0xbd6dcc2b	-0.058056038
31	0x3ccab4df	0.02474445
32	0x3df15e11	0.1178552
33	0x3d670167	0.05639782
34	0xbdecd46b	-0.11563953
35	0xbbfae295	-0.007656405
36	0xbd685989	-0.056726012
37	0xbe097415	-0.13423188
38	0xbdd1aebd	-0.10238407
39	0xbb78ec3d	-0.0037982606
40	0x3d91c90e	0.07118426
41	0xbd3a7ed0	-0.045531094
42	0xbd99d64a	-0.075115755
43	0x3d79ba1c	0.060968503
44	0x3cde0bae	0.027105179
45	0x3c304f5c	0.010761108
46	0x3d69c638	0.0570738
47	0x3cb790d3	0.022407925
48	0x3e0b63a4	0.13612229
49	0x3dcedf65	0.10101203
50	0x3c7f55dd	0.015584436
51	0x3d8552c1	0.06509925
52	0xbd367eb3	-0.044554424
53	0x3e0d4fed	0.1380002
54	0x3ddc01be	0.1074252
55	0xb9ee8b6e	-0.0004549878
56	0xbde91e3e	-0.11382721
57	0x3dae1d15	0.08501641
58	0x3d0dd56e	0.03462737
59	0xbd902f6a	-0.070402935
60	0x3dcaae11	0.09896482
61	0x3e0cc2b5	0.1374615
62	0x3da3ee79	0.080044694
63	0x3e0419d8	0.12900484
64	0x3da20f51	0.079130776
65	0xbc983ddc	-0.018584184
66	0xbcb03c46	-0.021513116
67	0x3d2f3a25	0.04278006
68	0xbdef44df	-0.11683058
69	0xbd09568f	-0.033529814
70	0xbdb11c9a	-0.086480334
71	0x3d566c65	0.052349467
72	0xbc2e96ca	-0.010656068
73	0x3dee70ca	0.116426066
74	0xbd9241ea	-0.07141478
75	0x3d8291b0	0.06375444
76	0xbdf3050a	-0.118661955
77	0xbdedda0c	-0.11613855
78	0xbddb25b5	-0.107005514
79	0x3cab129e	0.0208829
80	0x3dff3cc4	0.12462762
81	0xbdf9d7d0	-0.12199366
82	0xbd4ba5e1	-0.04971874
83	0x3ddf3e13	0.109005116
84	0xbcdb2b42	-0.026754025
85	0xbcb2fd29	-0.021849232
86	0x3d857aea	0.065175846
87	0xb76e3900	-1.4199177e-05
88	0x3d7e9009	0.06214908
89	0xbdd78235	-0.10522882
90	0x3d53ffe2	0.0517577
91	0x3d876d0e	0.066125974
92	0xbd24d285	-0.04023983
93	0x3cda4a53	0.026646769
94	0x3e01b497	0.12666546
95	0xbd3e3c97	-0.0464445
96	0xbd451d53	-0.04812367
97	0xbde88e21	-0.11355234
98	0xbdd749d3	-0.10512128
99	0x3da1d38b	0.07901677
100	0x3e0d6461	0.13807823
101	0x3d3ca0a5	0.04605164
102	0x3ddd71d1	0.108127244
103	0x3d4fb5ae	0.050710373
104	0xbd07650a	-0.033055343
105	0x3ddff645	0.10935644
106	0xbac09c01	-0.001469493
107	0xbcc0cb4a	-0.023534436
108	0x3da3ee7e	0.08004473
109	0x3b22b525	0.0024827209
110	0x3ced9135	0.028999904
111	0x3dfc3699	0.12315101
112	0xbdc389a0	-0.09547734
113	0x3dd48532	0.103769675
114	0xbe08ee31	-0.13372113
115	0xbd0319ce	-0.03200703
116	0x3dec803e	0.11547898
117	0x3aeb1f13	0.0017938338
118	0x3d5f51ba	0.0545213
119	0x3ded514e	0.11587773
120	0xbdb2f4fc	-0.08738133
121	0xbdfbc8ce	-0.1229416
122	0xbd7aec4a	-0.0612605
123	0x3c953a53	0.018216288
124	0xbd712ba1	-0.0588795
125	0xbda30745	-0.07960371
126	0xbcc17adc	-0.023618154
127	0x3d3d034a	0.046145715
128	0x3dc2bd1f	0.09508728
129	0x3dd3229d	0.10309336
130	0x3e153363	0.14570384
131	0xbd9d8227	-0.0769084
132	0x3d90e276	0.07074444
133	0x3d970047	0.073731
134	0xbda4f487	-0.080544524
135	0x3e0534a8	0.13008368
136	0x3d3acc69	0.045605097
137	0xbccc2352	-0.024919186
138	0xbd3c7325	-0.046008248
139	0x3e077a4c	0.13230246
140	0xbe121bfa	-0.14268485
141	0x3d4ed28a	0.050493754
142	0x3d7fc7fc	0.06244658
143	0xbd78d8c5	-0.060753603
144	0x3dd4ba65	0.103871144
145	0xbca3db5c	-0.02000206
146	0x3c92ef40	0.017936349
147	0xbdfc32c8	-0.12314373
148	0xbdd6c323	-0.10486438
149	0x3d1fa12d	0.03897207
150	0xbdc67fdc	-0.09692356
151	0x3da98515	0.082773365
152	0xbd0bf445	-0.0341685
153	0xbde710fc	-0.112825364
154	0x3d18885c	0.037239417
155	0xbb29a24a	-0.0025884085
156	0x3de87075	0.113495745
157	0x3de9d86a	0.11418231
158	0xbde6f541	-0.11277247
159	0x3d690a4c	0.056894585
160	0x3deb0c64	0.11476973
161	0xbc479fff	-0.012184142
162	0x3e03bf71	0.12865998
163	0xbdfa2a23	-0.12215068
164	0xbc183120	-0.009289056
165	0x3d080ac6	0.0332134
166	0xbdb7ab03	-0.08968165
167	0xbd2de65d	-0.04245602
168	0xbd2474a0	-0.040150285
169	0xbdf37c5c	-0.11888954
170	0x3ddf7695	0.109112896
171	0x3d5cc433	0.053898048
172	0x3c6cba13	0.01444866
173	0xbd243cea	-0.040097155
174	0x3e0072d8	0.1254381
175	0x3d1e3adc	0.03863035
176	0xbcfa02ee	-0.030518975
177	0x3dab0f70	0.08352554
178	0x3dad55af	0.084636085
179	0xbd038488	-0.032108814
180	0x3e11ceb7	0.14239012
181	0xbd16a403	-0.036777508
182	0x3c1700a8	0.009216465
183	0xbcea5418	-0.028604552
184	0xbdcf9897	-0.10136526
185	0x3e0461d0	0.12927938
186	0xbd55db36	-0.05221101
187	0xbda8f55e	-0.08249925
188	0xbdf9d597	-0.12198942
189	0xbda5006c	-0.08056721
190	0x3d87092e	0.06593548
191	0x3d7aa49c	0.06119214
192	0x3d92d41c	0.07169363
193	0xbd80335c	-0.06259796
194	0xbcb355ee	-0.02189156
195	0x3dd91561	0.10599781
196	0x3dd429bf	0.10359525
197	0xbdf8fd53	-0.12157693
198	0x3d54b84b	0.051933568
199	0xbdb18567	-0.086680226
200	0x3dd380de	0.10327314
201	0xbd82eb63	-0.06392553
202	0x3d17c56e	0.037053518
203	0xbc1d29b7	-0.009592465
204	0xbdde7ebe	-0.10864018
205	0x3d00023c	0.03125213
206	0x3df60728	0.12013084
207	0x3b52fa4a	0.003219264
208	0x3df04b78	0.117331445
209	0x3d1ee72f	0.038794693
210	0x3e05f8bd	0.13083167
211	0xbd6f40f0	-0.05841154
212	0xbd83fbef	-0.06444537
213	0xbd8e97dc	-0.069625586
214	0xbd12d49d	-0.035847295
215	0x3da8e3e1	0.082465895
216	0x3dd95fa1	0.10613943
217	0x3e0ef915	0.13962205
218	0x3de0cc4c	0.109764665
219	0x39ce524a	0.00039352692
220	0x3dfb6b33	0.12276306
221	0xbdb5aac5	-0.08870462
222	0x3be85b25	0.0070909434
223	0xbd1b332a	-0.03789059
224	0xbdb30777	-0.08741658
225	0xbe064acc	-0.1311447
226	0xbca4a24a	-0.020096917
227	0xbd98e784	-0.07466033
228	0x3dac268d	0.084057905
229	0x3be7e474	0.0070767943
230	0xbe0b9813	-0.1363223
231	0xbd1d0fbc	-0.038345084
232	0x3d6b5926	0.057458065
233	0xbc82400b	-0.015899679
234	0x3c8e715a	0.017388035
235	0x3dcc9db3	0.09991016
236	0x3d0290fc	0.03187655
237	0x3c30830c	0.0107734315
238	0xbd507773	-0.050895166
239	0x3c20ceee	0.009814961
240	0xbd9f9960	-0.07792926
241	0x3e12040f	0.1425936
242	0x3d86355e	0.06553148
243	0x3d2293f7	0.03969189
244	0xbd6acb25	-0.05732264
245	0xbdc17184	-0.094454795
246	0x3ce22875	0.027607182
247	0xbd48a1a2	-0.04898227
248	0x3daffa1c	0.085926265
249	0x3e0d3c22	0.1379247
250	0xbdc5e32c	-0.0966247
251	0x3d8dbb15	0.06920449
252	0x3d0de9ca	0.034646787
253	0xbdd1b13a	-0.102388814
254	0x3d4a22f3	0.049349736
255	0xbdcd1901	-0.10014535

0.bias f4 [256]
0	0xbe17d944	-0.14828974
1	0xbd7c52a4	-0.06160225
2	0xbd0eb6b4	-0.034842208
3	0xbd6d3cb5	-0.057919223
4	0x3da3fad3	0.08006825
5	0x3dc49c72	0.09600152
6	0xbd31131b	-0.04323111
7	0xbe198eba	-0.14995852
8	0xbd79376a	-0.060843863
9	0xbd6cfee9	-0.05786029
10	0x3ddd6190	0.10809624
11	0x3c20279a	0.009775067
12	0xbdf5c98c	-0.12001333
13	0x3d68592b	0.056725662
14	0x3ce54784	0.027988203
15	0xbd086b34	-0.033305362
16	0xbe16592e	-0.14682457
17	0x3ddba7c3	0.107253574
18	0xbc20012f	-0.009765907
19	0xbc22347b	-0.009900208
20	0x3d363988	0.04448846
21	0x3c03f0e6	0.00805304
22	0xbdf11a33	-0.11772575
23	0x3e13bd89	0.1442777
24	0x3c68eeec	0.01421712
25	0xbac5e37e	-0.0015097705
26	0xbaf8ae86	-0.001897291
27	0x3d91422c	0.070926994
28	0xbdf7c2b7	-0.12097686
29	0xbe12361c	-0.14278454
30	0x3b615d21	0.0034387785
31	0xbbcb7a40	-0.0062096417
32	0xbdf9b068	-0.1219185
33	0x3ddff084	0.109345466
34	0x3e066906	0.13126001
35	0x3dbbb390	0.09165108
36	0x3dffe80c	0.12495431
37	0xbd287b0f	-0.041132983
38	0xbdb5f262	-0.088841215
39	0x3d057e91	0.032591406
40	0xbc349e91	-0.011024133
41	0x3ca4f287	0.020135177
42	0xbdcfb490	-0.101418614
43	0xbd45985b	-0.048241
44	0x3ddac862	0.10682751
45	0x3dc2184f	0.09477293
46	0x3de3e984	0.11128524
47	0xbccdeee8	-0.025138333
48	0xbc22db28	-0.009939946
49	0x3e0aabb8	0.13542068
50	0xbd478953	-0.048714947
51	0xbe125f6c	-0.14294213
52	0x3dca4f70	0.09878433
53	0x3dc9a2df	0.09845518
54	0x3d67315c	0.056443557
55	0xbd4a7901	-0.049431805
56	0x3df7518b	0.120761
57	0xbd033cd7	-0.032040443
58	0x3d918700	0.07105827
59	0x3df40fd6	0.11917083
60	0xbd6bb70e	-0.05754762
61	0xbd807ff4	-0.06274405
62	0x3e01fdf7	0.12694536
63	0xbdb158a6	-0.086594865
64	0xbddaa31d	-0.10675643
65	0xbd23c08d	-0.039978553
66	0x3c66f624	0.01409677
67	0xbc401234	-0.01172309
68	0xbc84ef70	-0.016227454
69	0x3bde8025	0.0067901784
70	0xbe060e60	-0.13091421
71	0x3d1f18d3	0.038842034
72	0x3dfeb5dd	0.124370314
73	0xbdcc1a28	-0.099659264
74	0x3df720f2	0.12066831
75	0x3e0028e4	0.12515599
76	0xbc9f3acb	-0.019437214
77	0x3d628443	0.055301916
78	0x3df6ae0f	0.12044918
79	0xbc804300	-0.015656948
80	0xbc7d0ec2	-0.015445413
81	0x3da98682	0.082776085
82	0x3d8dbe02	0.06921007
83	0xbdc05c25	-0.09392575
84	0xbd6647ae	-0.056220703
85	0x3d2ce8a4	0.04221405
86	0xbe0e35d1	-0.13887717
87	0xbc612dde	-0.013743846
88	0xbb51badd	-0.0032002248
89	0x3ca918e7	0.020641757
90	0xbdca40ab	-0.09875616
91	0x3cfbcfe6	0.030738782
92	0x3d3216f9	0.04347894
93	0xbccbd408	-0.024881378
94	0xbdba89cd	-0.09108315
95	0x3d171ef9	0.036894772
96	0x3d23f8fa	0.040032364
97	0x3df6b23e	0.12045716
98	0xbdc263b9	-0.09491677
99	0x3df4475d	0.11927674
100	0xbcab44db	-0.020906856
101	0xbe02d67d	-0.12777133
102	0x3df657f8	0.120284975
103	0x3e17ad00	0.14812088
104	0xbc1ec8af	-0.009691401
105	0xbe074567	-0.13210069
106	0xbdb61a28	-0.08891708
107	0xbdc327b2	-0.09529056
108	0x3cf5ea0a	0.030018825
109	0xbcd451d4	-0.025917925
110	0xbcd9d7d2	-0.026592169
111	0xbdc3b5a9	-0.09556133
112	0xbdc1f544	-0.09470609
113	0xbda1294a	-0.078692034
114	0xbd553342	-0.052050836
115	0xbc2118f7	-0.009832612
116	0xbe18c5bf	-0.14919184
117	0x3e06caa2	0.13163236
118	0xbd03ab19	-0.032145593
119	0xbd8eb592	-0.069682255
120	0x3e0ff7e2	0.14059404
121	0xbd987cb8	-0.07445663
122	0x3d986a32	0.0744213
123	0x3d30a5d9	0.043126915
124	0xbc61b663	-0.013776395
125	0xbde484fa	-0.11158176
126	0xb9866ac0	-0.00025638007
127	0x3d7c2c2e	0.06156557
128	0xbda97487	-0.08274179
129	0x3d144b88	0.036204845
130	0xbdbcea40	-0.09224367
131	0xbdf35ea9	-0.11883289
132	0xbd36cb64	-0.044627562
133	0x3d85f3ba	0.06540628
134	0xbcfc397d	-0.030789131
135	0x3cae1ba5	0.021253416
136	0xbc6169f7	-0.013758174
137	0x3e0a981d	0.13534589
138	0x3dea0fbf	0.114287846
139	0xbe0a3549	-0.13496889
140	0x3dd491bd	0.1037936
141	0x3ce38df4	0.02777765
142	0xbd4a0fb3	-0.04933138
143	0xbd15b30e	-0.036547713
144	0x3d125721	0.035727624
145	0x3da145b1	0.07874621
146	0xbd9eb926	-0.07750158
147	0xbd104a20	-0.03522694
148	0xbddc72c6	-0.10764079
149	0xbdf317ba	-0.1186976
150	0x3bd1730a	0.0063918876
151	0xbd60e34f	-0.05490428
152	0x3df3fc4e	0.11913358
153	0xbdd4bbc1	-0.10387374
154	0x3deadc48	0.114677966
155	0xbda16042	-0.07879688
156	0xbdb2c0a9	-0.08728153
157	0xbd19fa0a	-0.03759197
158	0xbda2e646	-0.079540774
159	0x3daaab54	0.083334595
160	0x3dc4adce	0.09603463
161	0xbd1238fa	-0.03569887
162	0xbd61e3ee	-0.05514901
163	0xbcbe0f6f	-0.023200719
164	0xbe1212a5	-0.14264925
165	0xbdb8b05f	-0.09018015
166	0xbd31a2e4	-0.043368235
167	0x3e06c64d	0.13161583
168	0xbe0a49a3	-0.13504653
169	0xbe11a875	-0.14224418
170	0xbd1ed101	-0.03877354
171	0x3dc25406	0.094886824
172	0xbc4152d2	-0.011799531
173	0x3d84482c	0.06459078
174	0xbd851d95	-0.06499783
175	0xbd1b58f9	-0.037926648
176	0x3cd0f6d8	0.02550833
177	0xbdf2d759	-0.118574806
178	0xbdf552aa	-0.119786575
179	0x3e056cc9	0.1302978
180	0x3d7c2f49	0.061568532
181	0x3ca2f9b4	0.019894458
182	0x3d15f32c	0.03660886
183	0xbda2c571	-0.07947815
184	0x3d7a7b87	0.06115296
185	0xbd1411f1	-0.036149923
186	0x3d072295	0.032991964
187	0x3d2ca215	0.04214676
188	0xbc74c85b	-0.014940347
189	0xbdaf3f3e	-0.08556984
190	0xbd889be5	-0.066703595
191	0xbd8d6d7c	-0.06905648
192	0x3bfd14ec	0.0077234413
193	0x3c697557	0.014249167
194	0xbd3c4160	-0.045960784
195	0x3d0ba55e	0.034093253
196	0xbde942a2	-0.11389662
197	0xbe01c5fb	-0.1267318
198	0x3dd256a1	0.102704294
199	0xbce62dc2	-0.02809799
200	0xbca215bc	-0.019785754
201	0xbdb645f8	-0.08900064
202	0x3dcb3759	0.09922666
203	0x3ddeb4f7	0.1087436
204	0xbd6d5ae3	-0.057948004
205	0x3db7136e	0.08939253
206	0x3d49ceb6	0.0492694
207	0xbd82367e	-0.0635805
208	0x3d0d2b0b	0.034464877
209	0x3e05eb34	0.13078004
210	0x3bdfabea	0.0068259137
211	0x3cd35ca6	0.025801014
212	0x3d6b4d11	0.057446543
213	0xbe11466f	-0.14187025
214	0xbdf22f5c	-0.11825439
215	0xbd6c302b	-0.057663124
216	0x3d8fa135	0.0701317
217	0xbdd6843a	-0.10474439
218	0xbd818870	-0.063248515
219	0x3d839339	0.06424565
220	0xbe03f838	-0.12887657
221	0xbdd4f20c	-0.10397729
222	0xbd953929	-0.07286293
223	0x3e022a46	0.12711439
224	0x3d0a35bb	0.033742648
225	0xbd16b66f	-0.036795076
226	0xbe09cc03	-0.1345673
227	0x3ba749ee	0.0051052487
228	0xbd3ff5be	-0.046865217
229	0x3d3701d6	0.044679485
230	0x3d8de44d	0.069283105
231	0x3d98a592	0.07453455
232	0x3de13da9	0.10998089
233	0xbdb1a966	-0.08674888
234	0xbc06a82d	-0.008218807
235	0xbd8d762f	-0.06907307
236	0xbdb61dae	-0.0889238
237	0x3df9ac92	0.12191118
238	0xbc467e28	-0.012115039
239	0x3e0559a6	0.1302248
240	0xbd48af7a	-0.048995472
241	0xbe0ab34c	-0.13544959
242	0xbdb0611f	-0.086122744
243	0x3d56388e	0.05230003
244	0x3dd6340c	0.10459146
245	0x3e045cef	0.12926076
246	0x3d8e066f	0.06934821
247	0x3d075d93	0.033048224
248	0xbd49a052	-0.04922516
249	0xbdeb0c7a	-0.11476989
250	0x3d65fc20	0.05614865
251	0x3dfa875b	0.12232848
252	0x3e09c816	0.13455233
253	0xbe0bc2e5	-0.13648565
254	0x3dadc2cf	0.084844224
255	0x3d3d7e63	0.04626311

2.weight f4 [128, 256]
0	0x3d41902f	0.047256645
1	0x3cc69736	0.024242025
2	0x3cf3d3f6	0.029764157
3	0xbcf17c9d	-0.029478366
4	0x3d32c294	0.043642595
5	0x3cb8765d	0.022517378
6	0xbc14d0c8	-0.00908298
7	0xbd586dac	-0.052838966
8	0x3ccfb3a6	0.025354218
9	0x3adbcc30	0.0016769227
10	0xbd335ab3	-0.04378767
11	0xbcccf782	-0.025020365
12	0x3c757eb7	0.014983824
13	0x3c8731f2	0.016503308
14	0x3cb24bef	0.021764724
15	0x3cadec2e	0.021230783
16	0x3c501052	0.012699204
17	0xbd00dc02	-0.031459816
18	0x3c20bc5a	0.0098105315
19	0x3c68eb59	0.0142162675
20	0xbd210753	-0.039313626
21	0x3d3738a2	0.044731744
22	0x3d5de84d	0.054176617
23	0xbcc5c2a8	-0.02414067
24	0xbb029e84	-0.0019930908
25	0x3c571a92	0.013128893
26	0x3903c9aa	0.00012568259
27	0x3cebf483	0.028803116
28	0x3d135186	0.03596642
29	0x3c1f6157	0.0097277975
30	0x3bef968b	0.0073116473
31	0xbd6f90a0	-0.058487535
32	0x3d346561	0.044041995
33	0xbc6e5651	-0.014546947
34	0x3d361eaa	0.044462837
35	0x3c91b04a	0.017784256
36	0x3d4f590f	0.050622042
37	0xbd388a62	-0.045053847
38	0xbd6bd428	-0.057575375
39	0xbd78eb44	-0.06077124
40	0xbd1730ba	-0.036911704
41	0xbd449c8a	-0.04800085
42	0xbd47f168	-0.048814207
43	0x3ccf6404	0.025316246
44	0x3c4467fd	0.011987683
45	0x3d42b97e	0.04754018
46	0xbc12141b	-0.008915926
47	0x3d4d74cc	0.050160214
48	0x3d5f2d3a	0.05448649
49	0xbd3f19cc	-0.04665546
50	0x3cb03102	0.021507744
51	0xbd07e2e4	-0.033175364
52	0x3cbb0729	0.022830563
53	0xbd74ff11	-0.059813563
54	0xbd093880	-0.03350115
55	0x3d218bfb	0.039440136
56	0x3cfacff2	0.030616734
57	0xbd5e89b7	-0.054330554
58	0xbb9e527c	-0.0048316102
59	0x3d582c66	0.052776717
60	0xbc8f0b97	-0.017461581
61	0xbcd88726	-0.026431631
62	0xbd722e1d	-0.05912601
63	0x3b0d3443	0.0021546043
64	0xbd227d1e	-0.039670102
65	0xbd4b891d	-0.04969131
66	0x3b9a286b	0.004704525
67	0xbc9acb3b	-0.018895736
68	0xbd0cb057	-0.03434786
69	0x3d099120	0.033585668
70	0x3d84167f	0.06449603
71	0xbd6a0589	-0.057134185
72	0x3d4689c8	0.048471242
73	0xbd213953	-0.03936131
74	0xbbeaa1b9	-0.007160392
75	0x3cdc9873	0.026928162
76	0xbcbbbc60	-0.022916973
77	0x3d3fcb09	0.04682449
78	0xbc93c7e0	-0.018039644
79	0x3d75d4e1	0.06001747
80	0xbd824af3	-0.06361952
81	0x3d35044d	0.044193555
82	0xbd17c782	-0.0370555
83	0x3d84b42f	0.0647968
84	0x3c260a5a	0.010134304
85	0x3d5d0f9b	0.05396996
86	0x3d6a0551	0.057133976
87	0xbcda8dc3	-0.026678925
88	0xbd4cdd2a	-0.050015606
89	0x3d13221a	0.035921194
90	0x3c94afd7	0.018150253
91	0x3d159b62	0.036525138
92	0x3d439ed4	0.047758892
93	0x3ca43a92	0.02004746
94	0xbd27406a	-0.040832914
95	0x3c139538	0.0090077445
96	0xbd14b4f8	-0.036305398
97	0x3bb253dc	0.0054421257
98	0x3ca99d0a	0.020704765
99	0x3ca60865	0.020267675
100	0xbd19b36e	-0.037524633
101	0x3b857ff7	0.0040740925
102	0x3d27c9f7	0.040964093
103	0x3d526391	0.051364485
104	0x3d5ff183	0.054673683
105	0x3d1ea22b	0.038728874
106	0x3cdde14b	0.027084967
107	0xbd4628fb	-0.048378926
108	0xbb1b144e	-0.0023663226
109	0x3d4131a8	0.047166497
110	0xbba3f110	-0.005003102
111	0xbd335eca	-0.04379157
112	0x3c513bdf	0.012770622
113	0x3d06b845	0.032890577
114	0x3b85ea81	0.004086793
115	0x3d0c6109	0.034272227
116	0x3d70c775	0.058783967
117	0x3d484628	0.04889503
118	0x3a6bd45e	0.0008996184
119	0xbd1a651c	-0.03769408
120	0xbd763da4	-0.06011738
121	0x3c98c217	0.018647237
122	0xbc4572aa	-0.012051264
123	0xbbcb61be	-0.00620672
124	0xbc461cf6	-0.012091866
125	0x3d02c251	0.031923596
126	0xbc7e3e68	-0.0155178085
127	0xbca1ce29	-0.019751625
128	0xbcf5ec6a	-0.030019958
129	0x3d122abf	0.035685297
130	0xbc851edf	-0.016250072
131	0xbd293d0e	-0.041317992
132	0x3d801c83	0.06255438
133	0x3d1353c9	0.035968576
134	0x3d305691	0.043051306
135	0xbd4c18ad	-0.04982822
136	0x3d6c6ee4	0.05772294
137	0x3bbc2b37	0.0057424563
138	0x3ca025fb	0.01954936
139	0xbd6370f9	-0.05552766
140	0x3c34a62d	0.0110259475
141	0xbd37d41c	-0.044880018
142	0xbd360d6a	-0.044446386
143	0x3c6c3201	0.014416219
144	0xbd1cdc97	-0.03829631
145	0xbc4352a8	-0.011921562
146	0x3cccb314	0.024987735
147	0xbcc2d116	-0.02378134
148	0x3cf7febf	0.03027284
149	0xbd29cd84	-0.04145576
150	0xbccd2545	-0.025042186
151	0xbd18c592	-0.037297793
152	0xbca8a269	-0.020585256
153	0x3b7ecaf0	0.0038878284
154	0xbc518c8d	-0.012789858
155	0x3cec330d	0.028832937
156	0xbcff62f9	-0.031175124
157	0x3c69bfaf	0.014266892
158	0x3d231dab	0.039823215
159	0x3d0f0876	0.03492018
160	0x3c41302f	0.011791273
161	0xbd10d38b	-0.035357993
162	0xbd8a6e7d	-0.06759355
163	0xbcbe5e6c	-0.023238383
164	0x3b78816e	0.0037918943
165	0x3ce979e4	0.028500505
166	0xbd78b57f	-0.060719963
167	0xbd5b2a8e	-0.05350738
168	0x3d5c08e6	0.053719424
169	0x3ce2e905	0.027699003
170	0xbd496906	-0.049172424
171	0xbd5fb324	-0.0546142
172	0xbd61925d	-0.055071224
173	0x3d361a2f	0.044458564
174	0x3d28d930	0.04122275
175	0x3d3d354b	0.046193402
176	0x3d7572fd	0.059924114
177	0xbb9ddfa5	-0.0048179203
178	0x3d320e10	0.043470442
179	0xbd8106d6	-0.06300132
180	0x3d19d704	0.03755857
181	0x3c7b14e1	0.015324802
182	0xbd6b5014	-0.057449415
183	0xbbe0da4f	-0.006861962
184	0xbd3f60c7	-0.046723153
185	0x3d531ff8	0.05154416
186	0x3c93e495	0.018053332
187	0xbd6bc278	-0.057558507
188	0xbd478a5a	-0.048715927
189	0x3d28cea9	0.04121271
190	0x3cd24d35	0.02567158
191	0xbcfb2b10	-0.030660182
192	0x3d200f80	0.039077282
193	0x3d745c0a	0.059658088
194	0xbd63cae7	-0.055613425
195	0xbd68377d	-0.056693543
196	0xbd70e6d8	-0.0588139
197	0x3c874b6b	0.016515454
198	0x3c1108e4	0.008852217
199	0x3ca77d50	0.020445496
200	0xbc9a8920	-0.018864214
201	0xbc56da56	-0.013113579
202	0xbd025ee9	-0.031828795
203	0xbbdf0656	-0.006806175
204	0x3d6f54a0	0.058430314
205	0x3cfb441d	0.030672127
206	0xbd764658	-0.06012568
207	0x3d3e341f	0.046436425
208	0x3cde45e5	0.027132938
209	0xbd6b1264	-0.057390586
210	0xbcbbf69e	-0.022944745
211	0x3d42c3c0	0.047549963
212	0x3ae63c75	0.0017565625
213	0x3be7762e	0.0070636487
214	0x3be4b480	0.006979525
215	0x3bd353dd	0.0064492063
216	0x3b637fa7	0.0034713538
217	0xbd1e1317	-0.038592424
218	0x3cc755b9	0.024332868
219	0x3c0bfdba	0.00854438
220	0x3c0f20e6	0.008735871
221	0x3c793a1e	0.01521161
222	0x3cb6d408	0.022317901
223	0x3c4a39e6	0.012342906
224	0xbc9d2f86	-0.0191877
225	0x3d13071d	0.035895456
226	0x3c1dc34e	0.009629084
227	0xbd341755	-0.043967564
228	0x3d558c6f	0.05213588
229	0x3d7427e3	0.05960835
230	0x3c9be271	0.019028874
231	0x3d53f3a9	0.051746044
232	0x3d64e995	0.055886824
233	0xbd3924db	-0.045201164
234	0xbc950b7b	-0.01819395
235	0xbd193f12	-0.037413664
236	0xbd233256	-0.039842926
237	0xbcc59913	-0.024120843
238	0xbc276d78	-0.0102189705
239	0xbd846a33	-0.064655684
240	0xbd023e43	-0.03179766
241	0xbc1c6d14	-0.009547491
242	0xbd5c66f1	-0.05380911
243	0xbd25a1b8	-0.04043743
244	0xbd01ad02	-0.031659134
245	0x3d5b87d7	0.053596344
246	0x3c4fff4a	0.012695143
247	0x3d67d714	0.0566016
248	0xbbf38075	-0.0074310848
249	0x3cdeecfc	0.027212612
250	0xbd59a233	-0.0531332
251	0xbbeffc47	-0.007323775
252	0xbd1db46f	-0.038502153
253	0xbc42d8d2	-0.011892514
254	0x3badeac9	0.0053075296
255	0xbd128c25	-0.035778183

2.bias f4 [128]
0	0x3d4745ee	0.048650675
1	0x3d31d494	0.04341562
2	0x3c93d194	0.01804427
3	0x3bdfcdd8	0.0068299584
4	0xbd6d677e	-0.057960026
5	0x3d50ce63	0.050978076
6	0xbd8a43e3	-0.067512296
7	0x3d2ae734	0.0417244
8	0xbccd6c63	-0.025076097
9	0x3d688f67	0.056777384
10	0x3c984319	0.018586682
11	0xbc6d033b	-0.014466102
12	0xbc829927	-0.01594217
13	0x3d6268ea	0.055275835
14	0x3d1014f4	0.035176232
15	0xbc9fc05a	-0.0195009
16	0xbd2cd115	-0.042191584
17	0x3bf1d4b5	0.007380093
18	0x3d04d755	0.03243192
19	0xbd436545	-0.047704
20	0xbc8d06b7	-0.017215116
21	0xbbca0e4a	-0.006166254
22	0x3c4358b4	0.011923004
23	0xbd5439f0	-0.051813066
24	0x3b4dec42	0.0031421338
25	0xbcb59d80	-0.022169828
26	0xbc9d3915	-0.019192258
27	0x3d660f07	0.056166675
28	0xbd4ebacc	-0.050471112
29	0xbd262ad6	-0.040568195
30	0x3c9b91cb	0.018990418
31	0x3c12828f	0.00894226
32	0xbd117548	-0.03551224
33	0x3d8e2101	0.06939889
34	0xbc3da469	-0.011574843
35	0x3c1c1985	0.009527569
36	0x3d60eeaa	0.054915108
37	0x3d490f16	0.049086653
38	0xbd6ae41a	-0.05734644
39	0x3d117873	0.03551526
40	0xbd677753	-0.05651028
41	0x3c795090	0.0152169615
42	0xbd113854	-0.03545411
43	0xbc7ba984	-0.01536024
44	0xbd5b7449	-0.053577695
45	0xbd62347c	-0.055225834
46	0x3bf2a20b	0.007404571
47	0xbcd6f443	-0.02623952
48	0x3c652e21	0.013988049
49	0xbc8b8e1f	-0.017035542
50	0xbca73dc3	-0.020415192
51	0x3d2e7d41	0.04259992
52	0xbb661896	-0.003510987
53	0xbbec89c0	-0.0072185695
54	0xbc92510e	-0.017860916
55	0xbd1fd828	-0.039024502
56	0x3d503f33	0.05084152
57	0xbc47070a	-0.012147674
58	0xbcc87d93	-0.024473941
59	0x3d229c34	0.03969975
60	0x3d1c109a	0.03810177
61	0x3cd9986b	0.026561936
62	0x3d3b6477	0.045750108
63	0xbd89c70c	-0.06727418
64	0x3d3e5a50	0.046472847
65	0xbd470c77	-0.04859587
66	0x3bc87c41	0.006118328
67	0xbcc4c55a	-0.024019886
68	0x3c61efdc	0.013790097
69	0xba212738	-0.00061475066
70	0x3c37bcc4	0.011214439
71	0xbd547e3f	-0.05187821
72	0xbca2b660	-0.019862354
73	0x3d39aceb	0.045330923
74	0xbcdfc1f9	-0.027314173
75	0xbb6fd349	-0.0036594442
76	0x3cd666a9	0.026171999
77	0xbd59d772	-0.05318398
78	0x3ca8e241	0.020615699
79	0xbcf4ef2a	-0.029899199
80	0x3c77da2d	0.015127701
81	0xbccce744	-0.02501262
82	0xbd3c018f	-0.045899924
83	0xbd835d1e	-0.06414245
84	0xbcdcaeff	-0.026938913
85	0xbd76e6fb	-0.060278874
86	0x3d772065	0.06033363
87	0x3d8c0da7	0.068385415
88	0x3d38f661	0.04515684
89	0x3cba1761	0.022716226
90	0x3c8a61f6	0.016892415
91	0x3d03e6e2	0.03220261
92	0x3cd59557	0.026072187
93	0xbd2bc77e	-0.041938297
94	0xbd7bf392	-0.061511584
95	0x3d7b9f92	0.061431475
96	0xbd4efd72	-0.050534673
97	0x3c4e2e7f	0.012584328
98	0xbd68d1e5	-0.056840796
99	0xbd3c812b	-0.04602162
100	0x3d607283	0.054796707
101	0x3d7bf6ad	0.061514545
102	0x3ae03991	0.0017107
103	0xbc9d1427	-0.019174648
104	0x3c938d1b	0.01801162
105	0x3d0a1512	0.0337115
106	0xbd37b945	-0.04485442
107	0x3d415242	0.047197588
108	0x3ca34c4c	0.019933842
109	0xbcfb086f	-0.03064367
110	0x3d12ecd9	0.035870407
111	0x3d50ba57	0.050958958
112	0x3d042b2d	0.032267738
113	0x3c9bf918	0.019039676
114	0xbd76284c	-0.060097024
115	0xba016802	-0.0004936458
116	0xbd249915	-0.040185053
117	0x3d4ffc7c	0.050777897
118	0xbd1f2d44	-0.038861528
119	0xbd46c6bf	-0.048529383
120	0x3c3c4606	0.011491304
121	0xbd48f200	-0.049058914
122	0xbc02155c	-0.007939663
123	0x3d875119	0.06607265
124	0xbd79cc20	-0.060985684
125	0x3cedebc0	0.029043078
126	0x3d4d8253	0.050173115
127	0xbd850925	-0.06495885

4.weight f4 [64, 128]
0	0xbd586e01	-0.052839283
1	0xbd623a55	-0.05523141
2	0x3d62d225	0.05537619
3	0x3d0f980d	0.035057116
4	0xbd7c2d74	-0.061566785
5	0x3d8f1c34	0.06987801
6	0xbc3d85ea	-0.011567572
7	0x3cde553c	0.027140252
8	0x3d694cbf	0.056957956
9	0xbc28ac5c	-0.010295
10	0xbc2628d2	-0.010141568
11	0xbd816de6	-0.063197896
12	0x3cd0e5e3	0.025500244
13	0x3d1e51ae	0.038652115
14	0xbd31d691	-0.043417517
15	0x3cfdef91	0.030998023
16	0x3d8bf691	0.06834138
17	0x3db09d52	0.086237565
18	0x3d0d8d3f	0.03455853
19	0xbcd91868	-0.026500896
20	0x3cf13cac	0.029447876
21	0xbce7904e	-0.028267052
22	0xbda48299	-0.08032722
23	0x3d9b98b6	0.07597487
24	0x3d371e83	0.044706833
25	0x3c3ab6cd	0.011396122
26	0x3d7aafe2	0.06120289
27	0x3ab7cf65	0.00140236
28	0xbca2980f	-0.019847898
29	0xbd291112	-0.041276045
30	0xbcaf825a	-0.021424461
31	0x3cfdf3bd	0.031000013
32	0xbca7f15d	-0.020500833
33	0x3ac4c9bd	0.0015013736
34	0xbc236b98	-0.009974383
35	0xbd280b4c	-0.0410264
36	0xbd53a36f	-0.051669534
37	0x3d992d33	0.07479324
38	0xbd9b5c73	-0.07585993
39	0x3d64b192	0.055833407
40	0xbd6fc8cf	-0.058541115
41	0x3c7310f7	0.014835588
42	0x3adb2495	0.0016719276
43	0xbd5d5a90	-0.054041445
44	0xbd64088d	-0.055672217
45	0x3d764218	0.060121626
46	0xbba5d525	-0.005060809
47	0x3d91a774	0.07112017
48	0x3dab2693	0.08356967
49	0xbdb7ac9f	-0.08968472
50	0xbd4d3b4b	-0.050105374
51	0x3c89725e	0.016778167
52	0xbd67b615	-0.05657013
53	0xbca97194	-0.020684041
54	0x3da88296	0.08228032
55	0xbd093d0d	-0.03350549
56	0xbd072b2d	-0.03300016
57	0xbd3c7091	-0.04600579
58	0x3dbe4d68	0.09292108
59	0x3d524477	0.051334824
60	0xbd73b467	-0.059498217
61	0x3d003809	0.03130344
62	0xbbca95fb	-0.00618243
63	0xbd9c85e6	-0.076427266
64	0x3c9eee5d	0.01940077
65	0x3daa82c5	0.083257236
66	0x3c0785bb	0.00827163
67	0x3d743ec8	0.059630185
68	0x3d26db50	0.040736496
69	0xbd1a6286	-0.037691616
70	0xbc158b46	-0.009127444
71	0x3db70159	0.08935804
72	0xbd89c69c	-0.06727335
73	0x3d25078e	0.040290408
74	0xbda359b2	-0.079760924
75	0xbd5261dd	-0.05136286
76	0xbc15f812	-0.009153383
77	0x3d1e6cfe	0.03867816
78	0x3d78f4b4	0.060780242
79	0x3b21c108	0.0024681706
80	0xbd8d9668	-0.06913453
81	0xbc18fb57	-0.009337268
82	0x3b5a813e	0.0033341195
83	0xbcffa36f	-0.03120586
84	0xbd42005b	-0.04736362
85	0xbda79512	-0.0818273
86	0x3d33fb55	0.04394086
87	0x3d4a88ba	0.0494468
88	0xbd0e372b	-0.03472058
89	0xbd53de92	-0.05172593
90	0x3d88771f	0.066633455
91	0x3d574822	0.052559026
92	0xbc7e134d	-0.015507531
93	0x3d93d399	0.072180934
94	0xbd1bafba	-0.038009383
95	0x3d4972f0	0.04918188
96	0xbc9b33d9	-0.018945621
97	0x3d67382f	0.056450065
98	0x3d61a4a3	0.05508865
99	0xbce42c3e	-0.027853128
100	0xbd7350d6	-0.059403263
101	0xbbdf7e79	-0.0068204966
102	0xbd790555	-0.0607961
103	0xbd29cf12	-0.041457243
104	0xbdb6c9ec	-0.08925232
105	0xbd3598d7	-0.044335213
106	0xbd07d2bb	-0.033159953
107	0x3c3853d8	0.011250459
108	0xbd3d207c	-0.046173558
109	0x3d78a67c	0.060705647
110	0x3d97f0e1	0.07418991
111	0xbcef84d7	-0.029238148
112	0x3b6296fc	0.0034574857
113	0x3d52ca37	0.05146238
114	0xbd841630	-0.064495444
115	0xbc861d42	-0.016371373
116	0x3d8dfc83	0.069329284
117	0xbd838ff8	-0.06423944
118	0x3d8c510c	0.06851396
119	0xbd4edd10	-0.05050379
120	0x3d3955bd	0.045247782
121	0x3c5facc5	0.013652031
122	0xbcfe1fd4	-0.031021036
123	0x3cf936d9	0.030421661
124	0x3c1311d0	0.008976415
125	0xbd47f7fd	-0.048820484
126	0x3c48626a	0.012230495
127	0xbd3027ad	-0.043006588
128	0x3d5a204b	0.053253453
129	0xbd8bd238	-0.068272054
130	0x3d3889bb	0.045053225
131	0x3c246b80	0.010035396
132	0x3a130b66	0.00056093035
133	0xbd4c0598	-0.049810022
134	0x3b28565a	0.0025686235
135	0x3d646671	0.05576176
136	0x3d10b323	0.035327088
137	0xb9e06fd4	-0.00042807928
138	0xbd471e69	-0.048612986
139	0x3d3499dd	0.044092048
140	0xbdc1bd65	-0.09459952
141	0x3da69769	0.08134348
142	0xbd06a4a5	-0.03287186
143	0x3d8c555a	0.06852217
144	0xbd878f3d	-0.066191174
145	0xbcf8e7cc	-0.030383967
146	0xbd694e53	-0.05695946
147	0x3d876a0d	0.066120245
148	0x3d888d6b	0.06667598
149	0xbd219718	-0.039450735
150	0x3d82aa88	0.063801825
151	0x3d903f87	0.07043367
152	0x3d082ac8	0.033243924
153	0x3d4324b5	0.04764243
154	0x3d31b593	0.043386053
155	0x3d5e3101	0.054245953
156	0xbdc37911	-0.09544576
157	0x3d66fe36	0.05639478
158	0xbcc4e5f9	-0.02403544
159	0x3ca4a779	0.020099388
160	0xbd9ecf53	-0.07754388
161	0x3dc05326	0.09390859
162	0x3b5294c5	0.003213213
163	0x3d80b8fe	0.062852845
164	0xbd9bdbd8	-0.07610291
165	0xbd57d1d2	-0.052690335
166	0x3b1106cd	0.0022129298
167	0x3d7d7eec	0.06188862
168	0xbd1d52cd	-0.038409043
169	0x3c7e235b	0.015511359
170	0x3d3070db	0.043076377
171	0x3c9ac11d	0.018890912
172	0x3b3856a1	0.0028127807
173	0x3d16e5c5	0.03684022
174	0xbd67fb5c	-0.0566362
175	0x3db64198	0.0889923
176	0x3dc11cb8	0.09429306
177	0xbcf67008	-0.030082718
178	0x3db122a2	0.08649184
179	0xbb0adf94	-0.0021190392
180	0xbcb64483	-0.022249466
181	0x3d91310d	0.07089434
182	0x3a31d55c	0.0006783807
183	0x3d8a35e0	0.06748557
184	0x3d370ab2	0.044687934
185	0xbd50ea92	-0.051004954
186	0x3ca46c08	0.020071045
187	0xbcc20e02	-0.02368832
188	0x3d4fe5fa	0.050756432
189	0xbbec1d49	-0.0072056395
190	0x3d9c5ff5	0.0763549
191	0xbd7364ed	-0.059422422
192	0xbd8c2a31	-0.06843985
193	0x3d0d24ec	0.03445904
194	0x3da2218c	0.07916555
195	0xbd996e19	-0.074917026
196	0x3da23143	0.07919552
197	0xbd8634e5	-0.065530576
198	0x3d53c6d2	0.05170328
199	0x3d913072	0.07089318
200	0xbd9644e2	-0.07337357
201	0xbb8ccb8c	-0.0042967256
202	0xbd7c93f4	-0.061664537
203	0x3d0b6cee	0.03403943
204	0x3c08719f	0.008327871
205	0xbd780a76	-0.06055685
206	0x3d1460b1	0.036225025
207	0xbd9a5b05	-0.07536892
208	0x3d735e3a	0.059416033
209	0x3d27d9a6	0.04097905
210	0xbd3d3d60	-0.04620111
211	0x3c9d39dd	0.01919263
212	0xbc97b450	-0.018518597
213	0xba885ae8	-0.0010403069
214	0xbd4d6bb1	-0.05015153
215	0x3d391e75	0.04519506
216	0xbc8a1027	-0.016853405
217	0xbca625a5	-0.020281622
218	0xbc28a977	-0.01029431
219	0xbd9f6c67	-0.07784348
220	0xbd3b70bf	-0.04576182
221	0x3cf8dca7	0.030378653
222	0xbd8371ce	-0.06418191
223	0x3daab38c	0.08335027
224	0xbd28ad34	-0.041180804
225	0xbd7604b2	-0.06006307
226	0xbcf82fd0	-0.030296236
227	0x3d2b6043	0.04183985
228	0xbd38b913	-0.045098376
229	0x3d856fe1	0.0651548
230	0xbd27c3bd	-0.040958155
231	0x3d21c93a	0.039498545
232	0x3d8b3efa	0.06799121
233	0xbd426e85	-0.04746868
234	0xbd1575e9	-0.0364894
235	0xbd4acc76	-0.049511395
236	0x3d22e71b	0.03977118
237	0xbd1aaa69	-0.037760172
238	0x3d061f9a	0.03274498
239	0xbc4b65c7	-0.012414402
240	0xbcf60b7a	-0.03003477
241	0x3da85e06	0.082210585
242	0x3d10b5a5	0.03532948
243	0xbd1f0fad	-0.03883331
244	0x3d1967e7	0.037452605
245	0x3d8e7d9d	0.069575526
246	0x3d8b68eb	0.06807121
247	0x3d4ba004	0.04971315
248	0xbd8171a5	-0.06320504
249	0xbda44691	-0.08021272
250	0xbd265524	-0.04060854
251	0x3d381878	0.04494521
252	0xbd5eb66c	-0.05437319
253	0xbdc41797	-0.09574812
254	0x3d91b454	0.07114473
255	0x3d9675d4	0.07346693

4.bias f4 [64]
0	0x3d159983	0.036523353
1	0x3cc7ba8e	0.024380948
2	0xbd1b5274	-0.03792043
3	0x3da660a6	0.08123903
4	0x3d108e3e	0.035291903
5	0x3d7181bb	0.05896161
6	0x3d03a657	0.032141056
7	0x3d131710	0.035910666
8	0xbd5073c4	-0.050891653
9	0xbd88dd3a	-0.066828206
10	0xbd0832c3	-0.033251535
11	0x3d7ad1e8	0.06123534
12	0xbcf35a1b	-0.029706052
13	0x3d8e1776	0.069380686
14	0xbd03d14b	-0.03218202
15	0xbd82a517	-0.06379145
16	0xbd29374e	-0.04131251
17	0xbd81f342	-0.06345226
18	0xbd439d35	-0.047757346
19	0x3d9dd23c	0.07706115
20	0xbcb73fc4	-0.022369273
21	0xbca937f7	-0.020656569
22	0x3d4c1f0a	0.04983429
23	0x3d7c78fe	0.061638825
24	0xbc9277ee	-0.017879453
25	0x3cba2cd9	0.022726463
26	0xbda97aab	-0.0827535
27	0xbcc4a813	-0.024005925
28	0x3d5267ff	0.05136871
29	0xbd900b78	-0.070334375
30	0x3ba2e30b	0.0049709133
31	0xbca0e5e5	-0.019640872
32	0x3db7f086	0.08981423
33	0xbd8d1c14	-0.06890121
34	0x3c6004dc	0.013673034
35	0x3d835109	0.064119406
36	0xbd023521	-0.03178895
37	0x3da97926	0.0827506
38	0xbdbf2f7d	-0.093352295
39	0x3d536e2b	0.051618736
40	0x3c914cb8	0.017736778
41	0xbb850525	-0.004059451
42	0xbcfee128	-0.031113222
43	0xbcff2d34	-0.031149484
44	0x3d27beb2	0.040953346
45	0xbc7a37ac	-0.015272062
46	0x3d24bb3d	0.040217627
47	0x3c959a44	0.018262036
48	0xba97b114	-0.0011573159
49	0xbd9fee38	-0.078091085
50	0xbd823d4c	-0.06359348
51	0xbcecf068	-0.028923228
52	0x3cce4c59	0.02518289
53	0xbd0b301f	-0.03398144
54	0xbdba0619	-0.09083194
55	0xbd0a055d	-0.03369652
56	0x3d38acb3	0.045086574
57	0xbd562688	-0.05228284
58	0xbd8d2a0a	-0.06892784
59	0xbccec3dc	-0.025239877
60	0x3d700127	0.05859485
61	0xbc60f073	-0.013729203
62	0xbd45b2c4	-0.048266187
63	0xbcb5b7c0	-0.022182345

6.weight f4 [1, 64]
0	0xbdeffe79	-0.11718459
1	0xbdfa5426	-0.12223081
2	0xbd1bc50f	-0.038029727
3	0xbcf44ce8	-0.029821828
4	0x3dd3ec24	0.103477746
5	0xbc94563f	-0.018107532
6	0xbdf858a4	-0.12126282
7	0xbdada99d	-0.08479617
8	0x3dbae535	0.09125749
9	0x3c03b5c2	0.00803894
10	0xbdd88e08	-0.10573965
11	0x3de2436e	0.110480174
12	0x3d8686bc	0.06568667
13	0xbd302877	-0.04300734
14	0xbda1fd30	-0.0790962
15	0xbc8bb8ff	-0.017055986
16	0x3dbacb28	0.0912078
17	0x3d481fa3	0.048858296
18	0xbdc3f19e	-0.09567569
19	0xbdf4c903	-0.119524024
20	0xbd17ccea	-0.037060656
21	0xbda70d04	-0.081567794
22	0x3d8d4f99	0.06899948
23	0xbc084146	-0.008316344
24	0x3dab3e52	0.08361496
25	0x3d15f61b	0.036611658
26	0x3e05e9c7	0.1307746
27	0xbde78ac3	-0.113057636
28	0xbc904ba3	-0.017614191
29	0xbd92acfe	-0.07161902
30	0x3ccb0e6e	0.024787154
31	0x3dc192c2	0.0945182
32	0xbc1d216d	-0.009590489
33	0x3d306f43	0.043074857
34	0xbcfb6138	-0.030686006
35	0x3dca3405	0.09873203
36	0xbd87af55	-0.06625239
37	0xbda671f4	-0.081272036
38	0x3d5b9fe6	0.053619288
39	0x3dca8b1b	0.098898135
40	0xbc776a7b	-0.0151010705
41	0xbdc6711d	-0.096895434
42	0x3dc5811b	0.096437655
43	0x3d245786	0.04012253
44	0x3d2e3561	0.042531375
45	0x3d2015d3	0.039083313
46	0xbd36fec8	-0.044676572
47	0xbdb9da4d	-0.09074841
48	0xbc1cddd5	-0.009574373
49	0x3da81056	0.08206241
50	0xbdb6c860	-0.08924937
51	0x3d896e31	0.067104705
52	0x3d95f01f	0.0732119
53	0x3df9098f	0.12160026
54	0x3d804c27	0.06264525
55	0x3c8a135f	0.01685494
56	0xbdb0a153	-0.0862452
57	0xbd481185	-0.048844833
58	0x3d8994ff	0.06717872
59	0x3dc41171	0.09573639
60	0x3de56966	0.11201744
61	0xbdf7f807	-0.12107854
62	0xbdf89e66	-0.12139587
63	0x3ccd9359	0.025094675
