src/training/critic.pth (torch, 200436 bytes, 7 tensors)

0.weight f4 [256, 31]
0	0x3e12220a	0.14270797
1	0xbd7926a4	-0.060827866
2	0x3df85601	0.12125779
3	0xbc1c097a	-0.009523744
4	0x3e0975fc	0.13423914
5	0xbc009c87	-0.007849819
6	0x3d43ff36	0.04785081
7	0x3d52dbe7	0.051479246
8	0xbe143577	-0.1447352
9	0x3c966ab4	0.018361427
10	0xbc4b956b	-0.012425761
11	0x3e143f84	0.14477354
12	0xbc329c0d	-0.010901463
13	0xbe0bc981	-0.13651086
14	0x3db3952a	0.08768685
15	0x3de432db	0.111425124
16	0x3dee57d6	0.11637847
17	0x3de6b969	0.11265833
18	0xbdb77f9a	-0.08959885
19	0x3d401903	0.046898853
20	0xbd94f61b	-0.072735034
21	0xbd174ad1	-0.036936585
22	0x3e17d9f7	0.1482924
23	0xbd5f4e92	-0.05451829
24	0x3d90af79	0.07064719
25	0xbe2b40d4	-0.16723949
26	0x3e36e9f4	0.17862684
27	0x3dc08c20	0.09401727
28	0x3dbadc19	0.091240115
29	0x3e1d4875	0.15359671
30	0x3dabaa3e	0.083820805
31	0xbda100c9	-0.07861478
32	0xbe0e7157	-0.13910423
33	0x3d96cc64	0.07363203
34	0xbda7f3dc	-0.08200809
35	0xbe34cc79	-0.17656125
36	0xbd1fadda	-0.038984157
37	0x3e2dcf28	0.16973555
38	0xbe11417a	-0.14185134
39	0xbdcb8b73	-0.09938707
40	0xbe31f5eb	-0.17378967
41	0x3d12adc4	0.035810247
42	0x3dce091e	0.10060333
43	0xbe16f4d3	-0.1474183
44	0x3cdbdd9c	0.02683907
45	0x3de24eb9	0.110501714
46	0xbcb0271f	-0.02150303
47	0xbda5aee6	-0.0809
48	0xbe0da385	-0.13831909
49	0xbe0ced88	-0.13762486
50	0xbe12c21e	-0.14331862
51	0xbe2df7aa	-0.16989008
52	0xbdd986ae	-0.10621391
53	0x3ddc4d61	0.10756946
54	0x3d1e5d03	0.03866292
55	0x3e140254	0.14454013
56	0x3e36cbb5	0.17851146
57	0xbca38ecd	-0.019965554
58	0x3c8b672c	0.01701697
59	0xbdd90726	-0.105970666
60	0xbd1a9aa8	-0.037745148
61	0x3e03fcf5	0.12889464
62	0xbd5521ab	-0.05203406
63	0x3c5f4978	0.013628356
64	0x3ce15468	0.027506068
65	0x3de57d1c	0.11205503
66	0x3e244b66	0.16044387
67	0x3c528168	0.012848236
68	0xbd730d3a	-0.059338786
69	0xbd0616c0	-0.03273654
70	0x3d74ad4e	0.05973559
71	0xbcb4aa4c	-0.02205386
72	0xbe0271a9	-0.1273867
73	0x3b736c37	0.0037143358
74	0xbdde1006	-0.108429
75	0x3d957693	0.07298007
76	0x3dbac653	0.091198586
77	0xbe05aad8	-0.13053453
78	0xbdc8b537	-0.09800189
79	0x3ca6a240	0.020341039
80	0xbd5dfc6b	-0.054195803
81	0x3e057a49	0.1303493
82	0xbe29911e	-0.16559264
83	0xbd5869d1	-0.05283529
84	0x3d3c32c4	0.04594685
85	0x3c69f6de	0.014280049
86	0xbda3aff0	-0.07992542
87	0x3dcfe3ea	0.10150893
88	0x3dd642a7	0.10461932
89	0x3e2deb27	0.16984235
90	0x3dcd9b24	0.10039356
91	0xbe027066	-0.12738189
92	0xbc3aa3dc	-0.011391606
93	0xbe2df635	-0.16988452
94	0xbd89c58a	-0.06727131
95	0xbc905281	-0.017617466
96	0xbd8ed551	-0.069742806
97	0xbe2b4d8e	-0.16728804
98	0xbe288220	-0.16455889
99	0xbe0e7d09	-0.13914885
100	0xbe36eec7	-0.17864524
101	0x3d9d8b1a	0.07692547
102	0xbe37b411	-0.17939784
103	0xbd3fd7a2	-0.046836503
104	0xbe09bd6c	-0.13451165
105	0xbd4a1bd0	-0.04934293
106	0x3dfcff02	0.123533264
107	0xbd9fdbaa	-0.078055695
108	0x3de50c79	0.111840196
109	0xbd2b89c7	-0.04187944
110	0x3dea8616	0.11451356
111	0x3d1f9f38	0.038970202
112	0xbdcc76f8	-0.09983629
113	0x3d33ad79	0.04386661
114	0xbe3f2ff7	-0.18670641
115	0x3e1f0439	0.15528955
116	0xbe068e01	-0.13140108
117	0x3c5df4ec	0.013547163
118	0x3daada84	0.0834246
119	0x3db90cbb	0.09035631
120	0x3caf1d93	0.021376407
121	0xbde6823e	-0.112553105
122	0xbda0462b	-0.078258835
123	0x3d33d38e	0.043902926
124	0xbe048c03	-0.12944035
125	0xbc9ca95b	-0.019123724
126	0xbd5c02e4	-0.053713694
127	0x3df106b2	0.11768855
128	0x3d1983d7	0.037479248
129	0xbe362386	-0.17786989
130	0x3df91c66	0.1216362
131	0x3df6c046	0.12048392
132	0x3d2aa286	0.0416589
133	0xbbe10611	-0.0068671783
134	0x3e02044c	0.12696952
135	0xbd56ee4f	-0.052473363
136	0xbdb230b3	-0.08700695
137	0xbdf898a9	-0.121384926
138	0x3e30ff81	0.17284967
139	0x3d79872c	0.060919926
140	0x3d498224	0.049196377
141	0xbe5db859	-0.21652354
142	0xbe3f2e37	-0.18669973
143	0x3dc8b9df	0.09801077
144	0xbe04f91f	-0.12985657
145	0xbe0c0476	-0.13673577
146	0xbd382671	-0.044958536
147	0x3e2bad0e	0.16765234
148	0x3e300ccd	0.17192383
149	0x3c9b8e67	0.018988801
150	0x3df233d1	0.118262894
151	0xbc8509ca	-0.01624002
152	0x3dee6225	0.11639813
153	0x3e3797db	0.17929022
154	0xbe216ec8	-0.15764916
155	0x3c0b1ed5	0.008491238
156	0xbd7ae33c	-0.061251864
157	0xbd2015ac	-0.039083168
158	0x3d2db111	0.04240519
159	0x3da65108	0.08120924
160	0x3e191076	0.14947686
161	0x3d831566	0.06400566
162	0xbdda06ba	-0.10645814
163	0x3dfb0501	0.12256814
164	0x3e1285aa	0.14308801
165	0xbdf72fa4	-0.120696336
166	0x3dad615d	0.08465836
167	0x3d34e485	0.044163246
168	0xbe283a3b	-0.16428463
169	0xbe12c32e	-0.14332268
170	0xbe4699c9	-0.19394602
171	0x3e047802	0.12936404
172	0x3cb0e7b9	0.021594869
173	0xbe26a32e	-0.16273186
174	0x3e01881b	0.12649576
175	0x3deb829e	0.114995226
176	0xbe357e8f	-0.1772406
177	0x3d2c4826	0.042060994
178	0x3e6030af	0.21893571
179	0xbd3b895a	-0.045785286
180	0x3e0da22a	0.13831392
181	0xbda568c5	-0.08076624
182	0xbdeb16e9	-0.11478979
183	0xbd0dc98f	-0.03461605
184	0x3e1142d1	0.14185645
185	0x3cf563d4	0.029954828
186	0xbcbce78a	-0.023059625
187	0xbde6a69b	-0.11262246
188	0x3d3aeda4	0.045636788
189	0x3cb6fe96	0.022338193
190	0xbe36b425	-0.17842157
191	0x3e188a5a	0.14896527
192	0x3d1890fe	0.03724765
193	0x3d0e6974	0.034768537
194	0x3e061a8b	0.13096063
195	0x3e1d916a	0.15387502
196	0xbe1d47f9	-0.15359487
197	0xbdac02ef	-0.08398997
198	0xbcaf2674	-0.02138064
199	0x3e2759bb	0.16342823
200	0xbd907811	-0.07054151
201	0x3d3a6004	0.045501724
202	0x3d6f1660	0.058370948
203	0x3d8e73e7	0.069557
204	0xbc0a4419	-0.008439087
205	0xbde3ea85	-0.111287154
206	0x3d8c3aa3	0.068471216
207	0xbe34f6c0	-0.17672253
208	0xbd2d4c1b	-0.042308908
209	0x3e066f34	0.13128358
210	0x3bedef2a	0.0072611766
211	0xbd319e00	-0.04336357
212	0xbe320fbb	-0.17388813
213	0x3d8a51bc	0.06753871
214	0x3e2069bd	0.15665336
215	0x3d546b4d	0.051860142
216	0x3d838c3e	0.064232334
217	0xbcb5ab02	-0.02217627
218	0xbe04401a	-0.12915078
219	0x3e161c90	0.14659333
220	0x3db55312	0.08853735
221	0x3cec311d	0.028832013
222	0x3e27a472	0.16371325
223	0x3d62f623	0.055410516
224	0xbcf8a350	-0.030351311
225	0x3c9f512d	0.019447887
226	0x3e0acb78	0.1355418
227	0xbd5490e2	-0.051895984
228	0x3cadaf95	0.021201888
229	0x3d98dfc8	0.07464558
230	0x3e2b42df	0.16724728
231	0xbc3faf67	-0.011699534
232	0x3d558412	0.052127905
233	0x3c6e122e	0.014530702
234	0x3e35c7de	0.17752025
235	0xbd174ee3	-0.036940467
236	0x3e0aff8e	0.13574049
237	0xbdfcb8d6	-0.12339942
238	0x3e2636fc	0.16231912
239	0x3dd2ebcf	0.10298883
240	0xbdb19ee7	-0.08672886
241	0x3bdb457c	0.006691633
242	0xbe109c47	-0.14122115
243	0x3d9bba31	0.076038726
244	0x3e1218de	0.14267299
245	0x3d921032	0.07131995
246	0x3d8f2404	0.06989291
247	0x3e14a658	0.1451658
248	0x3daf9b9c	0.08574602
249	0x3d6b4fbf	0.0574491
250	0xbe1ff5c2	-0.15621093
251	0x3da36e3f	0.07980012
252	0x3e278569	0.16359486
253	0xbdf224c3	-0.11823418
254	0xbd5f7b5d	-0.054561008
255	0x3e148133	0.1450241

0.bias f4 [256]
0	0xbe5f9159	-0.2183279
1	0xbe41f93f	-0.18942736
2	0xbe283ad4	-0.16428691
3	0x3d56dc99	0.052456472
4	0xbd63825d	-0.055544246
5	0xbd0cfe42	-0.034422167
6	0x3d32e253	0.04367287
7	0xbd6f1159	-0.058366153
8	0xbcbab2c5	-0.022790322
9	0x3e354302	0.17701343
10	0x3e2a980a	0.16659561
11	0xbd569cbe	-0.052395575
12	0x3ba4a86a	0.0050249593
13	0x3e67cb12	0.22636059
14	0x3e2cae3e	0.16863343
15	0x3e63924f	0.22223781
16	0xbdaf54a2	-0.08561064
17	0xbdd6759b	-0.1047165
18	0xbcd5290d	-0.026020551
19	0xbe13232d	-0.14368887
20	0x3d8d5968	0.069018185
21	0x3d5c8752	0.05383999
22	0x3dc9bb82	0.098502174
23	0xbdb43c56	-0.08800571
24	0xbd0c33ce	-0.034229092
25	0x3d8bfa6e	0.06834875
26	0xbdc042bd	-0.09387729
27	0x3d9ab3ee	0.0755385
28	0xbd6f728f	-0.05845886
29	0xbd0a9e40	-0.033842325
30	0xbe488c66	-0.19584808
31	0x3e283582	0.16426662
32	0xbe1ae879	-0.15127744
33	0x3e435d61	0.1907859
34	0x3db0d207	0.086338095
35	0xbd77ef58	-0.06053099
36	0x3e522ada	0.20524159
37	0x3de4afaf	0.111663215
38	0xbce1b18b	-0.02755048
39	0x3cd75e96	0.02629022
40	0x3ce44f63	0.027869886
41	0x3cec5ed2	0.028853808
42	0xbddadb8b	-0.10686406
43	0xbd5ca5e8	-0.053869158
44	0xbe3992f0	-0.18122458
45	0x3d67b901	0.056572918
46	0x3de4f7bf	0.11180066
47	0x3e35b0b5	0.1774319
48	0xbe40b27a	-0.18818083
49	0x3db6c7a7	0.089247994
50	0x3e5777d4	0.21041805
51	0x3d920998	0.07130736
52	0xba2d24af	-0.00066048926
53	0xbb9541fa	-0.004554984
54	0x3e412abb	0.18863957
55	0xbe425eeb	-0.18981521
56	0xbe34fc4e	-0.17674372
57	0xbdc38d4a	-0.09548433
58	0xbde859c1	-0.11345244
59	0xbe60b357	-0.21943413
60	0xbe0949a9	-0.13407005
61	0x3e5667ad	0.20937987
62	0xbd92c087	-0.07165628
63	0xbd982b24	-0.074301034
64	0x3d1d568a	0.03841261
65	0x3da47031	0.08029211
66	0xbb018aa3	-0.0019766472
67	0x3baafebf	0.0052183564
68	0x3d8b02a6	0.067876145
69	0xbc4bee8f	-0.0124470135
70	0xbe14ed3e	-0.14543626
71	0x3cf60bea	0.030034978
72	0x3e30e723	0.17275672
73	0x3d8a06c3	0.06739571
74	0x3d9adf62	0.07562138
75	0xbe2472c1	-0.160594
76	0xbd6c245d	-0.057651866
77	0x3e4ba4e7	0.19887124
78	0x3ddabf0b	0.1068097
79	0xbd33af7a	-0.04386852
80	0xbe1b4b73	-0.151655
81	0xbdf8f465	-0.121559896
82	0xbe56404e	-0.20922968
83	0x3d9a2aaa	0.07527669
84	0x3e2f3f2c	0.17113942
85	0xbd2bca81	-0.04194117
86	0xbd1fb23a	-0.03898833
87	0x3d18f809	0.03734592
88	0xbd1a3612	-0.03764922
89	0x3df0e3c1	0.117621906
90	0xbe63c69c	-0.22243732
91	0x3e414ea4	0.18877655
92	0x3d63dcf4	0.05563064
93	0x3c201eb6	0.009772947
94	0xbe0cae1b	-0.13738291
95	0x3db9517b	0.09048744
96	0xbc8d6643	-0.017260676
97	0x3e038127	0.12842236
98	0x3e47ea84	0.19523054
99	0xbe498e7f	-0.19683264
100	0x3d3ec622	0.046575673
101	0xbdf46968	-0.11934167
102	0x3e58d325	0.21174295
103	0xbda43e99	-0.08019752
104	0x3da5e13d	0.080996014
105	0x3e134b43	0.14384179
106	0xbcff968a	-0.031199712
107	0x3cf2d313	0.029641664
108	0xbdf1e0b9	-0.118104406
109	0xbe641c52	-0.22276428
110	0x3e35ef27	0.1776701
111	0x3dc366ef	0.095411174
112	0xbdc1aa17	-0.0945627
113	0xbd7941f7	-0.060853925
114	0x3d496262	0.04916609
115	0x3e24b8a3	0.16086058
116	0x3d90f72b	0.070783935
117	0x3dfcee6c	0.12350163
118	0x3dd0f0ff	0.10202216
119	0x3e3f1e3f	0.18663882
120	0x3e4aece1	0.19816925
121	0xbd268837	-0.04065725
122	0x3d63f0d2	0.055649586
123	0xbdd787ca	-0.105239466
124	0xbd968213	-0.073490284
125	0xbd9c6aa9	-0.07637531
126	0x3e413ecd	0.18871613
127	0xbd6cff5f	-0.05786073
128	0x3d123fec	0.035705492
129	0xbdade9bd	-0.08491848
130	0x3e369c9c	0.17833179
131	0x3e066007	0.13122569
132	0xbe1813ed	-0.14851351
133	0xbb104e1f	-0.002201922
134	0xbc85ba8e	-0.016324308
135	0x3e12e3c6	0.14344701
136	0x3d97e2dd	0.074163176
137	0x3e4384a7	0.19093572
138	0xbdc0ce52	-0.094143525
139	0x3d30cf57	0.043166485
140	0x3e2fb691	0.17159487
141	0x3de042ca	0.10950239
142	0xbd84ed29	-0.06490547
143	0xbdffafb0	-0.124846816
144	0x3cad9969	0.021191316
145	0x3ca0881e	0.019596156
146	0x3df758db	0.12077495
147	0xbd925af1	-0.07146252
148	0x3d41c3a4	0.047305718
149	0xbe0536ed	-0.13009234
150	0x3dbd5bb4	0.092460066
151	0xbdaf544d	-0.08561001
152	0x3e31cd7b	0.17363541
153	0xbd8479b2	-0.06468524
154	0x3dd4e3c1	0.10395003
155	0xbe016ed8	-0.1263994
156	0x3d6e6fee	0.058212213
157	0xbd3bfb8b	-0.045894187
158	0xbdfc31c9	-0.12314183
159	0x3d3b76f4	0.04576774
160	0x3c585296	0.013203284
161	0xbdccdc42	-0.10002948
162	0x3da1f2c5	0.07907633
163	0xbd4541fc	-0.04815863
164	0x3dc49181	0.09598065
165	0x3d2766b2	0.040869422
166	0x3e1fd44d	0.1560833
167	0xbe032e09	-0.1281053
168	0xbe03d772	-0.12875155
169	0x3ca0ee06	0.019644748
170	0x3d3be188	0.04586938
171	0xbe3fcee1	-0.18731262
172	0xbd6b5191	-0.057450835
173	0x3d545bd6	0.051845394
174	0xbe1fe367	-0.15614091
175	0x3cda0c32	0.026617143
176	0x3ccab167	0.024742795
177	0xbdc61ea1	-0.09673811
178	0x3d1b461f	0.03790867
179	0x3ca0627f	0.019578217
180	0xbdfd8cf9	-0.12380404
181	0xbd689105	-0.056778926
182	0xbe0178d4	-0.12643749
183	0x3d1aff82	0.037841327
184	0xbdaebf00	-0.08532524
185	0x3ddd6ad1	0.10811389
186	0xbd617252	-0.055040665
187	0xbded4800	-0.115859985
188	0x3e4de8f3	0.20108394
189	0x3d774af5	0.06037422
190	0x3d89f477	0.06736081
191	0xbd01bb74	-0.03167291
192	0xbe2c0987	-0.1680051
193	0x3daf1fa0	0.08550954
194	0x3e63d51f	0.22249268
195	0x3e028165	0.12744673
196	0xbd42cd68	-0.047559172
197	0x3e388ba1	0.18022014
198	0xbdb64d96	-0.08901517
199	0x3d7aa7c4	0.06119515
200	0x3e246d7e	0.16057393
201	0xbd12f473	-0.035877656
202	0xbdf7c3fc	-0.12097928
203	0x3d39ba32	0.045343585
204	0xbe2c9b7e	-0.1685619
205	0xbcf84810	-0.0303078
206	0xbd9a635c	-0.075384825
207	0x3d5cec45	0.05393626
208	0x3b0e23c1	0.0021688791
209	0xbe13fb6b	-0.14451377
210	0xbe4ee2e1	-0.20203735
211	0xbd4e115c	-0.050309524
212	0xbdcbe222	-0.09955241
213	0xbe223fb1	-0.15844609
214	0x3d3332f6	0.043749772
215	0xbe1beaaf	-0.15226243
216	0xbdf173be	-0.11789654
217	0xbd6ac122	-0.057313092
218	0x3d7e3a95	0.062067587
219	0x3ddffa44	0.10936406
220	0x3e4e51cc	0.2014839
221	0x3de8bd57	0.11364239
222	0x3e6356be	0.22201058
223	0xbe335e53	-0.1751645
224	0xbe445d33	-0.19176178
225	0x3c55e79f	0.013055711
226	0x3dd221f1	0.1026038
227	0x3d1b438f	0.037906226
228	0xbe2c38f7	-0.16818605
229	0x3db3796d	0.087633945
230	0x3e2d639d	0.1693253
231	0x3d3d5ef4	0.046233132
232	0x3e1556e8	0.14583933
233	0xbc3c58b4	-0.011495758
234	0x3ddd1b76	0.107962534
235	0xbde57437	-0.11203807
236	0x3db3b2c3	0.087743305
237	0xbd960195	-0.073245205
238	0x3e54fd87	0.20799838
239	0xbd05b063	-0.03263892
240	0x3d87f8ae	0.06639229
241	0xbde748c8	-0.11293179
242	0x3cbdd790	0.023174077
243	0xbdf67993	-0.12034907
244	0xbd572213	-0.05252273
245	0x3dedc6bc	0.11610171
246	0xbe5a274b	-0.21304052
247	0xbe390280	-0.1806736
248	0x3e1ac072	0.15112475
249	0x3d225d59	0.039639805
250	0xbe017126	-0.12640819
251	0x3dbe001f	0.09277367
252	0x3e4177ce	0.18893358
253	0xbd18bc55	-0.037288982
254	0x3cdb88c8	0.02679862
255	0xbdde5b50	-0.1085726

2.weight f4 [128, 256]
0	0x3d966bf2	0.07344808
1	0x3d5018da	0.05080495
2	0x3d8272fd	0.063695885
3	0x3d84cacd	0.06483994
4	0x3c49247f	0.012276768
5	0x3d4f35ac	0.050588295
6	0x3dabf385	0.08396057
7	0xbd89fafa	-0.06737323
8	0x3d0471f7	0.032335248
9	0xbcaa9725	-0.020824024
10	0x3bb77cc4	0.00559959
11	0x3dcb8c57	0.09938877
12	0x3da99e81	0.08282185
13	0xbc461e64	-0.012092207
14	0xbc8d97f5	-0.017284373
15	0xbbd7eb70	-0.0065893456
16	0x3dcaa217	0.098941974
17	0xbd44dd5c	-0.048062667
18	0xbd5cf595	-0.053945143
19	0xbc572fd1	-0.013133959
20	0xbd643bfc	-0.055721268
21	0xbdc1999e	-0.09453128
22	0x3dbfc2bc	0.093633145
23	0x3daa509e	0.08316158
24	0xbdb49dd9	-0.088191696
25	0xbdcf1b62	-0.10112645
26	0x3ca8fe41	0.02062905
27	0xbdcdc7c9	-0.100478716
28	0x3d22c34e	0.03973704
29	0xbd9b96ef	-0.07597148
30	0x3d6c88f8	0.05774781
31	0xbd5b8e03	-0.05360223
32	0x3d047640	0.032339334
33	0xbd856615	-0.06513611
34	0x3d3b09c2	0.045663603
35	0x3d4ddad7	0.05025753
36	0xbdb965b2	-0.090526
37	0xbb22cd36	-0.0024841554
38	0xbd9f6ec5	-0.077847995
39	0xbc6e5609	-0.01454688
40	0xbdca6538	-0.09882587
41	0xbd3ce58a	-0.046117343
42	0xbac7a0eb	-0.0015230452
43	0x3c46d323	0.0121353
44	0x3d953780	0.072859764
45	0xbd443939	-0.047906134
46	0xbdb6a3f6	-0.08917992
47	0xbd0d9509	-0.03456596
48	0x3cc0d21f	0.023537694
49	0xbd995629	-0.07487137
50	0xbd6a6e67	-0.057234194
51	0x3bfd8e5e	0.0077379188
52	0xbc3b5b8d	-0.011435402
53	0xbd14afac	-0.036300346
54	0xbd80a0fa	-0.06280704
55	0x3da3ea59	0.08003683
56	0x3d3d69bb	0.04624341
57	0xbd4f5c46	-0.05062511
58	0x3d91ad68	0.07113153
59	0x3d25d4bb	0.04048608
60	0xbc18e767	-0.009332514
61	0xbc3cc719	-0.011522078
62	0xbc308024	-0.010772739
63	0x3d154731	0.036444847
64	0xbdd08212	-0.10181059
65	0x3c5e2acf	0.013560011
66	0xbc3d926f	-0.011570557
67	0x3d9d426a	0.07678683
68	0x3c83be1e	0.016081866
69	0xbdc6913c	-0.0969567
70	0x3dc949b9	0.098285146
71	0xbdbe623d	-0.09296081
72	0xbd36488f	-0.04450279
73	0x3d85a373	0.06525316
74	0xbd81da73	-0.06340494
75	0x3b9a9094	0.004716942
76	0xbdc81ee8	-0.0977152
77	0xbb1460c1	-0.0022640678
78	0xbd59e787	-0.053199317
79	0x3d694a86	0.056955837
80	0x3d53a500	0.051671028
81	0xbd047aee	-0.032343797
82	0x3d33169e	0.04372274
83	0x3dc1e1c5	0.0946689
84	0xbd59ada2	-0.053144105
85	0xbd360e8e	-0.044447474
86	0xbd26ea96	-0.040751062
87	0xbd8d9d9c	-0.06914827
88	0x39f0f85f	0.00045961418
89	0xbdd28856	-0.1027991
90	0x3c9eca34	0.019383527
91	0xbdac222f	-0.084049575
92	0x3ba19629	0.0049312306
93	0x3dc0ee45	0.09420446
94	0x3d942d77	0.07235234
95	0xbdb8a2ae	-0.09015404
96	0xbdb369c3	-0.08760407
97	0xbd1973b4	-0.03746386
98	0xbd96122a	-0.07327683
99	0x3d08dc6c	0.033413336
100	0x3cf66faf	0.030082552
101	0xbbebce71	-0.0071962406
102	0xbd325c78	-0.043545216
103	0xbd2504b7	-0.0402877
104	0x3bfcd080	0.007715285
105	0xbbbf50f5	-0.0058385083
106	0xbc54e261	-0.012993426
107	0x3ca07d45	0.019590983
108	0xbc8e09bc	-0.017338626
109	0x3c8f4811	0.017490419
110	0xbdaba3d0	-0.08380854
111	0x3c5754d5	0.013142784
112	0xbbafb1b1	-0.0053617586
113	0x3bd10f9b	0.006380034
114	0x3dc4cfc0	0.09609938
115	0xbd82a794	-0.06379619
116	0x3a329953	0.0006813008
117	0x3d5d339d	0.0540043
118	0xbdd1711e	-0.102266535
119	0xbd9ec784	-0.07752898
120	0xbccd5c89	-0.025068538
121	0x3c7b64e7	0.015343881
122	0xbc389df6	-0.01126813
123	0x3da3c1bf	0.079959385
124	0x3b81d989	0.0039627
125	0xbd7fc751	-0.062445942
126	0xbd4dc376	-0.050235234
127	0x3cde68e8	0.027149633
128	0xbd809587	-0.0627852
129	0x3b07afdb	0.0020704183
130	0xbd58ffd2	-0.052978344
131	0xbc9e27fc	-0.019306175
132	0x3d61760a	0.05504421
133	0xbccd815f	-0.025086103
134	0x3bd5b3ec	0.0065216925
135	0xbd59123f	-0.052995916
136	0x3db859d8	0.09001511
137	0xbdc312f8	-0.095251024
138	0xbdc22315	-0.094793476
139	0x3c1de311	0.009636656
140	0xbd105ae6	-0.035242938
141	0x3d2f74db	0.04283605
142	0xbd8b6ceb	-0.06807884
143	0x3da5da7e	0.08098315
144	0x3d8307fb	0.063980065
145	0x3c13194f	0.008978202
146	0xbd3752a2	-0.04475654
147	0x3c69daa8	0.014273323
148	0x3c73fc11	0.01489164
149	0x3dcc29ec	0.099689335
150	0xbd933233	-0.07187309
151	0xbba8c021	-0.0051498567
152	0xbdbdf893	-0.092759274
153	0x3d9dc4fa	0.07703586
154	0xbda3c1da	-0.079959586
155	0x3d6d0a68	0.057871252
156	0x3c80c5ba	0.015719283
157	0xbda36da3	-0.07979896
158	0xbce971df	-0.02849668
159	0x3ce0b111	0.027428182
160	0xbd7c3bc8	-0.06158045
161	0xbca2499a	-0.019810487
162	0xbd294567	-0.041325953
163	0xbdbe6205	-0.092960395
164	0xbc0bc369	-0.008530476
165	0x3dc92733	0.0982193
166	0xbd530fd7	-0.051528778
167	0x3dc10937	0.09425586
168	0xbca265c8	-0.019823924
169	0x3b037202	0.0020056968
170	0xbd84282f	-0.06452977
171	0x3da8d8b2	0.08244456
172	0xbd5956ba	-0.053061225
173	0xbbbb841c	-0.005722536
174	0x3d7f7514	0.062367514
175	0xbc9053fe	-0.017618176
176	0x3bafd375	0.005365784
177	0xbd5fa395	-0.054599363
178	0x3d598ce0	0.053112864
179	0x3ce7f45f	0.028314767
180	0xbbcd51c2	-0.00626585
181	0xbd7c3ffa	-0.06158445
182	0xbd590254	-0.052980736
183	0xbd9059f2	-0.07048406
184	0x3d74009e	0.0595709
185	0x3dad954b	0.08475741
186	0xbbe9b876	-0.007132585
187	0xba0bf240	-0.0005338527
188	0xbd8b74b2	-0.06809367
189	0x3d59abbf	0.053142305
190	0x3b4b8051	0.0031051824
191	0xbc536599	-0.012902641
192	0xbb58f17e	-0.0033102925
193	0xbc5031d6	-0.012707194
194	0x3c79b3a4	0.015240584
195	0xbc95597e	-0.01823115
196	0xbd916234	-0.07098809
197	0xba2d8cfe	-0.0006620436
198	0x3d922eef	0.07137858
199	0x3d9e0ae1	0.07716919
200	0xbc05cc92	-0.008166449
201	0x3cdd2df6	0.026999455
202	0x3d79c3b4	0.060977653
203	0xbb6fcd73	-0.0036590963
204	0x3c43324e	0.011913849
205	0xbda741e1	-0.08166862
206	0xbdc6ca9a	-0.09706612
207	0xbdce7412	-0.100807324
208	0xbd449874	-0.047996953
209	0x3d08183f	0.033226248
210	0x3c875e9e	0.01652461
211	0xbd947841	-0.07249499
212	0xbdcd11da	-0.100131705
213	0x3d197867	0.03746834
214	0x3d9887bf	0.074477665
215	0x3d7f863c	0.062383875
216	0xbd799b5d	-0.06093918
217	0xbba3027c	-0.0049746614
218	0xbd722544	-0.05911757
219	0x3dd725bc	0.10505244
220	0xbd3ac47e	-0.045597546
221	0x3d19198f	0.03737789
222	0x3cb55212	0.02213386
223	0xbc7329a5	-0.014841472
224	0x3d328704	0.043585792
225	0x3d7dc1e3	0.061952483
226	0xbd9fe586	-0.0780745
227	0xbc130cf7	-0.008975259
228	0x3a9617f9	0.0011451236
229	0x3ca16734	0.019702531
230	0xbcd1afcf	-0.025596527
231	0xbd8344a4	-0.064095765
232	0xbd323eb3	-0.043516826
233	0x3c51bd36	0.012801459
234	0xbd6d70cc	-0.0579689
235	0xbc431823	-0.01190761
236	0x3d021d36	0.03176614
237	0xbc01f0f4	-0.007930983
238	0x3a35188c	0.000690826
239	0x3dbf84a0	0.09351468
240	0xbd03df6b	-0.03219549
241	0x3d129199	0.035783384
242	0x3cb547e0	0.022129
243	0x3da5bce3	0.08092668
244	0xbb62e8f2	-0.003462371
245	0x3cb4ee8e	0.022086408
246	0xbb586fbd	-0.0033025586
247	0x3d9cc36a	0.0765446
248	0xbdb37035	-0.08761636
249	0xbaaaabee	-0.001302121
250	0xbd2d9bed	-0.04238503
251	0xbc3bea8a	-0.011469493
252	0xbd9a719f	-0.07541203
253	0xbda4092b	-0.08009561
254	0x3d149775	0.036277253
255	0xbb5f50b8	-0.0034075212

2.bias f4 [128]
0	0xbd9f9d8f	-0.07793724
1	0xbc2632b4	-0.0101439245
2	0xbd51005e	-0.05102574
3	0x3cd1213e	0.025528546
4	0x3d450aef	0.04810613
5	0x3c6e20ab	0.014534156
6	0x3d814fe8	0.06314069
7	0xbdcafe67	-0.09911805
8	0x3da728b9	0.08162064
9	0xbdbf0fa4	-0.09329155
10	0x3ce4df00	0.027938366
11	0xbd0975e9	-0.033559714
12	0xbcc788c5	-0.024357209
13	0x3da92b9d	0.08260272
14	0x3d572f2a	0.052535214
15	0xba6043a8	-0.00085550034
16	0x3d4814b8	0.048847884
17	0x3d0094ee	0.03139203
18	0xbdc44ca6	-0.09584932
19	0x3db5aa9a	0.0887043
20	0x3d9bda3a	0.07609983
21	0x3cb566b9	0.022143709
22	0x3daf7cb0	0.08568704
23	0xbc301af2	-0.010748612
24	0x3d999a34	0.07500115
25	0xbbb9e2f8	-0.0056728087
26	0xbd11465e	-0.035467498
27	0xbbb8a700	-0.0056351423
28	0x3cf5d0ed	0.03000685
29	0x3b30ab9d	0.0026957758
30	0x3d872f78	0.06600851
31	0x3daed371	0.08536423
32	0xbcc2caaf	-0.023778288
33	0xbd366fdb	-0.044540267
34	0x3d87fc80	0.066399574
35	0xbd10c239	-0.035341475
36	0xbc49a447	-0.012307233
37	0x3cc4edef	0.024039237
38	0xbcd8bb2a	-0.026456434
39	0xbd85d142	-0.065340534
40	0xbcf8459c	-0.03030663
41	0xbce2a26c	-0.02766534
42	0x3d6dd4f1	0.058064405
43	0xbdb3efaf	-0.087859504
44	0x3d4d2a0d	0.05008893
45	0x3da11778	0.078658044
46	0x3cf08e2c	0.029364668
47	0x3cf3dce2	0.029768411
48	0x3d0c4680	0.03424692
49	0x3d8ef208	0.069797575
50	0x3cbdb0d3	0.023155605
51	0x3c9ff804	0.019527443
52	0x3cbedf0e	0.02329972
53	0xbd02b710	-0.031912863
54	0xbaa0f5e8	-0.0012280317
55	0xbd1f72b3	-0.038927745
56	0x3d8a2607	0.067455344
57	0x3d54d879	0.051964257
58	0xbce42b33	-0.02785263
59	0xbc842dde	-0.016135152
60	0x3dc7ffad	0.09765563
61	0xbd615ec6	-0.055022024
62	0xbd95d6a2	-0.073163286
63	0x3d8dab8b	0.06917485
64	0x3c84a85f	0.016193567
65	0xbda26132	-0.07928695
66	0xbdad41e9	-0.08459837
67	0x3d284bd9	0.04108796
68	0x3d0c3a1b	0.0342351
69	0x3d36a6e9	0.04459277
70	0x3c4b5d43	0.012412372
71	0xbcb2d217	-0.021828694
72	0x3d6f58ef	0.058434423
73	0x3d8cd451	0.06876434
74	0x3d7a553d	0.061116446
75	0xbd7bd737	-0.06148454
76	0xbc635621	-0.013875515
77	0x3d052767	0.03250828
78	0xbbc4aba7	-0.006001908
79	0xbca45664	-0.020060726
80	0xbb0f168a	-0.0021833503
81	0x3d81d084	0.06338599
82	0xba8b8dea	-0.0010647152
83	0x3d549401	0.05189896
84	0xbcbc8da7	-0.023016764
85	0xbd921951	-0.07133735
86	0x3c0149e7	0.007891155
87	0x3d9e39c7	0.07725864
88	0xbbe0b358	-0.006857317
89	0xbc82b063	-0.015953248
90	0xbcac1b14	-0.021009006
91	0xbd0c2ef9	-0.034224484
92	0xbd6c3175	-0.057664353
93	0x3dc6bdb3	0.09704151
94	0xbd7e7355	-0.062121708
95	0x3d6c5e9e	0.05770742
96	0x3c809107	0.015694154
97	0xbc129770	-0.008947238
98	0x3dbd75ea	0.09251006
99	0x3d94c605	0.07264332
100	0xbc8acd76	-0.016943675
101	0x3d8104ec	0.06299767
102	0xbd7ecd2e	-0.062207393
103	0x3d1fde23	0.039030205
104	0x3d6b235e	0.057406776
105	0x3d25f704	0.040518776
106	0x3b8c3b06	0.004279497
107	0x3cd4d742	0.02598155
108	0x3ce3fdc6	0.02783097
109	0xbd15ea14	-0.036600187
110	0x3d66cd2c	0.05634801
111	0xbd90d12c	-0.07071146
112	0x3d8e8460	0.06958842
113	0xbd83e9e1	-0.06441093
114	0xbcaa17ab	-0.020763239
115	0x3da02339	0.07819218
116	0x3c03a291	0.008034364
117	0x3daadfd3	0.08343472
118	0xbd20c70d	-0.03925233
119	0x3d5485d6	0.05188545
120	0x3d315be1	0.043300513
121	0x3bdcfb55	0.0067438283
122	0x3bfd97db	0.00773905
123	0x3bc4fa49	0.0060112816
124	0x3c800415	0.015626946
125	0x3d1f1817	0.038841333
126	0x3d722892	0.059120722
127	0x3d94c903	0.072649024

4.weight f4 [64, 128]
0	0x3c6d9c82	0.014502646
1	0xbd72e2aa	-0.059298195
2	0xbd00e421	-0.03146756
3	0xbc37a2da	-0.01120826
4	0x3d7a1cea	0.06106273
5	0x3df6403d	0.12023971
6	0x3d0cb6ef	0.034354147
7	0xbc5a17fc	-0.013311382
8	0xbbe41fae	-0.0069617843
9	0xbd873e28	-0.06603652
10	0x3df468d4	0.11934057
11	0x3d2d484b	0.042305272
12	0x3dbe310e	0.092867
13	0x3de5df3c	0.11224219
14	0x3df68de4	0.12038782
15	0x3caa45c2	0.020785216
16	0x3d298af8	0.041392297
17	0xbcdf6317	-0.02726893
18	0xbc8d38cc	-0.017238997
19	0xbd1f8dc9	-0.038953576
20	0xbc1f7054	-0.009731371
21	0xbd56b66d	-0.05242007
22	0x3de98df7	0.11404031
23	0xbcad1904	-0.021130092
24	0xbc94fb49	-0.018186228
25	0x3aa8c7c8	0.0012876922
26	0xbdd516cc	-0.10404739
27	0x3c1f8035	0.009735157
28	0x3d91cf8c	0.071196645
29	0xbdbe0206	-0.0927773
30	0x3d4a47f0	0.04938501
31	0x3dade53c	0.084909886
32	0xbc7e46ed	-0.01551984
33	0xbcda774e	-0.026668217
34	0x3ded25c2	0.11579467
35	0xbcfd32b3	-0.030907964
36	0x3d0b7b80	0.034053326
37	0xbb9dda05	-0.0048172497
38	0xbd7e3753	-0.06206448
39	0xbd39ac2a	-0.045330204
40	0xbd7e8a51	-0.062143628
41	0x3c8ddb81	0.017316582
42	0xbd3a6c18	-0.045513242
43	0xbd90c65d	-0.07069085
44	0xbd1cf119	-0.038315866
45	0x3dd54d8d	0.10415182
46	0x3d33a137	0.04385492
47	0x3ced4383	0.028962856
48	0x3dfb8e25	0.12282971
49	0x3d7fa61c	0.062414274
50	0xbd6f67f6	-0.058448754
51	0x3e0380f4	0.1284216
52	0xbc5456c2	-0.012960138
53	0xbd9e7af8	-0.07738298
54	0x3e0182f3	0.1264761
55	0x3c990e25	0.018683502
56	0x3d8c4bba	0.06850381
57	0x3dcd3a0e	0.10020839
58	0xbd5ae467	-0.053440478
59	0xbd2f954f	-0.042867
60	0x3d87f47a	0.06638427
61	0xbc8e9e02	-0.017409328
62	0xbdd2341c	-0.10263845
63	0x3e052954	0.13004047
64	0xbb520d3d	-0.0032051348
65	0x3b8222fc	0.0039714556
66	0xbddd697b	-0.108111344
67	0x3dade206	0.08490376
68	0x3d08f2ef	0.033434805
69	0x3c489f33	0.012244987
70	0x3ccde2b4	0.025132515
71	0xbd2f473a	-0.042792536
72	0x3b34d250	0.0027591176
73	0xbd181ab0	-0.037134826
74	0x3df70555	0.12061564
75	0xbd81d837	-0.06340068
76	0x3daa2ba8	0.08309108
77	0xbdffc49a	-0.12488671
78	0x3e06292f	0.13101648
79	0xbc71816d	-0.01474033
80	0x3d24eb31	0.04026336
81	0x3c3cc532	0.011521624
82	0xbd90d55b	-0.07071944
83	0x3d030c86	0.031994365
84	0xbd953ee6	-0.072873875
85	0x3c5a2f0c	0.013316881
86	0x3decb243	0.11557438
87	0xbca8c91a	-0.020603705
88	0x3dc79307	0.0974484
89	0x3dee125c	0.116245955
90	0xbcd3fc93	-0.025877273
91	0x3d2015d7	0.039083328
92	0x3cfcd939	0.030865299
93	0x3e056d6e	0.13030025
94	0xbd7726e2	-0.060339816
95	0x3dbd4d4c	0.09243259
96	0x3d4d89f3	0.050180387
97	0x3db8bcb4	0.09020367
98	0x3dc65026	0.09683256
99	0x3d45859c	0.048223123
100	0x3bb2d9b0	0.0054580793
101	0x3d5af8e7	0.053460028
102	0xbbd72685	-0.006565871
103	0xbd126283	-0.03573848
104	0x3cc2b416	0.023767512
105	0x3d830383	0.06397154
106	0x3dd368c3	0.10322716
107	0xbcdf12dd	-0.027230674
108	0xbd95b277	-0.0730943
109	0xbd1b6f2d	-0.037947822
110	0xbd0ad425	-0.033893723
111	0xbd522d56	-0.051312767
112	0x3d78230e	0.060580306
113	0xbd9c2ec4	-0.07626107
114	0xbc89b957	-0.01681201
115	0xbbfa6e33	-0.0076425313
116	0xbc6bf4c8	-0.014401622
117	0x3d2d474d	0.042304326
118	0x3d962b01	0.07332421
119	0x3df33c99	0.118767925
120	0xbd834aca	-0.06410749
121	0x3decd3c4	0.115638286
122	0xbaaf7db5	-0.0013388904
123	0xbcf89317	-0.030343575
124	0x3d019029	0.031631622
125	0x3c82a9c5	0.015950093
126	0x3db8a7c6	0.09016375
127	0xbca158b9	-0.019695627
128	0x3d136b13	0.035990786
129	0xb928d579	-0.00016101253
130	0xbc8daa7f	-0.017293213
131	0x3db14482	0.08655645
132	0xbd5fed9c	-0.05466996
133	0x3d08e483	0.03342105
134	0xbd460a47	-0.048349645
135	0xbbe1d02d	-0.0068912716
136	0x3ca8dbff	0.020612715
137	0x3cc5b672	0.024134848
138	0xbde7f84d	-0.113266565
139	0xbdb2f3fe	-0.08737944
140	0x3d039f1f	0.03213417
141	0x3d19ae32	0.03751964
142	0xbbde3463	-0.0067811473
143	0x3cc67abc	0.024228446
144	0xbd5c9773	-0.05385537
145	0x3d2e132a	0.042498745
146	0x3cbcbdb4	0.023039676
147	0xbdf558fc	-0.11979863
148	0xbde7f881	-0.11326695
149	0xbd9d97f5	-0.07694999
150	0xbcec5754	-0.028850235
151	0x3b86addd	0.0041100816
152	0xbe05badf	-0.13059567
153	0xbca0c6d6	-0.019626062
154	0x3d0ee62b	0.034887474
155	0x3d94381e	0.07237266
156	0x3c95b7c7	0.018276108
157	0x3c90451f	0.017611085
158	0xbc239d96	-0.009986302
159	0xbc8460fd	-0.016159529
160	0x3de7d91e	0.11320709
161	0x3d0851ee	0.03328126
162	0xbc5cee20	-0.013484508
163	0xbd09404a	-0.033508576
164	0xbc95a1b4	-0.018265583
165	0xbdbc5fe1	-0.09197975
166	0x3daaef67	0.083464436
167	0x3ded2fe0	0.11581397
168	0x3d990efb	0.074735604
169	0xbbd72acb	-0.0065663806
170	0xbc702e20	-0.014659435
171	0x3c6c014c	0.014404606
172	0xbc7ad69a	-0.015309954
173	0x3be689dc	0.007035477
174	0xbdfa90a7	-0.122346215
175	0xbd6838df	-0.05669486
176	0x3cbc2b47	0.022969855
177	0xbc8158ec	-0.015789472
178	0xbd9e2447	-0.07721763
179	0x3cb09b04	0.021558292
180	0xbd0f072c	-0.03491895
181	0xbda98e6e	-0.082791194
182	0x3d07c10a	0.03314308
183	0x3db6fc38	0.08934826
184	0xbb9f46c6	-0.004860732
185	0xbe015dde	-0.12633464
186	0xbda28fad	-0.0793756
187	0x3d45ab16	0.048258863
188	0xbdd742c5	-0.10510782
189	0x3ce3f967	0.027828885
190	0x3dfb928c	0.12283811
191	0xbded0086	-0.115723655
192	0xbd159b11	-0.036524836
193	0x3cfc8b3e	0.030828115
194	0x3dceaebd	0.100919224
195	0xbcb38fe3	-0.021919196
196	0xbdefbed6	-0.11706321
197	0x3d78732b	0.060656708
198	0xbd941eb7	-0.07232421
199	0x3d43de9b	0.047819715
200	0xbdd48bbe	-0.10378216
201	0xba74d632	-0.0009339779
202	0xbd66be48	-0.05633381
203	0x3d8b7814	0.068100125
204	0xbdd4112d	-0.103548385
205	0x3de9f9af	0.114245765
206	0xbd8dd483	-0.06925299
207	0xbd6e0a86	-0.058115505
208	0xbd81a6ab	-0.063306175
209	0xbdbe8945	-0.09303526
210	0x3d23d743	0.04000021
211	0xbd0ea5da	-0.034826137
212	0xbd088dae	-0.03333824
213	0x3dac180c	0.08403024
214	0xbd992eea	-0.07479651
215	0xb9fbffd5	-0.0004806506
216	0xbde57d85	-0.112055816
217	0xbcb8af6e	-0.022544589
218	0xbd27c6ae	-0.04096096
219	0x3d816b22	0.06319262
220	0x3c9b5d87	0.018965496
221	0xbdd84a9c	-0.105611056
222	0x39b58469	0.00034621664
223	0xbcb91804	-0.02259446
224	0xbdeff984	-0.11717513
225	0xbd3aa58a	-0.045568027
226	0xbde0c7b7	-0.109755926
227	0x3cdb20d5	0.026749054
228	0x3dc9ace8	0.098474324
229	0x3cff605c	0.031173877
230	0x3ccad9e1	0.024762096
231	0x3d8d7d77	0.06908696
232	0xbc97ee11	-0.018546136
233	0xbb9530a9	-0.00455292
234	0x3cfb49d9	0.030674862
235	0xbd8835f2	-0.06650914
236	0x3cbbb59e	0.02291375
237	0x3c403a6e	0.011732681
238	0xbde77608	-0.113018095
239	0x3dca63fb	0.09882351
240	0xbc6a75c5	-0.014310305
241	0xbd733cdf	-0.059384223
242	0xbc3be42b	-0.011467974
243	0x3c2738fe	0.010206459
244	0x3d89860b	0.0671502
245	0xbe028993	-0.12747793
246	0x3d2a195e	0.0415281
247	0xbd24f45e	-0.04027211
248	0xbc744288	-0.01490844
249	0xbdf68586	-0.12037186
250	0x3d86be09	0.06579215
251	0xbd803908	-0.06260878
252	0xbd8774ee	-0.066140994
253	0x3bd27e53	0.0064237504
254	0x3d21a298	0.039461702
255	0xbd4eeaa3	-0.050516736

4.bias f4 [64]
0	0x3dd3dd87	0.10344987
1	0xbd85ac4e	-0.06527005
2	0x3dea352b	0.11435922
3	0x3bd58134	0.0065156464
4	0xbc0bd7e6	-0.008535361
5	0x3cf279ec	0.029599153
6	0x3ae9c2df	0.0017834565
7	0x3dd10009	0.10205085
8	0x3d9f49a6	0.07777719
9	0xbd9a8a97	-0.07545965
10	0x3d82af98	0.06381148
11	0xbd93b87f	-0.07212924
12	0xbd356e7d	-0.044294823
13	0x3c9e6b18	0.019338176
14	0x3dc12737	0.09431308
15	0x3db28974	0.08717623
16	0xbd466777	-0.048438516
17	0xbd01c05b	-0.031677585
18	0x3d960768	0.073256314
19	0xbc1dda01	-0.009634496
20	0xbc3cc541	-0.011521638
21	0x3cdfcaa1	0.0273183
22	0xbd518dd9	-0.051160667
23	0xbdaf208d	-0.085511304
24	0xbc0ba4a6	-0.008523142
25	0xbd1d0074	-0.03833051
26	0x3d5f1c37	0.054470267
27	0x3d86e0f9	0.06585879
28	0xbce06246	-0.02739061
29	0x3ce8bf2b	0.028411468
30	0xbd7224ae	-0.05911701
31	0x3d6217d8	0.05519852
32	0xbd14deaf	-0.03634518
33	0xbc583e37	-0.013198427
34	0x3d4cd74c	0.05001001
35	0xbd84b16d	-0.06479154
36	0x3de65086	0.112458274
37	0xbd272ead	-0.040815998
38	0x3c53024f	0.012878968
39	0x3d437dae	0.04772728
40	0xbdb1a2f1	-0.08673657
41	0xbce42be4	-0.02785296
42	0x3d283a0c	0.041070983
43	0x3c0434ba	0.008069212
44	0xbc9c36f5	-0.019069174
45	0xbd1402d4	-0.03613551
46	0x3d294dd6	0.041333996
47	0x3def9312	0.11697973
48	0xbdc272fa	-0.09494586
49	0xbd87c200	-0.066287994
50	0xbc81e1dc	-0.015854768
51	0x3d4f5336	0.050616466
52	0xbe04556f	-0.12923215
53	0x3d9a00e3	0.075197004
54	0x3c91fe40	0.017821431
55	0xbd92ada9	-0.07162029
56	0x3cdf2bcd	0.027242566
57	0x3d899584	0.06717971
58	0xbd1dc9da	-0.03852258
59	0x3d037fa7	0.03210416
60	0x3d07713f	0.033066984
61	0x3d95ce6b	0.07314762
62	0xbbb2fec7	-0.0054625007
63	0x3db9f8f7	0.090806894

6.weight f4 [1, 64]
0	0xbdcb4c51	-0.099266656
1	0x3e1c27ef	0.15249608
2	0xbdb5e9af	-0.08882462
3	0xbd7ff7c8	-0.062492162
4	0xbd9d3e47	-0.07677894
5	0x3db18b2b	0.08669122
6	0x3d8ea7be	0.06965588
7	0xbde77a0a	-0.11302574
8	0xbdaa2224	-0.08307293
9	0x3dc3a4e0	0.09552932
10	0x3deea109	0.11651809
11	0x3de1a201	0.11017228
12	0xbddf3b5c	-0.10899994
13	0x3df0cf8b	0.11758336
14	0xbe1390d5	-0.14410718
15	0xbd8f1017	-0.06985491
16	0x3d34c2ad	0.04413097
17	0xbe16fa3b	-0.14743893
18	0x3dcf2a95	0.10115544
19	0xbd6f0349	-0.058352742
20	0x3d352474	0.044224218
21	0xbe1aeb30	-0.1512878
22	0x3d968098	0.07348746
23	0x3dd56ac4	0.104207546
24	0xbdbdd22d	-0.092686035
25	0xbdaa7674	-0.083233744
26	0xbd1e95a9	-0.038716946
27	0xbe2bae59	-0.16765727
28	0x3e296487	0.16542254
29	0xbd23691d	-0.039895166
30	0x3e2076e7	0.15670358
31	0x3dfcc31c	0.12341902
32	0xbde5c154	-0.11218515
33	0xbd56336e	-0.05229514
34	0xbd9c1810	-0.07621777
35	0x3ddd9b82	0.108206764
36	0xbdd2777f	-0.10276698
37	0x3e26b87b	0.16281311
38	0x3e0de7dd	0.1385798
39	0x3d88583b	0.066574536
40	0x3e270d31	0.16313626
41	0x3d726a72	0.059183545
42	0xbde8d8a4	-0.11369446
43	0xbddd02bb	-0.107915364
44	0x3de5d4dd	0.11222241
45	0xbe0c13da	-0.13679448
46	0x3de32c47	0.110924296
47	0xbe2b2b6e	-0.16715786
48	0x3e17218b	0.1475889
49	0x3d83513d	0.06411979
50	0x3e1a4dde	0.15068766
51	0xbd5a72f1	-0.053332273
52	0x3d46fe58	0.048582405
53	0xbd65871e	-0.05603706
54	0xbde1ec68	-0.11031419
55	0x3e0331bc	0.12811941
56	0xbe1b1c62	-0.15147546
57	0xbdc13ae6	-0.09435062
58	0x3ddd00ec	0.107911915
59	0xbe0c724c	-0.13715476
60	0xbe282567	-0.16420518
61	0xbdbc3aae	-0.0919088
62	0xbd740af8	-0.059580773
63	0xbd70d0d8	-0.05879292
