src/training/critic.pth (torch, 200436 bytes, 7 tensors)

0.weight f4 [256, 31]
0.19815049 0.041652583 0.059829496 0.069524355 0.12163279 -0.08612662 -0.04954334 -0.07852529
-0.09456544 -0.16448894 -0.11526941 0.17076223 0.1481533 0.1423565 0.0063996348 0.10797223
0.19664656 -0.01863904 0.1441788 0.14445783 0.06897037 0.006232109 0.083477415 0.0063745957
0.053840883 -0.043557554 -0.1401337 -0.05017534 0.074865915 -0.05658936 -0.13014022 0.1367668
0.12394696 -0.08410286 0.14293209 0.09407088 -0.061510295 0.15261133 0.13246652 0.113724716
0.12454036 0.08841032 -0.09880515 0.09471097 0.055722382 0.17511627 0.21671899 -0.02447031
0.1140957 -0.032193605 0.11008005 0.19423951 0.041770764 0.14238442 -0.19567078 -0.07184034
-0.07717379 0.06330463 0.10334189 -0.04453088 0.05429513 -0.1477717 0.31325623 0.002144903
-0.10439846 0.10296854 0.0411304 0.05008503 -0.059369124 0.16623674 0.0064919787 -0.12661996
-0.114942364 -0.1572639 -0.1527756 -0.17864026 0.049022444 -0.12201421 0.20370764 -0.08570517
-0.13893615 -0.17196354 -0.07915866 0.17235218 0.10334658 0.12108474 0.117782734 -0.080773406
0.03152551 -0.1423096 -0.07997484 0.026136586 -0.110690616 0.19467333 -0.08628966 -0.0067472323
0.14598636 -0.016021032 -0.09593607 0.10992718 -0.05448851 0.056496378 -0.12971619 -0.08739126
-0.06769304 0.15778735 0.0047354726 0.13437721 0.034940843 0.19200107 0.20435989 0.012751473
-0.00888847 0.061925672 0.02136116 -0.14114906 0.051995493 0.1709077 -0.0034131526 -0.020108234
0.12965102 -0.15819742 0.11323994 0.03513198 0.20630257 -0.08135735 0.08008989 -0.13087736
-0.11502055 0.0135808 -0.021097811 0.041502647 0.17097935 0.010540278 0.13983741 0.07306113
0.09889739 -0.04672733 0.16488919 0.21184377 0.011177144 -0.06912613 0.14923574 0.027510565
-0.06518645 0.21359546 -0.021958588 -0.14531094 -0.14566718 -0.13050474 0.046542622 0.06474302
0.029778363 0.16049226 -0.073034026 -0.08020678 -0.03468039 -0.20080143 0.066912726 -0.023621075
-0.115921296 -0.077393144 0.042262573 -0.009144904 -0.17351645 -0.07435741 0.1428805 0.020041492
-0.1445144 -0.1691556 -0.11877552 -0.14102629 -0.10797929 -0.13266379 0.056805648 -0.14106286
-0.19319987 -0.044669192 -0.027246676 0.1221981 0.052026525 -0.047792725 0.15957503 -0.13021864
-0.014050656 -0.10022733 0.20463015 0.10018532 -0.11543626 0.014046802 -0.10241687 0.031059295
-0.15158506 -0.018902196 0.030150093 0.13255921 0.107255414 -0.097760916 0.20760691 0.12187709
-0.057888154 -0.03203166 -0.05495797 -0.023746049 0.1364972 -0.17894515 0.105371244 0.11264781
-0.16528973 -0.07864153 0.07256594 0.16326252 0.06283272 0.13309804 0.05055934 0.100971825
0.14108707 -0.3956863 0.079462394 -0.048602555 -0.12838328 -0.051444817 -0.13631839 0.0022352687
-0.10285926 0.06176874 0.06085029 0.15799911 -0.08359629 -0.14179814 -0.014535799 -0.013802036
0.101354025 0.0807878 0.11065832 -0.07560076 -0.08424472 -0.13677713 -0.07374477 0.17906417
-0.10233746 -0.13545461 -0.03630115 0.13005094 -0.15776394 0.043519508 -0.0074331895 0.1279172
0.24943301 0.09376658 0.22014207 -0.17355318 0.034019507 0.0015014412 -0.17932975 -0.13469149
00000000: f6e7 4a3e e69b 2a3d c60f 753d c962 8e3d
00000010: 9d1a f93d 2763 b0bd f5ed 4abd ded1 a0bd
00000020: 87ab c1bd ca6f 28be 5e12 ecbd 4bdc 2e3e
00000030: 80b5 173e e7c5 113e 07b4 d13b 8b20 dd3d
00000040: b75d 493e e6b0 98bc 9ba3 133e c1ec 133e
00000050: 5640 8d3d b836 cc3b 35f6 aa3d fce1 d03b
00000060: 4288 5c3d 6869 32bd 357f 0fbe a884 4dbd
00000070: 4d53 993d 3fca 67bd 7a43 05be 990c 0c3e
00000080: e7d7 fd3d 1f3e acbd ca5c 123e 3ca8 c03d
00000090: 38f2 7bbd 2546 1c3e 4ea5 073e 81e8 e83d
000000a0: 040f ff3d 7810 b53d 5b5a cabd d3f7 c13d
000000b0: 273d 643d ae51 333e 95eb 5d3e f675 c8bc
000000c0: 02ab e93d 71dd 03bd a671 e13d b9e6 463e
000000d0: d217 2b3d 39cd 113e ec5d 48be 0721 93bd
000000e0: 4b0d 9ebd dca5 813d eaa4 d33d 0366 36bd
000000f0: 9264 5e3d 7751 17be 1f63 a03e 8091 0c3b
00000100: dcce d5bd 2be1 d23d 5a78 283d f625 4d3d
00000110: 0a2d 73bd f739 2a3e aaba d43b aaa8 01be
00000120: e766 ebbd ca09 21be 3571 1cbe 79ed 36be
00000130: c2cb 483d 96e2 f9bd bc98 503e 3186 afbd
00000140: 4745 0ebe 3617 30be ef1d a2bd 177d 303e
00000150: 5fa7 d33d 47fb f73d 1338 f13d 876c a5bd
00000160: e520 013d 9cb9 11be d9c9 a3bd 651c d63c
00000170: c3b1 e2bd 7258 473e a2b8 b0bd e317 ddbb
00000180: 737d 153e 8a3e 83bc 217a c4bd 8021 e13d
00000190: 582f 5fbd bf68 673d 52d4 04be 30fa b2bd
000001a0: a6a2 8abd 0293 213e 062c 9b3b 2e9a 093e
000001b0: 211e 0f3d ee9b 443e b843 513e 8eeb 503c
000001c0: f2a0 11bc c6a5 7d3d 99fd ae3c 6189 10be
000001d0: 3af9 543d 6e02 2f3e 33af 5fbb 06ba a4bc
000001e0: 3dc3 043e 81fe 21be 57ea e73d 8de6 0f3d
000001f0: fb40 533e af9e a6bd 2b06 a43d b704 06be
00000200: e58f ebbd 0182 5e3c 51d5 acbc aefe 293d
00000210: 3615 2f3e 21b1 2c3c 8a31 0f3e 13a1 953d
00000220: b78a ca3d 2865 3fbd b6d8 283e 93ed 583e
00000230: 5720 373c 0092 8dbd 41d1 183e d65d e13c
00000240: 7980 85bd c5b8 5a3e 7fe2 b3bc 64cc 14be
00000250: c729 15be 09a3 05be 7aa3 3e3d fd97 843d
00000260: c1f1 f33c 1558 243e dd92 95bd 7443 a4bd
00000270: 060d 0ebd e49e 4dbe 8a09 893d fc80 c1bc
00000280: 2568 edbd 4c80 9ebd 851b 2d3d 82d4 15bc
00000290: 4cae 31be b348 98bd 444f 123e 0e2e a43c
000002a0: 95fb 13be 2037 2dbe 9440 f3bd 3269 10be
000002b0: 3f24 ddbd 04d9 07be 0aad 683d c872 10be
000002c0: 30d6 45be 0bf7 36bd 6c34 dfbc ff42 fa3d
000002d0: c419 553d 4ec2 43bd a367 233e 0958 05be
000002e0: b934 66bc fd43 cdbd 918a 513e f62d cd3d
000002f0: d969 ecbd 8f24 663c f0bf d1bd 1070 fe3c
00000300: 1d39 1bbe c7d8 9abc 54fd f63c 9abd 073e
00000310: baa8 db3d e036 c8bd e896 543e b29a f93d
00000320: 211c 6dbd a133 03bd 9c1b 61bd 1387 c2bc
00000330: ecc5 0b3e 663d 37be e1cc d73d e5b3 e63d
00000340: b641 29be cf0e a1bd 749d 943d 4a2e 273e
00000350: 71ae 803d da4a 083e 4f17 4f3d 51ca ce3d
00000360: 2179 103e 6597 cabe 2ebd a23d 7913 47bd
00000370: e876 03be cdb7 52bd 0c97 0bbe 967d 123b
00000380: e0a7 d2bd 3801 7d3d 273e 793d 85ca 213e
00000390: 8834 abbd 8833 11be 8f27 6ebc ef21 62bc
000003a0: b392 cf3d 1374 a53d d4a0 e23d 92d4 9abd
000003b0: 7f88 acbd 4e0f 0cbe 7f07 97bd 995c 373e
000003c0: 4d96 d1bd 9db4 0abe 84b0 14bd 132c 053e
000003d0: df8c 21be 8341 323d 1d92 f3bb bafc 023e
000003e0: 5e6b 7f3e b108 c03d ec6c 613e edb7 31be
000003f0: 0a58 0b3d 02cc c43a 38a2 37be 91ec 09be

0.bias f4 [256]
0.15053222 0.033669453 -0.1549092 0.028429385 0.16130494 -0.17933102 0.20901409 -0.0930919
0.04729976 0.0630278 0.10889721 -0.0054689776 -0.18098329 0.057846498 0.15921044 -0.0054670633
-0.18162552 -0.18218735 0.10063001 0.07589821 0.20374233 0.10999284 -0.16798185 -0.00285033
-0.14604254 -0.21011314 -0.20657854 0.19427253 -0.12790433 0.12068367 0.05680998 0.05455229
-0.06987571 -0.08032863 0.06395146 0.16071299 -0.05303549 0.21164952 -0.15787312 -0.20137492
0.07796205 -0.04093383 0.14654835 0.22512253 -0.13714465 -0.028098457 0.16701208 -0.1819386
-0.0941042 0.22250862 -0.12525205 -0.011338232 -0.20686044 -0.09397251 -0.0077007534 -0.082896285
0.1293785 -0.22441916 -0.03461189 0.072419964 -0.030282527 0.124273 -0.080298424 0.18927841
-0.077521995 -0.062897086 -0.1860066 0.12224042 0.016583527 0.02382025 -0.17727186 0.17783111
0.12197079 0.09179934 -0.12077948 0.0978498 -0.05505572 0.22342178 0.14655197 0.13405755
-0.13864517 -0.026053116 0.08679014 -0.062722884 0.026611432 -0.09927081 -0.12349126 0.109327495
-0.16688797 0.14745575 0.12965764 0.12452343 0.17423245 -0.14434333 -0.11062919 -0.149533
-0.015993731 0.035112683 0.033108868 -0.05936052 -0.16931996 -0.09060741 -0.04139816 0.015875345
0.112719886 0.06824842 -0.1510539 -0.16150635 0.122144654 -0.11827267 0.12579241 0.022263918
-0.0037590885 -0.2154986 -0.15324661 -0.030952519 -0.17902164 0.17014126 -0.1046491 0.0013064701
0.017614232 -0.14582114 0.039855886 -0.06044151 0.07254312 -0.08011926 0.17913231 -0.05040822
0.0876974 0.08973053 0.0061133723 0.003142457 -0.13625441 -0.023375062 0.025147399 -0.20032224
-0.08134882 0.074111626 -0.1191436 -0.20090328 0.13859758 0.15588497 -0.007815508 0.03137913
-0.08298105 0.10110008 0.22776408 -0.099922195 -0.07742237 -0.022066955 0.0024488734 0.07358291
-0.19341949 0.056810826 -0.15890647 0.20177631 0.046252728 -0.0033317881 -0.10493525 -0.07337465
0.114321806 0.06848389 0.18365383 -0.045328163 -0.12936404 0.07054644 -0.118627094 -0.21960816
-0.21740884 -0.16121507 -0.17497501 0.20101698 0.21274216 0.21291515 -0.056947105 -0.16216537
0.21912552 0.13638988 -0.0719862 -0.19064842 -0.009864945 0.13314134 0.15332301 -0.0728496
-0.07501631 -0.056895163 -0.10638268 0.2133367 0.047822397 -0.0928818 -0.09099737 -0.08918972
0.05434757 0.09729429 0.04520038 -0.13855165 -0.106524676 0.17961219 0.218461 -0.09718677
0.11353507 0.011981153 0.1939131 -0.06844731 -0.20616977 0.1840501 -0.08413629 0.033948585
-0.031664282 -0.15748382 0.056379322 0.16149686 0.13732433 0.10802395 0.1220341 0.1974722
-0.06990637 0.0346985 -0.0838704 -0.23043773 0.09237091 0.08045078 -0.014731702 -0.06377285
-0.045111176 -0.02489229 0.15571915 0.11514176 -0.022783734 0.073232815 -0.049902175 -0.13000499
-0.12701166 0.12426108 -0.18597767 0.046522386 -0.08522279 0.0049299467 0.04711871 0.11618644
0.05840107 -0.015141384 0.09781974 -0.1195019 0.04755943 -0.19949597 0.08670366 -0.0064535066
0.06532593 0.06819676 0.049373314 -0.10716837 0.07442404 0.04692174 0.054555282 -0.08301074
00000000: 1e25 1a3e fbe8 093d 84a0 1ebe bee4 e83c
00000010: 1f2d 253e 8da2 37be ca07 563e f7a6 bebd
00000020: 65bd 413d b814 813d 8005 df3d 1c35 b3bb
00000030: af53 39be 73f0 6c3d 1008 233e 0d25 b3bb
00000040: 0afc 39be 528f 3abe 1b17 ce3d 8570 9b3d
00000050: d4a1 503e ed43 e13d 6f03 2cbe 9acc 3abb
00000060: 2d8c 15be e627 57be 5389 53be 61ef 463e
00000070: 5af9 02be 0029 f73d 95b1 683d 3972 5f3d
00000080: ff1a 8fbd 5683 a4bd fcf8 823d f291 243e
00000090: be3b 59bd a7ba 583e 7ea9 21be 3a35 4ebe
000000a0: 91aa 9f3d 3baa 27bd c510 163e 8586 663e
000000b0: a66f 0cbe bc2e e6bc 3705 2b3e 1d4e 3abe
000000c0: b4b9 c0bd 4dd9 633e 1342 00be fec3 39bc
000000d0: 39d3 53be a974 c0bd 9a56 fcbb 87c5 a9bd
000000e0: cc7b 043e 23ce 65be 32c5 0dbd eb50 943d
000000f0: 1013 f8bc d882 fe3d 8073 a4bd 33d2 413e
00000100: dac3 9ebd 30d0 80bd 8478 3ebe 2f59 fa3d
00000110: 2dda 873c af22 c33c c186 35be 5c19 363e
00000120: d2cb f93d 4b01 bc3d 3b5b f7bd 7a65 c83d
00000130: 1b82 61bd aec8 643e b811 163e 6246 093e
00000140: 00f9 0dbe 586d d5bc 07bf b13d db74 80bd
00000150: 3800 da3c 7f4e cbbd fce8 fcbd 18e7 df3d
00000160: aee4 2abe a4fe 163e f9c4 043e 2406 ff3d
00000170: fe69 323e bdce 13be 8f91 e2bd 2e1f 19be
00000180: 4905 83bc 51d2 0f3d 2a9d 073d 0424 73bd
00000190: 3662 2dbe 6190 b9bd 1e91 29bd 030d 823c
000001a0: afd9 e63d d4c5 8b3d e0ad 1abe ec61 25be
000001b0: fa26 fa3d f138 f2bd bacf 003e d262 b63c
000001c0: 0a5b 76bb aaab 5cbe aeec 1cbe 2390 fdbc
000001d0: 7351 37be 8339 2e3e 4452 d6bd dd3d ab3a
000001e0: b94b 903c 2352 15be ed3f 233d 8491 77bd
000001f0: 7d91 943d 9115 a4bd 766e 373e da78 4ebd
00000200: b29a b33d a4c4 b73d af52 c83b aef1 4d3b
00000210: 4786 0bbe 0f7d bfbc eb01 ce3c 4621 4dbe
00000220: 369a a6bd d6c7 973d 8f01 f4bd 97b9 4dbe
00000230: 86ec 0d3e 4fa0 1f3e 9e0c 00bc 6787 003d
00000240: f8f1 a9bd 8f0d cf3d fd3a 693e 02a4 ccbd
00000250: 9f8f 9ebd c2c5 b4bc 477d 203b a3b2 963d
00000260: c20f 46be 78b2 683d 61b8 22be 739e 4e3e
00000270: 8073 3d3d 215a 5abb 4be8 d6bd 7345 96bd
00000280: 8d21 ea3d 4841 8c3d c00f 3c3e 06aa 39bd
00000290: 0278 04be a77a 903d c3f2 f2bd f6e0 60be
000002a0: 6ca0 5ebe 9015 25be a62c 33be 65d7 4d3e
000002b0: 15d9 593e 6e06 5a3e 5e41 69bd ae0e 26be
000002c0: 7162 603e caa9 0b3e 806d 93bd 5739 43be
000002d0: 94a0 21bc 3456 083e b500 1d3e 2c32 95bd
000002e0: 27a2 99bd e70a 69bd 2adf d9bd f074 5a3e
000002f0: 6be1 433d d038 bebd d45c babd 1aa9 b6bd
00000300: 8f9b 5e3d 3b42 c73d 0924 393d 7ce0 0dbe
00000310: 9c29 dabd 42ec 373e 3eb4 5f3e db09 c7bd
00000320: 1385 e83d 994c 443c 2891 463e 1a2e 8cbd
00000330: 2b1e 53be a177 3c3e a64f acbd ac0d 0b3d
00000340: 68b2 01bd 7043 21be 01ee 663d 6f5f 253e
00000350: c09e 0c3e a93b dd3d 04ed f93d 2736 4a3e
00000360: 122b 8fbd 0420 0e3d 3fc4 abbd def7 6bbe
00000370: f62c bd3d 61c3 a43d 3d5d 71bc 579b 82bd
00000380: 7fc6 38bd eaea cbbc d774 1f3e 71cf eb3d
00000390: f4a4 babc 16fb 953d 3966 4cbd 0720 05be
000003a0: 580f 02be 987c fe3d ee70 3ebe 428e 3e3d
000003b0: 4989 aebd 648b a13b 8cff 403d 28f3 ed3d
000003c0: f635 6f3d 9113 78bc b755 c83d 6abd f4bd
000003d0: adcd 423d ac48 4cbe b091 b13d f077 d3bb
000003e0: 9ac9 853d beaa 8b3d ac3b 4a3d 177b dbbd
000003f0: a26b 983d 0331 403d 5c75 5f3d 8901 aabd

2.weight f4 [128, 256]
0.05583884 -0.004645068 -0.060533877 0.059705995 -0.06319173 -0.048567235 0.019466996 0.040481333
0.0034254498 -0.0028870269 0.05782274 -0.021916253 0.02134292 0.0017095645 0.012835571 -0.026153397
0.012355311 0.028071104 -0.043323282 0.032103993 0.03306302 0.0047908193 0.011349195 -0.042986162
-0.045418523 0.017311713 -0.005534127 0.003761118 0.035664115 0.049142744 -0.032580923 -0.012113019
0.03733193 0.046516187 -0.0095152715 -0.0076798867 0.00300344 0.029258087 0.021652004 0.06127594
-0.06247664 0.026612232 -0.009768261 0.033543747 -0.048019838 0.022736784 -0.009064208 0.018571248
-0.0056220363 -0.018021759 0.046769425 -0.018807016 0.07701379 0.049770948 0.042689227 -0.010701823
0.05309425 0.06575295 0.011333752 0.014302299 -0.03457846 0.016017478 -0.041787278 -0.05878028
0.046974804 0.031656288 0.028773138 -0.005537519 0.022720903 0.05923097 0.027223002 0.018936371
0.034787815 -0.030231118 0.05065718 0.061055806 0.0013138498 0.035561744 -0.057599254 -0.049408324
0.04505495 -0.010272948 -0.03223262 0.03528947 -0.026368616 0.014636957 0.034927454 -0.018436696
-0.05778776 0.05551841 -0.033780877 0.007902858 0.031602908 -0.046973094 0.029648684 -0.03682772
-0.052178 -0.010325298 -0.023304401 -0.0025332076 0.06129427 0.046803057 -0.06529697 -0.042284396
-0.048316445 0.053135995 0.02200721 -0.021707635 0.019834412 0.023677988 -0.044926748 -0.030279001
-0.031735312 -0.05361459 0.06171021 0.020135544 0.013972856 0.022954404 -0.023719186 -0.0013564379
0.050528865 -0.028584784 -0.048351873 0.048992306 -0.014646581 0.042545453 -0.010447619 -0.026115704
-0.051960997 0.03151182 -0.044739455 0.049062524 -0.028630102 -0.04841577 0.0042114514 -0.047394454
-0.038475476 0.017109916 0.062213063 -0.011930017 -0.058572944 -0.025029222 -0.038378764 -0.02172102
-0.027748963 0.017221373 -0.00060904404 -0.053524878 -0.06625042 -0.030724877 0.021264136 0.013073314
0.014580988 -0.013041381 -0.053594187 0.056987617 0.0007949003 -0.05176857 0.0003121379 0.041946415
-0.0481338 -0.04594996 0.031160876 -0.0041274177 -0.024174752 -0.06064726 -0.06340661 -0.019095726
-0.023539638 -0.018878784 0.04019128 0.054036252 -0.0049829045 0.029176613 -0.0014015143 0.043957166
-0.038234346 0.0042383918 -0.018414617 0.028423829 0.04720654 -0.017340694 -0.03568227 0.04310573
0.02804101 0.017491288 -0.04885295 -0.0057447427 0.032774612 0.058738045 -0.028471828 -0.04994523
0.06243758 0.065220684 0.0013836108 -0.025539383 -0.028504547 -0.057355285 0.054542582 0.0033081658
0.04073994 -0.024187839 0.05941579 0.036722016 -0.030324593 -0.043056495 0.026292514 -0.002787744
0.033493754 -0.021784231 -0.052326214 -0.04721881 -0.039766066 0.046173964 0.03309387 0.059849128
-0.026266214 0.0068441103 0.03166417 0.017849194 0.05911536 0.016510515 0.043095276 -0.056033768
-0.0024018039 0.06612108 0.010248353 0.05217217 -0.047600444 0.0080254115 -0.032265548 0.014084488
0.033836253 0.031752016 -0.047309622 0.02895036 0.014161034 -0.015228864 -0.040639784 0.029845586
-0.03549161 -0.016095538 -0.0061150966 -0.023691986 0.061257828 -0.0089233015 -0.027006391 0.01589111
-0.03658257 -0.03807461 -0.002119361 0.021147879 -0.035383485 0.018583003 -0.0248959 0.024316575
00000000: 44b7 643d a835 98bb 5ff2 77bd 468e 743d
00000010: aa6a 81bd 70ee 46bd 4079 9f3c c1cf 253d
00000020: 837d 603b 4634 3dbb 8ad7 6c3d b789 b3bc
00000030: 59d7 ae3c 7713 e03a 494c 523c a63f d6bc
00000040: ee6d 4a3c 5ff5 e53c c173 31bd 7a7f 033d
00000050: 176d 073d 4efc 9c3b f9f1 393c 4212 30bd
00000060: c608 3abd 4bd1 8d3c 9f57 b5bb 177d 763b
00000070: 8914 123d e749 493d 9373 05bd af75 46bc
00000080: 5ee9 183d c287 3e3d f1e5 1bbc 8fa7 fbbb
00000090: 5dd5 443b a8ae ef3c 8b5f b13c 7bfc 7a3d
000000a0: 81e7 7fbd e501 da3c 0e0b 20bc 2b65 093d
000000b0: 73b0 44bd 7e42 ba3c 0b82 14bc bb22 983c
000000c0: 0f39 b8bb 5ea2 93bc 4c91 3f3d 2c11 9abc
000000d0: 68b9 9d3d 9fdc 4b3d e6da 2e3d b356 2fbc
000000e0: 5b79 593d 7ca9 863d 34b1 393c 3154 6a3c
000000f0: 25a2 0dbd 1637 833c 2329 2bbd 97c3 70bd
00000100: a768 403d 06aa 013d a5b5 eb3c 1474 b5bb
00000110: 3021 ba3c 2c9c 723d c602 df3c 7320 9b3c
00000120: ab7d 0e3d 40a7 f7bc e77d 4f3d a715 7a3d
00000130: 7c35 ac3a 31a9 113d 32ed 6bbd 6260 4abd
00000140: 8a8b 383d de4f 28bc 5a06 04bd b18b 103d
00000150: ff02 d8bc d9cf 6f3c 1710 0f3d 8e08 97bc
00000160: dcb2 6cbd 4667 633d d15d 0abd fd7a 013c
00000170: 0d72 013d dc66 40bd cce1 f23c aad8 16bd
00000180: 99b8 55bd 702b 29bc dfe8 bebc 2c04 26bb
00000190: b30f 7b3d 90b4 3f3d 6bba 85bd 6732 2dbd
000001a0: 77e7 45bd 21a5 593d 7748 b43c 36d4 b1bc
000001b0: c77b a23c 57f8 c13c 1c05 38bd ab0b f8bc
000001c0: e3fc 01bd f99a 5bbd d8c3 7c3d 4cf3 a43c
000001d0: 68ee 643c e00a bc3c bd4e c2bc 81ca b1ba
000001e0: 5bf7 4e3d a32a eabc 9d0c 46bd 28ac 483d
000001f0: 37f8 6fbc 2444 2e3d 7d2c 2bbc 9af0 d5bc
00000200: 0ed5 54bd 8a12 013d b840 37bd c9f5 483d
00000210: ad89 eabc 9d4f 46bd 3700 8a3b b020 42bd
00000220: 7698 1dbd 182a 8c3c 20d3 7e3d 1e76 43bc
00000230: 2fea 6fbd 150a cdbc 0d33 1dbd 48f0 b1bc
00000240: cb51 e3bc d613 8d3c 41a8 1fba e73c 5bbd
00000250: 4dae 87bd bdb2 fbbc 2032 ae3c 7431 563c
00000260: 19e5 6e3c 84ab 55bc 9485 5bbd d96b 693d
00000270: db60 503a 480b 54bd 71a6 a339 01d0 2b3d
00000280: f327 45bd 0636 3cbd 1845 ff3c 4a3f 87bb
00000290: 210a c6bc 4369 78bd 53db 81bd a46e 9cbc
000002a0: 33d6 c0bc aea7 9abc 9d9f 243d 1e55 5d3d
000002b0: a247 a3bb cb03 ef3c 04b3 b7ba 6e0c 343d
000002c0: 9e9b 1cbd 35e2 8a3b 40da 96bc 17d9 e83c
000002d0: a55b 413d 120e 8ebc 9227 12bd a28f 303d
000002e0: 43b6 e53c e449 8f3c 081a 48bd 653e bcbb
000002f0: ac3e 063d 4e97 703d c03d e9bc 5f93 4cbd
00000300: 8cbe 7f3d 6c92 853d 465a b53a f837 d1bc
00000310: 5e82 e9bc 60ed 6abd 0b68 5f3d d0cd 583b
00000320: ecde 263d 9325 c6bc f95d 733d d369 163d
00000330: 486b f8bc 025c 30bd 6663 d73c 95b2 36bb
00000340: bf30 093d d874 b2bc 0354 56bd 8368 41bd
00000350: bee1 22bd e920 3d3d 708d 073d 5c24 753d
00000360: 3e2c d7bc 8f44 e03b 4ab2 013d 7938 923c
00000370: f322 723d 0f41 873c ac84 303d aa83 65bd
00000380: 9567 1dbb 7d6a 873d b5e8 273c 7cb2 553d
00000390: aff8 42bd 047d 033c e128 04bd a0c2 663c
000003a0: e297 0a3d 670e 023d bcc7 41bd 4e29 ed3c
000003b0: ae03 683c 7c82 79bc e775 26bd bb7e f43c
000003c0: a75f 11bd cada 83bc 2661 c8bb b215 c2bc
000003d0: 7de9 7a3d 0a33 12bc 823c ddbc 132e 823c
000003e0: 9bd7 15bd 1ff4 1bbd fae4 0abb 513e ad3c
000003f0: 46ee 10bd 623b 983c 7df2 cbbc 8e33 c73c

2.bias f4 [128]
0.03127923 0.10978915 -0.049475644 0.03705842 -0.035505105 0.00029928098 -0.11167721 0.0046974393
0.090770915 0.09881503 0.08224032 0.08431229 -0.04634309 0.109251425 -0.006032531 0.026649348
-0.008080244 -0.030828817 -0.077281415 -0.055597246 -0.00082037935 -0.017347597 -0.041227315 0.05418394
0.075483166 -0.05443453 -0.064773254 -0.03566087 0.026925623 0.026307523 -0.04565811 0.005165099
-0.08621607 -0.013333818 -0.0076177893 0.048168927 0.10370256 0.0949831 -0.025595285 0.025162738
-0.06740065 0.036193196 0.07820969 -0.045799013 0.01464525 0.022807527 0.06646918 -0.022051807
0.1035141 0.004770741 0.0123456465 -0.022213211 -0.07724504 0.06528752 -0.034879338 -0.05733298
0.068979375 0.01764276 0.040747233 -0.036604136 -0.088307 -0.009634629 0.024548868 -0.10821629
-0.047470823 0.026049232 -0.104141675 -0.047677718 -0.06142908 0.110565364 0.10661764 0.0036105507
0.053223375 0.02411215 0.020606313 -0.025230953 -0.0019114028 -0.08147643 0.077621445 -0.039342575
0.086321585 -0.01801042 0.00972711 0.04017069 0.017074274 0.088486925 0.09620213 0.063920245
-0.08509402 -0.09880308 0.012833319 -0.0194976 -0.055995557 0.0020683303 0.074205354 -0.037300687
-0.083459355 -0.010179636 -0.0072202855 -0.077670015 0.08744224 0.08569573 -0.08910944 -0.10176658
7.1887276e-05 0.1001894 -0.065503605 -0.10825703 -0.110182635 0.013383367 0.05848361 0.010940555
0.10696037 0.08488628 -0.034246508 -0.10236209 0.041697685 -0.06604941 -0.004504787 0.0025352195
-0.08533645 0.005204044 -0.045741167 -0.0040792925 0.004036741 -0.0050987117 0.04640287 -0.039681274
00000000: a61e 003d 22d9 e03d f9a6 4abd 92ca 173d
00000010: cd6d 11bd d0e8 9c39 05b7 e4bd faec 993b
00000020: 1ae6 b93d 895f ca3d 9d6d a83d ecab ac3d
00000030: 40d2 3dbd 36bf df3d 8aac c5bb bc4f da3c
00000040: 0063 04bc b78c fcbc b845 9ebd f0b9 63bd
00000050: ba0e 57ba 8c1c 8ebc f9dd 28bd fbef 5d3d
00000060: eb96 9a3d bef6 5ebd d7a7 84bd 2211 12bd
00000070: 2093 dc3c e082 d73c 0004 3bbd fe3f a93b
00000080: 0d92 b0bd 1676 5abc a69e f9bb c84c 453d
00000090: 0262 d43d 8086 c23d 34ad d1bc 1622 ce3c
000000a0: 5a09 8abd 513f 143d 672c a03d bf97 3bbd
000000b0: a1f2 6f3c dad6 ba3c fe20 883d fea5 b4bc
000000c0: 33ff d33d e053 9c3b 6545 4a3c 7bf8 b5bc
000000d0: a632 9ebd 77b5 853d a3dd 0ebd fdd5 6abd
000000e0: 0f45 8d3d 8d87 903c 92e6 263d 38ee 15bd
000000f0: 4dda b4bd 90da 1dbc b51a c93c 81a0 ddbd
00000100: c470 42bd 3365 d53c 3b48 d5bd b649 43bd
00000110: 0f9d 7bbd 1870 e23d 595a da3d fd9e 6c3b
00000120: c100 5a3d d886 c53c 92ce a83c 25b1 cebc
00000130: 0988 faba 1ddd a6bd fef7 9e3d ae25 21bd
00000140: 5fc9 b03d 978a 93bc 755e 1f3c 058a 243d
00000150: 59df 8b3c a238 b53d 9f05 c53d 9ee8 823d
00000160: c645 aebd 4559 cabd d742 523c 6eb9 9fbc
00000170: 995b 65bd d38c 073b faf8 973d 9bc8 18bd
00000180: bdec aabd 7dc8 26bc 2598 ecbb 7511 9fbd
00000190: eb14 b33d 3e81 af3d 037f b6bd ff6a d0bd
000001a0: 30c2 9638 1a30 cd3d c126 86bd ddb5 ddbd
000001b0: 6fa7 e1bd e945 5b3c 838c 6f3d 0340 333c
000001c0: 0a0e db3d dcd8 ad3d 1146 0cbd 37a3 d1bd
000001d0: 31cb 2a3d ea44 87bd e49c 93bb ed25 263b
000001e0: e0c4 aebd af86 aa3b 175b 3bbd 96ab 85bb
000001f0: a346 843b 1813 a7bb f010 3e3d d588 22bd

4.weight f4 [64, 128]
0.0047763633 0.014476262 -0.004713323 -0.0060567665 0.07097553 -0.08331543 -0.04005073 -0.010558557
-0.044604093 -0.0489469 -0.040163986 0.032533325 -0.084095865 -0.08823207 0.068216056 0.060615774
-0.02933462 0.00894923 -0.06476958 0.086517006 -0.0151577415 0.0105102165 -0.00083753694 -0.036811903
-0.054750267 -0.067599334 -0.034387324 -0.008100977 0.024494657 -0.092472315 -0.0031630197 0.016438289
-0.018007347 0.0034406122 -0.044766806 -0.062908694 -0.040386535 -0.020575393 0.064670905 -0.039190643
0.031572692 0.0545729 0.06450562 0.041437287 -0.076307915 0.052394807 -0.03083465 0.044463687
-0.01497055 0.015815413 -0.05611148 -0.0059815133 0.065718144 -0.11508858 0.08081778 -0.060901336
-0.064213075 -0.0045354776 0.08164841 -0.021502415 -0.008435675 -0.05307693 0.020194437 -0.049218386
0.04216678 0.035030987 -0.007963012 0.043196958 0.011684653 -0.02958761 0.012686577 0.011260995
0.048545696 -0.0257479 -0.05461017 0.089117706 -0.10911355 0.09833909 -0.048957746 0.054110043
-0.017113913 0.048092026 0.015780976 -0.053483207 -0.035401337 -0.054561038 -0.05471966 -0.053955037
0.047722343 -0.043490987 -0.062459942 0.085160084 0.097915046 -0.059794586 -0.07822384 0.00724554
0.087622404 -0.08101206 -0.013939335 0.08477332 -0.078513615 -0.03689409 -0.06907584 -0.019674722
-0.04485564 0.028118795 0.060609754 0.096207365 0.09093943 -0.068464994 -0.0041037435 0.04021783
-0.101523265 -0.10016974 -0.060958456 -0.014223546 -0.059878558 -0.047184788 -0.09488385 0.017888486
-0.069373146 0.079954304 -0.049980916 0.04011942 -0.10619127 0.03353563 0.04591754 0.04713332
-0.027615145 0.0067057377 -0.021503296 0.018563945 0.06083848 0.1117229 -0.020656329 0.09195698
0.0033134986 -0.020441819 -0.024920765 0.103957556 0.045795318 0.021526946 0.1454694 -0.060942568
0.0803414 -0.06902598 -0.116185285 -0.07431286 -0.011408316 0.02812411 -0.050004806 -0.0040633893
0.09236185 -0.027353052 -0.0208425 -0.06764733 -0.018729996 0.023202416 -0.001680864 0.11573043
-0.09325261 -0.017248232 0.010611263 0.075572215 0.09834236 0.089264974 -0.043250397 0.030052368
-0.051298156 0.09315838 0.08617064 0.019486045 -0.0550687 0.08516505 0.1107443 0.031816162
0.11186816 -0.059078924 -0.037917953 0.0046043447 -0.06682686 0.06532495 -0.07713257 -0.05411607
0.06808304 0.083345644 -0.032995768 -0.058979053 -0.07100264 -0.072843805 0.097586475 -0.05437418
-0.031903937 0.027717147 -0.11767939 0.04007086 0.010841156 0.12521309 0.13625371 -0.0370911
0.032097332 0.08160402 0.08345151 -0.09631055 0.07634548 -0.08170556 0.12392698 0.080231346
0.11627092 -0.14066035 0.09685114 -0.0032160527 0.10647055 0.016722998 0.13818154 0.119846776
-0.039444648 -0.07834922 0.12539238 0.012323002 -0.122356355 -0.037210662 -0.017799698 0.057684105
-0.03339205 0.11889587 -0.13548118 -0.13522989 0.0486411 0.11796329 -0.103598736 -0.14467563
-0.005049271 0.0933184 -0.049160574 -0.10679785 0.028529665 0.0970267 0.068996355 -0.07456074
0.024077138 0.09269387 -0.11165547 -0.13375463 0.04394214 -0.012142882 -0.043946765 -0.017813152
0.010281583 -0.10838077 -0.12110333 -0.011745299 0.07180258 0.13776666 -0.0019331186 -0.05901686
00000000: 0a83 9c3b d82d 6d3c 3872 9abb d777 c6bb
00000010: 9e5b 913d 48a1 aabd 3c0c 24bd ccfd 2cbc
00000020: c8b2 36bd 8b7c 48bd fe82 24bd aa41 053d
00000030: 743a acbd 04b3 b4bd dcb4 8b3d 3f48 783d
00000040: 284f f0bc cb9f 123c eaa5 84bd d42f b13d
00000050: 2d58 78bc 0b33 2c3c 278e 5bba 14c8 16bd
00000060: d141 60bd 8571 8abd b9d9 0cbd f6b9 04bc
00000070: 05a9 c83c 2062 bdbd aa4a 4fbb 97a9 863c
00000080: 2584 93bc e57b 613b 665d 37bd 46d6 80bd
00000090: 5a6c 25bd ba8d a8bc 2e72 843d 5e86 20bd
000000a0: 5e52 013d d587 5f3d 861b 843d 25ba 293d
000000b0: 5347 9cbd f09b 563d f398 fcbc 8e1f 363d
000000c0: 0a47 75bc 538f 813c 27d5 65bd 9200 c4bb
000000d0: 3c97 863d 90b3 ebbd cb83 a53d ae73 79bd
000000e0: 2582 83bd 589e 94bb 4837 a73d d525 b0bc
000000f0: c935 0abc 3267 59bd ce6e a53c 3899 49bd
00000100: 13b7 2c3d a77c 0f3d 4b77 02bc 4bef 303d
00000110: fd70 3f3c b761 f2bc 5cdb 4f3c 0980 383c
00000120: dad7 463d 43ed d2bc eaae 5fbd 5883 b63d
00000130: ed76 dfbd 0166 c93d eb87 48bd 7ea2 5d3d
00000140: 7a32 8cbc 25fc 443d 1b47 813c 3511 5bbd
00000150: fe00 11bd 657b 5fbd b921 60bd f5ff 5cbd
00000160: 8178 433d 9b23 32bd ffd5 7fbd 6968 ae3d
00000170: af87 c83d 2beb 74bd d233 a0bd ff6b ed3b
00000180: 6073 b33d a7e9 a5bd cf61 64bc a29d ad3d
00000190: bfcb a0bd 421e 17bd a277 8dbd e22c a1bc
000001a0: 8cba 37bd 6359 e63c ef41 783d 5e08 c53d
000001b0: 743e ba3d 6037 8cbd b278 86bb 74bb 243d
000001c0: 6eeb cfbd cb25 cdbd 93af 79bd e009 69bc
000001d0: 3843 75bd d644 41bd 7752 c2bd e08a 923c
000001e0: 8213 8ebd 15bf a33d cab8 4cbd 4354 243d
000001f0: cf7a d9bd a85c 093d 0814 3c3d de0e 413d
00000200: 2839 e2bc cebb db3b ae27 b0bc 6a13 983c
00000210: c531 793d face e43d 7637 a9bc f153 bc3d
00000220: 4827 593b 9a75 a7bc a226 ccbc b3e7 d43d
00000230: df93 3b3d 4759 b03c eef5 143e ea9e 79bd
00000240: 088a a43d 7e5d 8dbd 8df2 edbd 5731 98bd
00000250: f2e9 3abc 8964 e63c d7d1 4cbd 2e26 85bb
00000260: 3628 bd3d 8213 e0bc e4bd aabc af8a 8abd
00000270: a66f 99bc fe12 be3c 7050 dcba 1304 ed3d
00000280: 39fb bebd 2a4c 8dbc ddda 2d3c 9bc5 9a3d
00000290: b867 c93d 8ed0 b63d 5427 31bd 6230 f63c
000002a0: 041e 52bd d2c9 be3d 3c7a b03d 33a1 9f3c
000002b0: b88f 61bd 046b ae3d e8cd e23d aa51 023d
000002c0: 221b e53d befc 71bd db4f 1bbd 0be0 963b
000002d0: 85dc 88bd 16c9 853d aef7 9dbd d0a8 5dbd
000002e0: 1f6f 8b3d 1fb1 aa3d 9226 07bd 0594 71bd
000002f0: d569 91bd 222f 95bd 6bdb c73d 76b7 5ebd
00000300: b4ad 02bd 120f e33c e401 f1bd 5821 243d
00000310: 1b9f 313c dc37 003e 1886 0b3e d6ec 17bd
00000320: 7e78 033d 0220 a73d a0e8 aa3d 773e c5bd
00000330: 055b 9c3d 3f55 a7bd 6ecd fd3d 5550 a43d
00000340: 731f ee3d 4409 10be e459 c63d 69c4 52bb
00000350: 3b0d da3d abfe 883c 767f 0d3e 3a72 f53d
00000360: b690 21bd 8e75 a0bd dc66 003e 6be6 493c
00000370: f895 fabd 356a 18bd acd0 91bc 2b46 6c3d
00000380: 1ac6 08bd ae7f f33d 94bb 0abe b479 0abe
00000390: e43b 473d bd96 f13d 932b d4bd d925 14be
000003a0: 5b74 a5bb b81d bf3d 995c 49bd d5b8 dabd
000003b0: 0bb7 e93c efb5 c63d f64d 8d3d 4db3 98bd
000003c0: 6b3d c53c 49d6 bd3d a0ab e4bd f9f6 08be
000003d0: acfc 333d f0f2 46bc 8601 34bd e3ec 91bc
000003e0: 1674 283c bdf6 ddbd 0605 f8bd 5b6f 40bc
000003f0: 3b0d 933d b412 0d3e b260 fdba aabb 71bd

4.bias f4 [64]
0.031160757 0.11144078 0.0930337 -0.0615901 -0.00067516183 -0.06839021 -0.068263404 0.046686165
0.065517485 0.12620997 0.008243972 0.02050333 -0.13042761 0.0909615 0.008279765 0.052349143
0.01669074 0.021314811 -0.035471354 0.009119509 0.09249665 -0.07697241 0.06373257 0.03320524
0.08211556 -0.09219665 0.026309459 0.023104621 0.0052369707 -0.10198424 -0.100295134 -0.057456497
0.002762983 -0.07919358 -0.12586188 0.022774564 0.12755099 0.09968609 -0.034133337 -0.071390666
0.032689832 0.12625894 0.0030940485 0.072213486 -0.050963897 -0.031956226 0.019228304 -0.07300156
-0.065573536 -0.02048243 0.012486522 2.0671181e-05 0.0634552 -0.006045102 0.13611968 0.009072337
0.084407486 -0.046639234 -0.031733315 0.019662177 0.014387275 0.054859266 0.05904407 0.090533756
00000000: d844 ff3c 103b e43d 7488 be3d e745 7cbd
00000010: 58fd 30ba 2b10 8cbd afcd 8bbd fe39 3f3d
00000020: 082e 863d 303d 013e ba11 073c 99f6 a73c
00000030: d18e 05be 064a ba3d daa7 073c 0e6c 563d
00000040: 05bb 883c 669c ae3c 694a 11bd fe69 153c
00000050: e26e bd3d b6a3 9dbd 3986 823d 3802 083d
00000060: 342c a83d 99d1 bcbd ef86 d73c e745 bd3c
00000070: e59a ab3b 1ddd d0bd 8967 cdbd 8157 6bbd
00000080: 2a13 353b 3e30 a2bd f0e1 00be b991 ba3c
00000090: ba9c 023e 3928 cc3d 66cf 0bbd 4535 92bd
000000a0: c6e5 053d 064a 013e 85c5 4a3b aae4 933d
000000b0: 85bf 50bd 88e4 02bd ad84 9d3c d881 95bd
000000c0: 6b4b 86bd c5ca a7bc 4594 4c3c 0667 ad37
000000d0: cdf4 813d fe15 c6bb f562 0b3e 24a4 143c
000000e0: d5dd ac3d c808 3fbd cbfa 01bd 9312 a13c
000000f0: 9bb8 6b3c 1cb4 603d 32d8 713d c369 b93d

6.weight f4 [1, 64]
0.0689116 -0.08227781 -0.1224223 0.001695012 -0.112576194 0.1575695 0.12173695 0.159175
0.06569354 -0.12090415 -0.14053214 -0.109397 0.102780215 -0.13843687 0.11523069 -0.12005837
-0.07941218 0.011661173 -0.13417728 0.024357097 -0.13893665 0.17911676 0.10399755 0.09573361
-0.05730966 0.08558219 0.11976856 0.14506263 -0.0005846663 0.0701218 0.16678731 0.091471404
0.11536022 0.17372866 0.17012532 -0.09482709 -0.13545465 -0.080262326 -0.17410788 0.11491219
0.1015603 -0.10839906 -0.09656021 0.09516813 0.093563095 -0.08666845 0.12450602 0.07817039
0.0794901 -0.1620861 0.043707278 -0.14210863 0.039080035 -0.104305804 -0.058871433 0.03595941
-0.06945268 0.1430523 -0.09435404 0.10816979 -0.11898267 0.06329008 0.09390328 -0.15374695
00000000: 8621 8d3d 4581 a8bd 8bb8 fabd 2a2b de3a
00000010: 598e e6bd e659 213e 3951 f93d c5fe 223e
00000020: 568a 863d 989c f7bd a8e7 0fbe 890b e0bd
00000030: 6f7e d23d 65c2 0dbe 11fe eb3d 2ae1 f5bd
00000040: daa2 a2bd 810e 3f3c c565 09be 8988 c73c
00000050: 6945 0ebe 626a 373e abfc d43d fc0f c43d
00000060: 89bd 6abd b745 af3d 3849 f53d 4c8b 143e
00000070: 4b44 19ba 059c 8f3d 4bca 2a3e 5c55 bb3d
00000080: fb41 ec3d ede5 313e 5535 2e3e b534 c2bd
00000090: a0b4 0abe 9360 a4bd 5649 32be 1557 eb3d
000000a0: d9fe cf3d 5400 debd 5cc1 c5bd 82e7 c23d
000000b0: 029e bf3d 3a7f b1bd 03fd fe3d cc17 a03d
000000c0: b5cb a23d e6f9 25be 6706 333d ed84 11be
000000d0: 6312 203d 489e d5bd 2c23 71bd 2d4a 133d
000000e0: 353d 8ebd 4d7c 123e b13c c1bd 1f88 dd3d
000000f0: 30ad f3bd 3b9e 813d 5d50 c03d d76f 1dbe
