src/training/critic.pth (torch, 200436 bytes, 7 tensors)

0.weight f4 [256, 31]
000000 0c 31 2f bc a3 02 1e bc 19 b5 5f 3d c9 62 8e 3d
       -0.010692846 -0.009644183 0.054616068 0.069524355
000010 9d 1a f9 3d 27 63 b0 bd f5 ed 4a bd de d1 a0 bd
       0.12163279 -0.08612662 -0.04954334 -0.07852529
000020 87 ab c1 bd ca 6f 28 be 5e 12 ec bd 4b dc 2e 3e
       -0.09456544 -0.16448894 -0.11526941 0.17076223
000030 d4 5e 12 3e e7 c5 11 3e 07 b4 d1 3b e5 ad bf 3d
       0.14293987 0.1423565 0.0063996348 0.093593396
000040 bf dd 3f 3e 17 e8 d2 bc f1 4c 0e 3e 57 ed 13 3e
       0.18736933 -0.025745435 0.13896538 0.14446007
000050 ee 92 82 3d 20 86 85 3a 36 f6 aa 3d 6e db 3d 3c
       0.06375681 0.0010187067 0.08347742 0.011587961
000060 42 88 5c 3d 68 69 32 bd 35 7f 0f be a8 84 4d bd
       0.053840883 -0.043557554 -0.1401337 -0.05017534
000070 4d 53 99 3d 3f ca 67 bd 7a 43 05 be 4b 76 8e bd
       0.074865915 -0.05658936 -0.13014022 -0.06956156
000080 5b c4 8d 3d 14 8b b6 bd ca 5c 12 3e 3c a8 c0 3d
       0.069222175 -0.08913246 0.14293209 0.09407088
000090 38 f2 7b bd 25 46 1c 3e 4e a5 07 3e 81 e8 e8 3d
       -0.061510295 0.15261133 0.13246652 0.113724716
0000a0 04 0f ff 3d 78 10 b5 3d 5b 5a ca bd d9 aa b7 3d
       0.12454036 0.08841032 -0.09880515 0.089681335
0000b0 27 3d 64 3d ae 51 33 3e b3 5d 4f 3e 7d ae 09 bd
       0.055722382 0.17511627 0.20250587 -0.03361367
0000c0 85 98 db 3d 5c 77 18 bd ad 72 e1 3d 3e c0 41 3e
       0.1072245 -0.037223205 0.11008201 0.18920991
0000d0 df 7d 16 3d 39 cd 11 3e 71 37 43 be 07 21 93 bd
       0.036741134 0.14238442 -0.19064118 -0.07184034
0000e0 4b 0d 9e bd dc a5 81 3d ea a4 d3 3d 03 66 36 bd
       -0.07717379 0.06330463 0.10334189 -0.04453088
0000f0 92 64 5e 3d 77 51 17 be 50 20 cb 3d c3 50 3f bd
       0.05429513 -0.1477717 0.099182725 -0.04670788
000100 8c c4 df bd 2b e1 d2 3d 5a 78 28 3d f6 25 4d 3d
       -0.1092616 0.10296854 0.0411304 0.05008503
000110 0a 2d 73 bd f7 39 2a 3e aa ba d4 3b aa a8 01 be
       -0.059369124 0.16623674 0.0064919787 -0.12661996
000120 e7 66 eb bd ca 09 21 be 0e 6c 21 be 79 ed 36 be
       -0.114942364 -0.1572639 -0.15763876 -0.17864026
000130 c2 cb 48 3d de 6e 0b be f6 70 47 3e 48 91 bd bd
       0.049022444 -0.13616511 0.19476685 -0.09256226
000140 1d 40 13 be a2 16 30 be 99 13 ac bd 3e 82 2b 3e
       -0.14379926 -0.17196134 -0.084021755 0.16748902
000150 5f a7 d3 3d 84 f8 00 3e 13 38 f1 3d 87 6c a5 bd
       0.10334658 0.12594801 0.117782734 -0.080773406
000160 e5 20 01 3d 9c b9 11 be d9 c9 a3 bd 65 1c d6 3c
       0.03152551 -0.1423096 -0.07997484 0.026136586
000170 c3 b1 e2 bd a1 f5 84 bc 2b a6 08 be 15 da 44 bc
       -0.110690616 -0.016230406 -0.13344638 -0.012014885
000180 73 7d 15 3e 8a 3e 83 bc 21 7a c4 bd 80 21 e1 3d
       0.14598636 -0.016021032 -0.09593607 0.10992718
000190 58 2f 5f bd bf 68 67 3d 52 d4 04 be 30 fa b2 bd
       -0.05448851 0.056496378 -0.12971619 -0.08739126
0001a0 a6 a2 8a bd 16 2e 1c 3e 06 2c 9b 3b 2e 9a 09 3e
       -0.06769304 0.15251955 0.0047354726 0.13437721
0001b0 f0 73 a8 3c 72 21 3b 3e d4 e1 49 3e cb 3a f5 3b
       0.020563096 0.18274477 0.19715053 0.0074838153
0001c0 7e 95 11 bc 3f 12 68 3d 86 d6 83 3c 61 89 10 be
       -0.008885739 0.056658026 0.016093504 -0.14114906
0001d0 c6 8c 6a 3d 6e 02 2f 3e 33 af 5f bb 06 ba a4 bc
       0.05726316 0.1709077 -0.0034131526 -0.020108234
0001e0 3d c3 04 3e 81 fe 21 be 57 ea e7 3d 8d e6 0f 3d
       0.12965102 -0.15819742 0.11323994 0.03513198
0001f0 f9 c0 35 bb 01 b3 06 be 54 04 99 3d b7 04 06 be
       -0.002773343 -0.13154222 0.07471529 -0.13087736
000200 e5 8f eb bd 01 82 5e 3c 51 d5 ac bc ae fe 29 3d
       -0.11502055 0.0135808 -0.021097811 0.041502647
000210 36 15 2f 3e 21 b1 2c 3c 8a 31 0f 3e 13 a1 95 3d
       0.17097935 0.010540278 0.13983741 0.07306113
000220 e0 88 bf 3d 28 65 3f bd b6 d8 28 3e bb 10 4a 3e
       0.09352279 -0.04672733 0.16488919 0.19732945
000230 11 c1 e6 3a f3 77 9c bd 40 50 13 3e c0 63 e1 3c
       0.0017605146 -0.07640066 0.14386082 0.027513385
000240 4b 82 90 bd c3 37 55 3e 64 e2 b3 bc 64 4b 0f be
       -0.070561014 0.20822053 -0.021958537 -0.13993603
000250 c7 29 15 be 09 a3 05 be 7a a3 3e 3d fd 97 84 3d
       -0.14566718 -0.13050474 0.046542622 0.06474302
000260 c1 f1 f3 3c 15 58 24 3e dd 92 95 bd b3 1e 02 3e
       0.029778363 0.16049226 -0.073034026 0.12707023
000270 91 ac 96 3c ab b1 48 be 8a 09 89 3d fc 80 c1 bc
       0.018392833 -0.19599025 0.066912726 -0.023621075
000280 25 68 ed bd 4c 80 9e bd 85 1b 2d 3d 82 d4 15 bc
       -0.115921296 -0.077393144 0.042262573 -0.009144904
000290 4c ae 31 be b3 48 98 bd 44 4f 12 3e 24 98 cb 3c
       -0.17351645 -0.07435741 0.1428805 0.02485282
0002a0 95 fb 13 be 20 37 2d be fd 9f d6 bd 3f 4c 07 be
       -0.1445144 -0.1691556 -0.10479734 -0.1321268
0002b0 22 72 cf bd c9 eb 02 be 0a ad 68 3d 86 85 0b be
       -0.10129191 -0.12785257 0.056805648 -0.13625154
0002c0 ec e8 40 be 0b f7 36 bd bb 4e 03 bd ff 42 fa 3d
       -0.18838853 -0.044669192 -0.032057505 0.1221981
0002d0 c4 19 55 3d 4e c2 43 bd a3 67 23 3e 09 58 05 be
       0.052026525 -0.047792725 0.15957503 -0.13021864
0002e0 b9 34 66 bc fd 43 cd bd 0e 56 64 bb 2e bf 44 3d
       -0.014050656 -0.10022733 -0.0034841332 0.048033886
0002f0 51 32 f7 bd 8f 24 66 3c f0 bf d1 bd 10 70 fe 3c
       -0.12070144 0.014046802 -0.10241687 0.031059295
000300 1d 39 1b be c7 d8 9a bc 54 fd f6 3c 9a bd 07 3e
       -0.15158506 -0.018902196 0.030150093 0.13255921
000310 ba a8 db 3d e0 36 c8 bd b3 32 4f 3e b2 9a f9 3d
       0.107255414 -0.097760916 0.20234184 0.12187709
000320 21 1c 6d bd 40 51 3e bd ac af 83 bd 67 0e fd bc
       -0.057888154 -0.046464205 -0.06429991 -0.030890657
000330 bc 61 06 3e c4 3c 37 be 69 04 cd 3d 6e eb db 3d
       0.1312322 -0.17894274 0.10010607 0.10738264
000340 b6 41 29 be 58 46 96 bd 74 9d 94 3d 4a 2e 27 3e
       -0.16528973 -0.07337636 0.07256594 0.16326252
000350 71 ae 80 3d da 4a 08 3e 4f 17 4f 3d 51 ca ce 3d
       0.06283272 0.13309804 0.05055934 0.100971825
000360 21 79 10 3e f5 1f 3c be 34 8b 03 3e cf e7 31 bd
       0.14108707 -0.18371566 0.1284607 -0.04343396
000370 e8 76 03 be cd b7 52 bd 0c 97 0b be 96 7d 12 3b
       -0.12838328 -0.051444817 -0.13631839 0.0022352687
000380 e0 a7 d2 bd 38 01 7d 3d 27 3e 79 3d 85 ca 21 3e
       -0.10285926 0.06176874 0.06085029 0.15799911
000390 88 34 ab bd 97 e8 0b be 8f 27 6e bc ef 21 62 bc
       -0.08359629 -0.13662945 -0.014535799 -0.013802036
0003a0 01 06 ed 3d d4 57 b8 3d d8 37 f1 3d a6 3e 90 bd
       0.11573411 0.09001127 0.117782295 -0.07043199
0003b0 7f 88 ac bd 5d c4 06 be 90 71 8c bd 99 5c 37 3e
       -0.08424472 -0.13160844 -0.06857598 0.17906417
0003c0 04 2c dc bd 9d b4 0a be 84 b0 14 bd 13 2c 05 3e
       -0.10750583 -0.13545461 -0.03630115 0.13005094
0003d0 df 8c 21 be 83 41 32 3d 1d 92 f3 bb ba fc 02 3e
       -0.15776394 0.043519508 -0.0074331895 0.1279172
0003e0 2a ed 28 3d 56 75 2b 3d ed ee 5b 3e ed b7 31 be
       0.041241802 0.041859947 0.21477862 -0.17355318
0003f0 0a 58 0b 3d 02 cc c4 3a 38 a2 37 be 91 ec 09 be
       0.034019507 0.0015014412 -0.17932975 -0.13469149

0.bias f4 [256]
000000 73 ce 14 3e f0 9d ea 3c 5c 9b 23 be a8 bd bd 3c
       0.14531879 0.028639764 -0.15977234 0.023161724
000010 1b ac 1f 3e 49 b5 32 be 96 a3 50 3e 07 11 b4 bd
       0.15592997 -0.17451967 0.20374903 -0.0879231
000020 54 c5 2b 3d 25 8f 6e 3d 8f bd d3 3d 83 10 30 bc
       0.041936234 0.058241982 0.1033889 -0.010746124
000030 e6 a8 34 be 3d 41 81 3d 74 8f 1d 3e 93 db bf b9
       -0.17642555 0.06311271 0.15386754 -0.00036593954
000040 86 6a 34 be 5d 4d 35 be 55 a0 c3 3d 02 77 90 3d
       -0.1761876 -0.17705293 0.09552065 0.07053949
000050 09 f6 4a 3e a4 15 d7 3d 60 db 26 be c0 09 26 3b
       0.19820417 0.105021745 -0.16294622 0.0025335401
000060 2b 5a 10 be 4d 0c 52 be 3d 20 4e be be eb 41 3e
       -0.14096896 -0.20512505 -0.20129485 0.18937585
000070 9e 3c fb bd 49 90 ec 3d 18 49 7e 3d 38 08 71 3d
       -0.12267421 0.11550958 0.062081426 0.05884573
000080 42 fc 84 bd f1 1f 9a bd 07 47 71 3d 27 52 1f 3e
       -0.06493427 -0.075256236 0.058905628 0.15558682
000090 5a 52 6e bd 67 51 53 3e 4f 2a 19 be 6c d9 48 be
       -0.058184005 0.20636521 -0.14957546 -0.1961419
0000a0 19 fd 94 3d 64 89 12 bd ee 83 10 3e 85 48 61 3e
       0.07274837 -0.035775557 0.14112827 0.2200032
0000b0 ee be 06 be 46 22 08 bd 74 99 25 3e ab ee 34 be
       -0.13158771 -0.03323581 0.16171819 -0.1766917
0000c0 a1 b5 b5 bd 84 63 5e 3e ff 39 f6 bd 92 73 88 bc
       -0.088725336 0.2171765 -0.120227806 -0.01665667
0000d0 bd 08 4e be c7 1b cb bd 20 17 9d bb f6 a5 9f bd
       -0.20120521 -0.099174075 -0.0047940165 -0.077953264
0000e0 ca 1e fe 3d 88 88 60 be 7d 26 22 bd 88 59 9f 3d
       0.12408216 -0.21927083 -0.039587487 0.077807486
0000f0 ba ba 10 bd e3 b2 f3 3d 7f 26 9a bd aa 6c 3d 3e
       -0.035334326 0.11899354 -0.07526874 0.18498483
000100 cf 0a 96 bd 4b f5 8b bd 23 d2 38 be cb 5d f0 3d
       -0.0732628 -0.06833895 -0.18048911 0.117366396
000110 1d 8f 3d 3c 61 c0 ed 3c b4 39 30 be 8f c9 30 3e
       0.011569765 0.029022397 -0.17209512 0.17264389
000120 0c 66 02 3e 6f 9f b1 3d 48 34 ec bd 99 98 be 3d
       0.1273424 0.08672988 -0.11533409 0.093064494
000130 95 65 77 bd 64 72 5f 3e 7c 95 10 3e 2c cc 03 3e
       -0.06039961 0.2182098 0.14119524 0.12870854
000140 2d ce 08 be fe d3 fe bc 37 db a6 3d 8e 4b 8b bd
       -0.133599 -0.031106945 0.08147281 -0.0680152
000150 37 0b 02 3d 98 0a c1 bd 9e ec 03 be c5 44 d5 3d
       0.031748977 -0.09425849 -0.12883231 0.10413507
000160 40 66 25 be cf 84 11 3e af 0b ff 3d 3c 43 f5 3d
       -0.16152287 0.14210819 0.124534 0.119757146
000170 87 49 2d 3e a7 21 0f be 33 eb d7 bd da 00 14 be
       0.1692258 -0.13977681 -0.105429076 -0.1445345
000180 0f 56 49 bc 88 c3 23 3d ce b7 e7 3c ef c2 5d bd
       -0.012288584 0.039981395 0.028285887 -0.05414098
000190 c2 06 28 be d2 e2 ae bd d8 a4 3f bd 1a 53 2d 3c
       -0.16408828 -0.08539356 -0.046788067 0.010578895
0001a0 bb 1b f2 3d 5e 62 81 3d 14 37 15 be a2 e3 1f be
       0.118216954 0.0631759 -0.14571792 -0.15614179
0001b0 24 5c 00 3e 99 66 e7 bd b1 18 06 3e 94 05 8d 3c
       0.12535149 -0.11298866 0.13095357 0.017214574
0001c0 dd 71 08 bc 1a 99 57 be b3 aa 17 be 16 de 13 bd
       -0.008327928 -0.21054497 -0.1481121 -0.03610047
0001d0 a7 d4 31 be 9a b6 28 3e 7d 77 cb bd f1 f3 84 bb
       -0.17366277 0.16475907 -0.099349 -0.0040574004
0001e0 5f e7 b8 3c b9 23 10 be cc 76 0d 3d 69 35 62 bd
       0.022571264 -0.14076127 0.03453712 -0.055226717
0001f0 01 99 9f 3d 81 ad ae bd 3e dc 31 3e 92 44 64 bd
       0.07792855 -0.08529187 0.17369172 -0.055729456
000200 4e d2 bd 3d cd b1 c2 3d 0e 56 68 3a f4 df 04 3c
       0.09268628 0.09506569 0.0008862921 0.008110035
000210 ea 5e 06 be 1e d0 95 bc 3b b8 a4 3c 22 ec 47 be
       -0.13122144 -0.018287715 0.02010738 -0.19523671
000220 9a d9 9b bd a6 85 a2 3d ce e5 e8 bd 13 79 48 be
       -0.076098636 0.07935648 -0.11371957 -0.19577436
000230 06 d9 11 3e 6a bf 1a 3e 9c 46 54 bc e0 ec 14 3d
       0.14242944 0.15112081 -0.012956288 0.036358714
000240 96 7b b3 bd c8 ef c4 3d a7 b9 63 3e e4 e8 d7 bd
       -0.087638065 0.09616047 0.2223879 -0.10542467
000250 49 71 a9 bd a7 0d 8c bc 77 b4 27 bb 0d 8c 8c 3d
       -0.082735606 -0.017096354 -0.0025589743 0.0686265
000260 f4 c8 40 be 8b 25 7e 3d fe 8d 1d be 02 41 49 3e
       -0.18826658 0.062047523 -0.15386197 0.19653705
000270 64 28 28 3d 51 9b 09 bc 46 1a cc bd 3f 09 8b bd
       0.041054145 -0.008398847 -0.09965949 -0.06788873
000280 25 e0 de 3d 3a 30 81 3d 20 01 37 3e 62 14 4e bd
       0.10882596 0.063080266 0.17871523 -0.050312407
000290 2a ed fd bd e8 20 86 3d 8a a6 fd bd e6 d6 5b be
       -0.12398751 0.06549245 -0.123852804 -0.21468696
0002a0 7f 68 59 be c8 93 1f be bf de 2d be 9a 8f 48 3e
       -0.21231268 -0.15583718 -0.16979502 0.1958603
0002b0 ab 8c 54 3e 8d 9d 54 3e 1c 07 7e bd 27 93 20 be
       0.20756786 0.20763226 -0.0620185 -0.15681134
0002c0 3d 1f 5b 3e ad 53 06 3e 8b 55 9e bd c3 f9 3d be
       0.21398635 0.13117857 -0.0773116 -0.18552308
0002d0 4f 12 73 bc 4a c9 02 3e 18 a5 17 3e 0c e7 8a bd
       -0.014835908 0.12772098 0.14809072 -0.0678235
0002e0 9f 25 a4 bd e0 7f 52 bd 7e fb cf bd 49 f1 54 3e
       -0.08014988 -0.051391482 -0.1015539 0.20795168
0002f0 eb 9f 2e 3d c7 87 b3 bd b5 62 b0 bd c9 53 c1 bd
       0.04263298 -0.08766132 -0.08612577 -0.09439809
000300 d4 6c 74 3d 35 83 d1 3d 87 da 22 3d 61 6e 08 be
       0.0596741 0.10230104 0.039759185 -0.13323356
000310 54 b3 cf bd ca b2 32 3e 4a 55 5a 3e 47 59 d1 bd
       -0.10141626 0.17451015 0.21321598 -0.102221064
000320 68 36 f3 3d 1e 83 cf 3b be 7c 41 3e e3 f2 80 bd
       0.118756115 0.006332769 0.18895242 -0.06296327
000330 6a 6f 4d be 3f 23 37 3e 3b 5e b7 bd 28 eb 20 3d
       -0.20062032 0.17884539 -0.0895352 0.039286762
000340 27 0a d9 bc 72 3d 1c be 0f f0 7b 3d f4 cf 1f 3e
       -0.026494099 -0.15257815 0.061508235 0.15606672
000350 40 41 07 3e 21 a6 e8 3d d7 ab ee 3d 49 a8 44 3e
       0.13208485 0.113598116 0.116538696 0.1920482
000360 91 34 84 bd f6 e2 f1 3c 02 b8 a0 bd 4f 2c 67 be
       -0.06455339 0.029527169 -0.07847597 -0.22575496
000370 f2 f9 c7 3d eb e2 99 3d b8 21 a3 bc 5b ed 8d bd
       0.0976447 0.07513984 -0.01991354 -0.069300376
000380 90 d3 4d bd 96 0d 9f bc a1 38 1a 3e 8f da e0 3d
       -0.05025059 -0.019415658 0.15060665 0.10979187
000390 39 46 91 bc c2 bd 8b 3d b6 65 38 bd 82 d8 ff bd
       -0.01773368 0.06823303 -0.045018874 -0.124924675
0003a0 aa 4b 07 be 19 db f3 3d c1 69 39 be 7d f9 51 3d
       -0.13212457 0.11907024 -0.18106748 0.05126332
0003b0 a5 8f a3 bd c4 ad 3a ba 52 05 2c 3d 57 6c f8 3d
       -0.079863824 -0.000712123 0.04199726 0.12130039
0003c0 ae 41 58 3d 3f 87 2e bc c9 a7 bd 3d 9d 17 00 be
       0.052797012 -0.010652362 0.09260518 -0.12509008
0003d0 28 f0 55 3d b6 97 46 be c3 40 a7 3d d3 26 3e bc
       0.052230984 -0.1939381 0.08166649 -0.011605936
0003e0 bc 3b 77 3d 70 c4 80 3d a7 38 60 3d 3a 81 d0 bd
       0.0603597 0.062874675 0.054741528 -0.10180898
0003f0 9b dc 8d 3d 54 53 2d 3d 8d 26 4a 3d 9b 89 9f bd
       0.06926843 0.042315796 0.04935317 -0.07789918

2.weight f4 [128, 256]
000000 6a 5b 70 3d fe ae 06 ba e8 bd 6b bd 9b b4 74 3d
       0.05868093 -0.000513777 -0.057554156 0.05974255
000010 8e e6 7a bd 5d 75 50 bd ad 0e b9 3c d6 24 1d 3d
       -0.06125503 -0.050893176 0.022590006 0.038365208
000020 2f cf d8 3b 57 57 d6 ba 07 69 76 3d e7 9e aa bc
       0.006616495 -0.0016352934 0.060158756 -0.020827724
000030 93 c6 a7 3c f7 cd ff b8 1e 21 82 3c ba df e2 bc
       0.02048043 -0.000121977115 0.015884932 -0.027694572
000040 cd 04 1c 3c 7c ba d9 3c b6 e9 24 bd df 2f 06 3d
       0.009522629 0.02657818 -0.040261947 0.032760497
000050 06 ab 0c 3d e8 57 d2 3b a2 a4 01 3c 5e 78 40 bd
       0.03434279 0.0064191706 0.007912787 -0.04698979
000060 04 cc 3f bd 47 ac 72 3c 37 1c d9 bb af 6e 7e 3b
       -0.046825424 0.014811582 -0.006625678 0.0038823297
000070 4e 1b 07 3d 62 a0 54 3d 22 e3 0d bd e4 34 74 bc
       0.032985024 0.051910765 -0.03464044 -0.014905188
000080 b9 8f 18 3d 0a 47 39 3d 4b a7 02 bc 97 3e b2 bb
       0.03724644 0.045233764 -0.007974456 -0.00543959
000090 39 ab a5 3b ce 5e 05 3d 31 72 ce 3c f7 11 6f 3d
       0.0050558117 0.032561116 0.025200935 0.058366742
0000a0 e3 1c 79 bd 10 41 b8 3c 12 2a cc bb ac be 12 3d
       -0.060818564 0.022491962 -0.006230601 0.03582637
0000b0 16 7b 54 bd 3d 57 be 3c b4 9c c0 bb 2c a2 89 3c
       -0.051875196 0.023234958 -0.0058780555 0.016800962
0000c0 ee ad 1a bc f7 e2 73 bc ef 04 39 3d bc e2 85 bc
       -0.009440882 -0.014885656 0.04517072 -0.016343467
0000d0 97 62 9a 3d 96 f4 52 3d 5d e6 83 3c 61 8f 49 bc
       0.07538336 0.051502787 0.016101057 -0.012302251
0000e0 bc 48 65 3d 21 a2 82 3d a8 0c 72 3c 3c ed 2f 3c
       0.055977568 0.0637858 0.014773525 0.010737713
0000f0 15 d6 10 bd a9 03 98 3c f7 fd 30 bd 66 89 6d bd
       -0.035360415 0.018556433 -0.04321095 -0.05799236
000100 09 93 5e 3d 7b c4 0d 3d ab 4f db 3c f3 9f 4d bb
       0.054339442 0.034611207 0.026771387 -0.0031375855
000110 2b de d9 3c d8 29 64 3d fe b3 cc 3c c7 ca b3 3c
       0.026595196 0.055703968 0.02498817 0.021947278
000120 f8 f7 12 3d 60 81 ed bc de ef 42 3d 60 cb 71 3d
       0.035881013 -0.028992355 0.047592036 0.059031844
000130 db af 50 3a c1 7c 19 3d 33 5a 64 bd a1 1b 45 bd
       0.0007960775 0.03747249 -0.055750083 -0.048122052
000140 93 10 2b 3d d7 96 44 bc 8f 8d 00 bd b1 69 1a 3d
       0.041763853 -0.011998854 -0.031385 0.03769845
000150 6b c4 e2 bc d4 09 49 3c 89 77 1b 3d db 72 88 bc
       -0.02768155 0.01227041 0.037955794 -0.01665633
000160 c7 a9 7b bd cd 58 6d 3d 8e d0 05 bd 1a 42 44 3c
       -0.06144121 0.057946015 -0.032669596 0.01197865
000170 17 74 0a 3d d3 fe 42 bd 13 a8 d1 3c 1b 4f 1c bd
       0.03380212 -0.0476063 0.02559284 -0.03816138
000180 70 47 65 bd 74 bb e0 bb 92 10 bc bc 44 9e a4 bb
       -0.05597633 -0.0068582837 -0.02295712 -0.0050237495
000190 b8 f8 73 3d 84 8f 2f 3d 36 f7 83 bd 2d fe 1f bd
       0.05956337 0.042861477 -0.06443636 -0.03906076
0001a0 97 5b 4b bd 3c d2 69 3d d0 b1 a5 3c 88 2d d0 bc
       -0.049647894 0.05708526 0.02022639 -0.025412336
0001b0 71 bd cd 3c 88 66 a1 3c ee a4 34 bd 44 b9 d9 bc
       0.025114747 0.019702211 -0.0441026 -0.0265776
0001c0 5b 00 e8 bc d6 fb 5f bd ce 74 76 3d 8a 7f bc 3c
       -0.028320482 -0.05468353 0.060169987 0.023010034
0001d0 63 fc 1c 3c 58 3a bd 3c b1 0c db bc 0f ff 9e 3a
       0.009581658 0.02309911 -0.02673945 0.0012130457
0001e0 47 09 4d 3d 69 3e d8 bc d1 97 3e bd 83 6b 43 3d
       0.050057676 -0.026396947 -0.046531502 0.047709953
0001f0 a5 fe 81 bc 76 30 35 3d 5d 12 21 bc a7 1f b0 bc
       -0.015868494 0.04423567 -0.009831038 -0.021499468
000200 a0 38 58 bd 16 03 ea 3c c6 6a 24 bd ea f4 49 3d
       -0.052788377 0.028565925 -0.04014089 0.049305834
000210 5a ed f9 bc 7c d0 51 bd 28 41 c3 3b 8e e0 47 bd
       -0.030508686 -0.051224217 0.005958695 -0.048798136
000220 d7 0e 22 bd 06 d6 85 3c e3 df 76 3d 66 44 4e bc
       -0.039564934 0.016337406 0.06027211 -0.01258955
000230 02 4a 71 bd 65 8d b5 bc e7 7e 18 bd 4c e1 d2 bc
       -0.05890847 -0.022162149 -0.0372304 -0.025742196
000240 d2 5c c6 bc 24 c1 a2 3c f9 ef eb 3a 32 41 4d bd
       -0.024214182 0.019867487 0.0018000595 -0.050111003
000250 6f 88 7d bd e7 c1 04 bd 3d da b5 3c e2 39 74 3c
       -0.06189769 -0.032411482 0.02219879 0.014906378
000260 10 1f 5d 3c 70 57 66 bc 0c 1f 5f bd 52 a5 75 3d
       0.013496175 -0.014058933 -0.054472968 0.059972115
000270 9a 2e 85 3b 3d 64 4e bd 73 99 ed b9 41 cb 21 3d
       0.004064393 -0.050388563 -0.0004531849 0.03950048
000280 27 22 2b bd 0f 21 38 bd d6 24 fc 3c 1f d0 84 ba
       -0.041780617 -0.044953402 0.030779283 -0.0010132826
000290 0e 2d d4 bc fa 75 6d bd 71 8d 7d bd 1d a7 ae bc
       -0.02590039 -0.05797384 -0.061902467 -0.02131992
0002a0 79 f5 c5 bc a6 8d a6 bc 49 52 1d 3d 24 75 64 3d
       -0.024164902 -0.020331215 0.03840855 0.055775777
0002b0 81 6c 0f bb e5 cf 01 3d 75 0c 99 39 fa 9f 22 3d
       -0.0021884742 0.031692404 0.00029191715 0.039703347
0002c0 50 e6 0f bd 58 2f c5 3b ff 14 80 bc 63 de ce 3c
       -0.035131752 0.0060176067 -0.015635012 0.025252527
0002d0 40 86 56 3d cd 5c 84 bc 82 ad 0b bd 4d d2 2f 3d
       0.052374125 -0.016157532 -0.034101017 0.042925168
0002e0 8c c8 d8 3c 46 6c 65 3c 19 9e 52 bd 1d cc 88 bb
       0.026462816 0.014002865 -0.051420305 -0.004174723
0002f0 8e c9 0b 3d 43 1f 5e 3d ad 45 f0 bc 8d a4 4c bd
       0.034127764 0.054229032 -0.029330099 -0.049961615
000300 d4 1c 80 3d b7 d9 80 3d 46 8a 2a 3b 26 ac e9 bc
       0.062554985 0.06291526 0.0026022359 -0.02852447
000310 70 4b 09 bd c3 01 64 bd e3 63 68 3d c3 63 d8 3b
       -0.03351921 -0.055665743 0.056735884 0.0066036894
000320 7b 07 22 3d 9a 5d b7 bc ae e0 78 3d 76 23 13 3d
       0.039557915 -0.0223835 0.060761146 0.03592249
000330 be ac 09 bd 3e 07 25 bd 01 d9 e3 3c 46 1f 8c bb
       -0.033612005 -0.04029011 0.027813436 -0.004276189
000340 1d c3 03 3d ae 63 df bc b8 0f 64 bd 06 92 33 bd
       0.032168496 -0.02726921 -0.055679053 -0.04384043
000350 62 22 16 bd 70 cd 40 3d 49 a4 15 3d ab b7 74 3d
       -0.036653884 0.04707092 0.036533628 0.059745472
000360 04 bf ec bc 36 6c f4 3b dd 65 05 3d d6 fc 72 3c
       -0.028899677 0.007459189 0.032567848 0.014830789
000370 3f 05 6c 3d a0 a4 a2 3c 2e 4a 38 3d 98 c1 5f bd
       0.05762219 0.01985389 0.04499262 -0.054627985
000380 1a ed ac b9 3f 5e 80 3d da cf 3e 3c 81 92 61 3d
       -0.0003298305 0.06267976 0.011646235 0.055071358
000390 1b 95 50 bd c5 64 0e 3c 78 5e 11 bd 0c 18 62 3c
       -0.050923448 0.0086910175 -0.035490483 0.0137996785
0003a0 4a c7 04 3d ff 9a 0b 3d e0 22 51 bd 39 dc e3 3c
       0.03241662 0.034083363 -0.05105865 0.027814971
0003b0 02 0d 36 3c 39 aa 35 bc 26 ca 22 bd dd c4 f0 3c
       0.0111115 -0.0110879475 -0.039743565 0.029390747
0003c0 40 29 04 bd 0b 84 8c bc a7 78 47 bb 19 e1 a7 bc
       -0.0322659 -0.017152807 -0.0030436905 -0.020493077
0003d0 5c 7b 6d 3d 74 b0 4a bc 1f f7 df bc 97 51 96 3c
       0.057978973 -0.012371171 -0.027339516 0.018349452
0003e0 16 0a 18 bd 45 6d 0b bd b0 47 0b bc 2a 48 91 3c
       -0.037118994 -0.034039754 -0.008500978 0.017734606
0003f0 76 0c 07 bd 9f 39 9e 3c a4 d9 c2 bc d5 9a b0 3c
       -0.032970868 0.019314585 -0.02378542 0.021558205

2.bias f4 [128]
000000 3d bb 0a 3d 27 27 d2 3d 19 6f 22 bd 34 c6 f8 3c
       0.03386997 0.10261374 -0.039656732 0.030367948
000010 f8 ee f3 bc 9c a2 d2 bb 7f a8 d5 bd dd 28 10 bb
       -0.029777035 -0.006428076 -0.10432529 -0.0021997013
000020 b7 ad ab 3d f0 8d bc 3d de 06 9a 3d 28 44 9e 3d
       0.08382743 0.0920676 0.07520841 0.077278435
000030 b5 bf 2b bd e5 ec d1 3d 87 b1 51 bc aa 3c bf 3c
       -0.041930873 0.10250262 -0.0127986735 0.023344357
000040 fd 66 75 bc 5f 32 d0 bc e6 c6 8f bd 3a cc 47 bd
       -0.014978168 -0.025414644 -0.07020359 -0.04877875
000050 8b a5 c3 3b ea a0 8c bc 43 57 0c bd f3 ec 4f 3d
       0.005970662 -0.017166574 -0.034262907 0.05076308
000060 f2 cd 8b 3d bf 32 43 bd 58 0b 6d bd b7 00 f0 bc
       0.0682639 -0.047655817 -0.057872146 -0.029297216
000070 6e a4 e0 3c 21 71 00 3d 0e 87 49 bd 48 14 e6 ba
       0.027422156 0.031357888 -0.049201064 -0.0017553652
000080 7c 82 a2 bd 90 46 0c bc 50 1b 6d bc b4 dc 28 3d
       -0.07935044 -0.008561745 -0.014471844 0.041226104
000090 a5 b9 c6 3d 1c 23 b4 3d 19 ab a7 bc b1 e1 d8 3c
       0.09703378 0.08795759 -0.020467328 0.026474806
0000a0 90 85 78 bd 4a fe ef 3c c2 c2 91 3d 5c 52 21 bd
       -0.06067425 0.02929606 0.07117225 -0.039385185
0000b0 9f ee 97 3c 72 50 8c 3c 26 8e 73 3d 0b 87 c7 bc
       0.0185464 0.017128203 0.059461735 -0.024356386
0000c0 d7 4c c6 3d c9 77 17 3c 1e c9 15 3c d3 a8 79 bc
       0.09682625 0.009244868 0.009142188 -0.015238005
0000d0 a0 e3 90 bd 43 ec 6e 3d 26 70 e7 bc 78 76 51 bd
       -0.07074666 0.058330785 -0.028251719 -0.05113837
0000e0 38 c7 7d 3d 05 36 31 3c 0d 2c 32 3d 98 ff f6 bc
       0.061957568 0.010816102 0.04349904 -0.030151173
0000f0 2d 93 a7 bd da ad 47 bb cb 35 94 3c 77 31 cf bd
       -0.081823684 -0.0030468614 0.018092057 -0.101168565
000100 79 72 3b bd eb 3f 9f 3c 1c ba c6 bd a0 95 28 bd
       -0.045763467 0.019439658 -0.09703466 -0.04115832
000110 06 65 65 bd 26 f5 d3 3d 68 dc cb 3d 68 51 0b 3c
       -0.056004547 0.10349493 0.099541485 0.0085032955
000120 4f 67 5e 3d fc e6 a8 3c e4 94 5d 3c 18 d8 97 bc
       0.05429774 0.020617954 0.013524268 -0.018535659
000130 12 dc 0e bc 02 13 99 bd b0 69 91 3d 24 8d 2c bd
       -0.008719461 -0.074743286 0.071002364 -0.04212679
000140 cb b3 a2 3d 37 f0 34 bc 70 a5 33 3b 3e 57 08 3d
       0.07944449 -0.0110436 0.002741184 0.033286326
000150 dc 9c 24 3c d2 08 a7 3d d1 e2 b6 3d 38 83 68 3d
       0.010047164 0.08155979 0.089299805 0.056765765
000160 2f df 9f bd 4c cb bc bd da 23 cc 3b e2 a1 50 bc
       -0.07806241 -0.09218463 0.00622986 -0.012733908
000170 8f fe 49 bd 25 f5 11 3c 83 c3 89 3d 65 37 06 bd
       -0.04931503 0.008908545 0.06726744 -0.032767672
000180 ff ed 9e bd 15 ff 8d bc a7 ed 03 ba 60 79 90 bd
       -0.07760238 -0.017333547 -0.00050326664 -0.070544004
000190 95 9a a4 3d cb 28 a1 3d d7 65 a8 bd b8 a3 c1 bd
       0.08037297 0.07869109 -0.082225494 -0.09455055
0001a0 8b 1f e3 bb b7 77 be 3d 1f ce 70 bd c1 05 d0 bd
       -0.0069312504 0.093001775 -0.058790322 -0.101573475
0001b0 a0 ce d2 bd e4 a0 e1 3b 0e 2d 54 3d 5a c0 82 3c
       -0.10293317 0.0068856347 0.05180078 0.015960861
0001c0 5f f8 cc 3d 5e 65 a0 3d 1f 35 de bc e7 72 c3 bd
       0.100083105 0.07831834 -0.02712494 -0.095434
0001d0 d2 b0 0f 3d 49 0d 73 bd 84 4e 20 3a ab 37 95 bb
       0.03508074 -0.05933884 0.00061152154 -0.0045537553
0001e0 1f 3d a1 bd 62 61 41 3c 88 d5 1e bd 00 27 33 bc
       -0.07872986 0.011803003 -0.038777858 -0.010934591
0001f0 86 74 44 bb 5f 2f 3f bc e5 88 21 3d 21 6b 05 bd
       -0.002997668 -0.011669009 0.039437193 -0.03257287

4.weight f4 [64, 128]
000000 aa 65 89 3c f7 68 ac 3c 57 df d0 3b 57 54 4a 3a
       0.01677211 0.021046145 0.0063742804 0.0007718256
000010 4a 82 94 3d 23 41 9d bd b3 40 3f bd 60 38 7e bb
       0.07251413 -0.076784395 -0.04669256 -0.0038790926
000020 df a9 1b bd ef 13 2c bd 8c ed 08 bd 3c 5f 20 3d
       -0.0380038 -0.042011198 -0.033429667 0.039153323
000030 b7 f3 a2 bd 70 af a6 bd 9f dd 98 3d 67 21 8c 3d
       -0.07956641 -0.08138931 0.07464146 0.068423085
000040 b5 38 b8 bc 81 bf 77 3c d7 19 92 bd 76 05 a4 3d
       -0.022487978 0.015121342 -0.07133835 0.08008854
000050 de fc b2 bc 2a 36 f9 3b 8a fb fa bb 7a 25 9d bc
       -0.021849092 0.007605334 -0.0076593803 -0.01918291
000060 bd d8 44 bd aa 4d 97 bd 20 a2 26 bd a7 f4 ad bb
       -0.04805826 -0.0738786 -0.04068196 -0.005308706
000070 c7 c3 01 3d 4f 59 ba bd 4e c8 2a 3c c0 79 bd 3c
       0.03168085 -0.090990655 0.010423733 0.023129344
000080 73 cf c8 bc cb 3c 0e 3c 2e bd 1b bd c1 56 67 bd
       -0.024512982 0.008681486 -0.038022213 -0.05647922
000090 d5 e4 09 bd df e2 63 bc 1f a5 8f 3d bd 33 d4 bc
       -0.033665497 -0.013909071 0.07013916 -0.025903577
0000a0 93 2a dc 3c 70 42 7a 3d 30 92 91 3d 62 77 0f 3d
       0.02687577 0.061098516 0.07107961 0.03502596
0000b0 96 d3 8e bd 84 02 78 3d e7 53 c7 bc 47 cc 57 3d
       -0.069739506 0.060549274 -0.024332 0.05268505
0000c0 45 44 04 bc 1f 47 af 3c ce 71 5a bd 77 2c 51 bc
       -0.008072917 0.021396218 -0.05333119 -0.012766949
0000d0 81 b4 80 3d 66 92 de bd d8 9a 97 3d a0 cf 89 bd
       0.062844284 -0.10867767 0.07402581 -0.067290545
0000e0 fd 13 6b bd be 68 17 3b de 2e a9 3d 1d 4f e6 bc
       -0.05739211 0.0023103203 0.08260892 -0.028113896
0000f0 11 0f 75 bc c8 66 75 bd 14 a5 d8 3c 58 fa 64 bd
       -0.014957205 -0.059912473 0.026445903 -0.05590281
000100 5c 3d 65 3d 33 6f 2a 3d e0 dd 71 bc bb 25 23 3d
       0.05596672 0.041609954 -0.014762372 0.039830904
000110 f3 82 b7 3b 41 5e bb bc 7c af 9d 3c 5b c0 aa 3c
       0.005600327 -0.022872092 0.019248717 0.020843675
000120 1f 3c 5b 3d 42 fb aa bc 85 e0 43 bd e4 ff ac 3d
       0.053524133 -0.020871762 -0.04782154 0.08447245
000130 07 e5 d1 bd 66 c2 bb 3d 3e ad 2d bd 07 d4 55 3d
       -0.102487616 0.09167938 -0.042401545 0.05220416
000140 63 c8 2f bc 97 df 29 3d cc 87 b5 3c 5d 89 3f bd
       -0.010728928 0.041472998 0.02215948 -0.04676186
000150 e1 a5 eb bc 78 09 44 bd 76 3a 45 bd d7 13 42 bd
       -0.02876562 -0.047860593 -0.048151456 -0.047382202
000160 a2 f5 28 3d 4c 95 4d bd 78 ad 65 bd 04 c5 a5 3d
       0.04124988 -0.05019121 -0.056073636 0.080942184
000170 2a 91 ba 3d ea c6 86 bd 85 91 92 bd dc 79 9f 3c
       0.09109719 -0.065809086 -0.07156662 0.019467287
000180 38 c4 a7 3d e0 a7 98 bd bb 83 a9 bc cc 78 a0 3d
       0.08191723 -0.074538946 -0.020692697 0.0783554
000190 83 c9 92 bd 5e 07 f9 bc 6e 51 9b bd ec 8a d8 bc
       -0.071673416 -0.03039902 -0.07583891 -0.02643343
0001a0 21 ec 1d bd 0d ca 0e 3d e9 1a 5d 3d d6 1a b7 3d
       -0.03855527 0.03486066 0.05398074 0.089406654
0001b0 d9 51 ac 3d a4 cb 7d bd ab 3b 23 3b 69 ac 2d 3d
       0.08414049 -0.061961785 0.002490739 0.04240075
0001c0 18 b6 c2 bd f8 f9 bf bd bb b8 8a bd 11 5c ac bc
       -0.09507388 -0.0937385 -0.06773516 -0.021039994
0001d0 61 42 5c bd 53 6d 5c bd b2 15 b9 bd 96 ca ca 3c
       -0.05377424 -0.053815197 -0.09037341 0.024754804
0001e0 b4 32 9b bd 48 7d 99 3d 71 95 67 bd d8 84 3f 3d
       -0.0757803 0.074945986 -0.056539003 0.04675755
0001f0 7c 7c cc bd a6 26 24 3d 6c 27 56 3d fd 4e 26 3d
       -0.09984681 0.04007592 0.05228369 0.040602673
000200 87 ad 21 bd 67 6c 03 b9 be 85 06 bd c0 fe 3b 3c
       -0.03947213 -0.00012533517 -0.03284239 0.011474311
000210 b5 ed 73 3d dd e5 d6 3d 48 53 61 bc ec 1c ae 3d
       0.059552867 0.10493062 -0.013752766 0.0850161
000220 c2 7d 68 bb a9 6a e2 bc 61 ba 02 bd ba cf c6 3d
       -0.0035475348 -0.02763875 -0.031916026 0.097075894
000230 4b 00 2a 3d 37 50 6c 3c 50 1d 0e 3e e3 a3 8c bd
       0.041504186 0.014423422 0.1387837 -0.068671964
000240 87 fb 95 3d f8 83 99 bd b4 f5 df bd a3 7d 8a bd
       0.07323366 -0.07495874 -0.10935536 -0.067622446
000250 37 ff 91 bb 87 02 ff 3c a6 ce 2f bd 86 e5 b0 bc
       -0.004455473 0.031129135 -0.042921685 -0.02159382
000260 0f eb ae 3d a4 7e aa bc 28 11 6a bc 29 c0 8f bd
       0.085409276 -0.02081234 -0.014286317 -0.070190735
000270 cf 89 d2 bc 5c 04 b4 3c fe 74 78 bc ea c6 de 3d
       -0.025700478 0.021974735 -0.015164612 0.108777836
000280 a1 1f b1 bd 63 3e b6 bc 5f 51 6c 3b 05 12 8d 3d
       -0.08648611 -0.022246545 0.0036059243 0.068882026
000290 58 1b bb 3d 4b a1 a8 3d 65 90 46 bd f9 e8 8a 3c
       0.09136075 0.08233889 -0.04847755 0.016956793
0002a0 c3 ce 3d bd b0 e3 b0 3d 07 7b a2 3d b8 49 d6 3c
       -0.04633976 0.08637178 0.07933622 0.026158199
0002b0 95 7f 7b bd f3 db 9d 3d 19 f4 d4 3d fc 52 c1 3c
       -0.06140097 0.077079676 0.103981204 0.02359914
0002c0 63 72 d6 3d 6a eb 83 bd 7d 92 26 bd 17 e5 3e 3c
       0.10471036 -0.06441386 -0.040667046 0.011651299
0002d0 44 72 82 bd 61 3e 70 3d c0 85 8f bd 30 6d 42 bd
       -0.06369451 0.05865324 -0.07007933 -0.04746741
0002e0 ff dc 79 3d 37 23 9c 3d c9 66 0a bd 15 6e 55 bd
       0.061001774 0.07623904 -0.03378943 -0.052106936
0002f0 b7 85 83 bd 26 a6 86 bd dc 84 ba 3d 45 44 42 bd
       -0.064219885 -0.06574659 0.09107372 -0.04742839
000300 7d 63 3a bd 4b 07 ab 3c 44 8c e2 bd 9a fe 32 3d
       -0.045505036 0.020877501 -0.1106191 0.04369984
000310 55 c8 8c 3c 2e 26 f2 3d 8b 89 04 3e 57 48 3e bd
       0.01718537 0.118236884 0.12943093 -0.046455707
000320 53 c1 de 3c 55 55 9d 3d 71 78 9c 3d 23 31 bb bd
       0.027191794 0.076822914 0.0764016 -0.091402315
000330 70 40 8e 3d f0 28 99 bd 3d d7 ef 3d 49 43 a8 3d
       0.06945884 -0.07478511 0.11710975 0.082159586
000340 4c 83 e0 3d 81 fd 08 be 79 c0 b8 3d 00 15 27 bc
       0.10962543 -0.13377954 0.09021086 -0.010197878
000350 c6 ed cb 3d 1e ef 1f 3c 61 81 06 3e 26 73 e7 3d
       0.09957461 0.0097616 0.13135292 0.1130126
000360 1f fc 05 bd ec 33 92 bd c0 30 f3 3d 0c a8 89 3c
       -0.032711145 -0.071388096 0.11874533 0.016803764
000370 46 16 ec bd b3 6a fd bc 65 7c ca bc 86 c3 39 3d
       -0.11527686 -0.030934667 -0.024717519 0.04535248
000380 a7 ab e0 bc 65 b5 e5 3d c4 8c 03 be c2 a2 03 be
       -0.0274256 0.11216239 -0.12846667 -0.12855056
000390 77 25 2a 3d ba c0 e3 3d b1 c8 c5 bd 49 f5 0c be
       0.041539636 0.11120744 -0.096574195 -0.13765444
0003a0 33 39 3e bc 30 c6 b0 3d e3 23 2d bd 77 42 cc bd
       -0.011610317 0.08631551 -0.042270552 -0.09973615
0003b0 d2 c6 11 3d 2a db b8 3d e1 87 7e 3d 19 a7 9c bd
       0.03559 0.09026177 0.062141303 -0.07649059
0003c0 c4 45 8e 3c e8 21 b0 3d b2 41 d6 bd 5c b7 01 be
       0.017367251 0.08600217 -0.10461749 -0.12667602
0003d0 00 ea 19 3d 36 18 ac bb bf 80 45 bd ce 4f cc bc
       0.037576675 -0.0052519096 -0.048218485 -0.024940398
0003e0 3c db 8a 3c 98 2b d3 bd b7 0d ea bd c6 bc 98 bc
       0.016950242 -0.10311049 -0.11428397 -0.018644702
0003f0 4f 86 85 3d b9 1b 06 3e 1b 40 0c bc d0 e9 55 bd
       0.06519758 0.13096513 -0.008560206 -0.052224934

4.bias f4 [64]
000000 2e 8a 1f 3d 87 c3 d3 3d ed 5e ad 3d 2e 7e 85 bd
       0.038950138 0.10340028 0.08465371 -0.065182075
000010 18 53 13 bc e6 39 75 bd a9 53 75 bd 99 26 62 3d
       -0.008991979 -0.05986967 -0.059894238 0.05521259
000020 be 07 96 3d d6 56 f1 3d 83 bb 5d b9 9a f9 47 3c
       0.073256955 0.11784141 -0.00021146056 0.012205506
000030 cc 3c fa bd 19 fb a8 3d a0 1f 88 3c b4 2a 34 3d
       -0.12218627 0.08251018 0.016616642 0.043986037
000040 0f 60 0e 3c 10 c1 ba 3c d5 d1 33 bd aa eb 6a 3c
       0.008689894 0.022797137 -0.043901283 0.014338413
000050 62 20 ac 3d a2 0e 8c bd dd 5d 93 3d 30 74 29 3d
       0.08404614 -0.068387285 0.071956374 0.04137057
000060 00 b9 98 3d 64 46 ac bd 81 c4 0d 3d 19 5d 01 3d
       0.07457161 -0.084118634 0.03461123 0.031582925
000070 4a da 8d 3b 5e c9 c0 bd aa e2 bb bd 6b 01 4a bd
       0.0043290006 -0.09413408 -0.09174092 -0.04931776
000080 7d c4 35 3c 7f a2 90 bd ca 3b f0 bd 7a 42 6f 3c
       0.01109421 -0.07062244 -0.11730154 0.014603252
000090 bc ee f3 3d 21 c1 bb 3d 1c f0 2e bd 2b 28 81 bd
       0.11910769 0.09167696 -0.042709455 -0.063064896
0000a0 65 8c 27 3d 23 9a f1 3d 6d 15 a7 bb b5 90 a4 3d
       0.040905375 0.11796977 -0.0050989897 0.08035413
0000b0 3a 57 2f bd 7c 02 24 bd 93 ff e1 3c 45 29 85 bd
       -0.042807795 -0.04004143 0.027587688 -0.06502012
0000c0 ed d7 6b bd f5 c6 ed bc 69 0a 9f 3c cf 72 0a bc
       -0.05757897 -0.029025534 0.019414144 -0.008450224
0000d0 64 aa 8f 3d 2f 42 6a bc 74 9c 03 3e cd d3 7e 3c
       0.07014921 -0.014298006 0.12852651 0.015553427
0000e0 51 d0 9c 3d 1b 55 1c bd f1 72 23 bd a4 dc e4 3c
       0.07656921 -0.0381671 -0.03990454 0.02793724
0000f0 13 d8 c5 3b 42 0f 80 3d 59 90 89 3d 2f f9 a7 3d
       0.006037721 0.0625291 0.06716985 0.08201825

6.weight f4 [1, 64]
000000 0b f8 83 3d b1 ef 9a bd 63 12 ed bd 3e 24 88 3c
       0.06443795 -0.07565249 -0.115757726 0.016618844
000010 12 61 d9 bd 85 3d 1b 3e 3e 9e ec 3d ad e1 1c 3e
       -0.10614218 0.15160187 0.1155362 0.15320463
000020 0d 6f 77 3d 79 59 ea bd 36 f3 09 be d9 78 d2 bd
       0.06040864 -0.11442847 -0.13471684 -0.10276956
000030 c6 d1 c5 3d 36 65 07 be 4b 64 de 3d 8a a0 e8 bd
       0.09659152 -0.13222203 0.10858973 -0.113587454
000040 47 31 95 bd 8e d0 6c 3c 71 42 03 be b3 4e e2 3c
       -0.072847895 0.01445402 -0.12818314 0.027625417
000050 c7 34 08 be cd 1f 31 3e 04 e7 cb 3d e2 22 b9 3d
       -0.13301383 0.17297287 0.09956172 0.090398565
000060 44 27 53 bd cd 16 a2 3d f4 cb f0 3d f7 3a 0e 3e
       -0.05155112 0.07914505 0.11757651 0.13889681
000070 47 59 92 b8 fb 6d 82 3d ec 4b 24 3e c9 8e ae 3d
       -6.978452e-05 0.06368633 0.16044587 0.08523328
000080 61 7f df 3d d0 9e 2b 3e 01 fc 27 3e b7 85 b5 bd
       0.109129675 0.16759801 0.16404726 -0.08863395
000090 ce fd 03 be fb 4f 97 bd e2 a1 2b be 83 fc de 3d
       -0.12889788 -0.07388302 -0.16760972 0.108880065
0000a0 89 5a c5 3d 90 b7 d0 bd 51 75 b8 bd 97 54 ba 3d
       0.09636409 -0.10191262 -0.09006751 0.090981655
0000b0 ed 6d b3 3d 9e e8 a4 bd 4d e3 f5 3d 85 de 92 3d
       0.08761201 -0.08052181 0.12006245 0.071713485
0000c0 7d 1e 96 3d c5 2f 1f be b7 1d 32 3d 0f e4 0a be
       0.07330034 -0.15545566 0.04348537 -0.1356356
0000d0 76 71 18 3d 0d ff c8 bd 02 4d 58 bd d7 b5 08 3d
       0.03721758 -0.09814272 -0.052807815 0.03337654
0000e0 a8 fd 80 bd 43 0d 0c 3e 38 09 b4 bd f1 c7 d1 3d
       -0.06298381 0.13676934 -0.08790821 0.10243214
0000f0 5e 74 e7 bd f3 c3 70 3d aa 29 b8 3d f8 b4 16 be
       -0.11301492 0.05878062 0.08992322 -0.14717472
