src/training/critic.pth (torch, 200436 bytes, 7 tensors)

0.weight f4 [256, 31]
0.15286362 -0.04614084 0.052797332 0.069524355 0.12163279 -0.08612662 -0.04954334 -0.07852529
-0.09456544 -0.16448894 -0.11526941 0.17076223 0.14112107 0.1423565 0.0063996348 0.09610581
0.1869149 -0.024102613 0.13714653 0.14446063 0.06193821 -0.00080002076 0.08347742 0.013406701
0.053840883 -0.043557554 -0.1401337 -0.05017534 0.074865915 -0.05658936 -0.13014022 0.091994956
0.03355607 -0.09106444 0.14293209 0.09407088 -0.061510295 0.15261133 0.13246652 0.113724716
0.12454036 0.08841032 -0.09880515 0.08774941 0.055722382 0.17511627 0.2048687 -0.034172762
0.10872759 -0.03915508 0.11008242 0.18727797 0.03480926 0.14238442 -0.18870926 -0.07184034
-0.07717379 0.06330463 0.10334189 -0.04453088 0.05429513 -0.1477717 0.26734352 -0.08517053
-0.11135727 0.10296854 0.0411304 0.05008503 -0.059369124 0.16623674 0.0064919787 -0.12661996
-0.114942364 -0.1572639 -0.15973435 -0.17864026 0.049022444 -0.13382427 0.19404705 -0.091098495
-0.1458949 -0.17196083 -0.086117476 0.16539341 0.10334658 0.12804362 0.117782734 -0.080773406
0.03152551 -0.1423096 -0.07997484 0.026136586 -0.110690616 0.1487765 -0.17060262 -0.013745035
0.14598636 -0.016021032 -0.09593607 0.10992718 -0.05448851 0.056496378 -0.12971619 -0.08739126
-0.06769304 0.15078948 0.0047354726 0.13437721 0.02318329 0.18236467 0.19889398 0.0057536713
-0.0088852495 0.05492787 0.014363351 -0.14114906 0.058993284 0.1709077 -0.0034131526 -0.020108234
0.12965102 -0.15819742 0.11323994 0.03513198 0.16087839 -0.16807224 0.07300546 -0.13087736
-0.11502055 0.0135808 -0.021097811 0.041502647 0.17097935 0.010540278 0.13983741 0.07306113
0.09181297 -0.04672733 0.16488919 0.19995505 0.001410277 -0.074651666 0.14215122 0.027513878
-0.072270855 0.20651095 -0.021958537 -0.13822643 -0.14566718 -0.13050474 0.046542622 0.06474302
0.029778363 0.16049226 -0.073034026 -0.035235018 0.05434042 -0.19397314 0.066912726 -0.023621075
-0.115921296 -0.077393144 0.042262573 -0.009144904 -0.17351645 -0.07435741 0.1428805 0.026870186
-0.1445144 -0.1691556 -0.10709299 -0.13148613 -0.10272402 -0.1258353 0.056805648 -0.13423423
-0.18637122 -0.044669192 -0.03407437 0.1221981 0.052026525 -0.047792725 0.15957503 -0.13021864
-0.014050656 -0.10022733 0.15951851 0.011801693 -0.12248777 0.014046802 -0.10241687 0.031059295
-0.15158506 -0.018902196 0.030150093 0.13255921 0.107255414 -0.097760916 0.20055553 0.12187709
-0.057888154 -0.04392552 -0.06471876 -0.029223641 0.12944584 -0.17894205 0.09831975 0.1055963
-0.16528973 -0.07159002 0.07256594 0.16326252 0.06283272 0.13309804 0.05055934 0.100971825
0.14108707 -0.34995747 0.16606954 -0.041563645 -0.12838328 -0.051444817 -0.13631839 0.0022352687
-0.10285926 0.06176874 0.06085029 0.15799911 -0.08359629 -0.13475879 -0.014535799 -0.013802036
0.11321042 0.09051259 0.11613863 -0.068561554 -0.08424472 -0.12973784 -0.06670548 0.17906417
-0.10937598 -0.13545461 -0.03630115 0.13005094 -0.15776394 0.043519508 -0.0074331895 0.1279172
0.20432702 0.0055936407 0.21305417 -0.17355318 0.034019507 0.0015014412 -0.17932975 -0.13469149
00000000: 4888 1c3e 2dfe 3cbd 0442 583d c962 8e3d
00000010: 9d1a f93d 2763 b0bd f5ed 4abd ded1 a0bd
00000020: 87ab c1bd ca6f 28be 5e12 ecbd 4bdc 2e3e
00000030: 0b82 103e e7c5 113e 07b4 d13b 1fd3 c43d
00000040: 9f66 3f3e d872 c5bc 2470 0c3e 7ded 133e
00000050: ecb2 7d3d 7cb8 51ba 36f6 aa3d c8a7 5b3c
00000060: 4288 5c3d 6869 32bd 357f 0fbe a884 4dbd
00000070: 4d53 993d 3fca 67bd 7a43 05be da67 bc3d
00000080: 1772 093d fe7f babd ca5c 123e 3ca8 c03d
00000090: 38f2 7bbd 2546 1c3e 4ea5 073e 81e8 e83d
000000a0: 040f ff3d 7810 b53d 5b5a cabd f6b5 b33d
000000b0: 273d 643d ae51 333e 1ac9 513e bdf8 0bbd
000000c0: 92ac de3d 1461 20bd e472 e13d ccc5 3f3e
000000d0: 2894 0e3d 39cd 113e 003d 41be 0721 93bd
000000e0: 4b0d 9ebd dca5 813d eaa4 d33d 0366 36bd
000000f0: 9264 5e3d 7751 17be 40e1 883e e36d aebd
00000100: 480f e4bd 2be1 d23d 5a78 283d f625 4d3d
00000110: 0a2d 73bd f739 2a3e aaba d43b aaa8 01be
00000120: e766 ebbd ca09 21be 6791 23be 79ed 36be
00000130: c2cb 483d 3b09 09be 45b4 463e d991 babd
00000140: 7965 15be 8016 30be 5c5e b0bd e45c 293e
00000150: 5fa7 d33d de1d 033e 1338 f13d 876c a5bd
00000160: e520 013d 9cb9 11be d9c9 a3bd 651c d63c
00000170: c3b1 e2bd de58 183e 74b2 2ebe db32 61bc
00000180: 737d 153e 8a3e 83bc 217a c4bd 8021 e13d
00000190: 582f 5fbd bf68 673d 52d4 04be 30fa b2bd
000001a0: a6a2 8abd 8f68 1a3e 062c 9b3b 2e9a 093e
000001b0: e2ea bd3c cebd 3a3e ddaa 4b3e 4b89 bc3b
000001c0: 7093 11bc 0cfc 603d 4354 6b3c 6189 10be
000001d0: f1a2 713d 6e02 2f3e 33af 5fbb 06ba a4bc
000001e0: 3dc3 043e 81fe 21be 57ea e73d 8de6 0f3d
000001f0: 4ebd 243e 211b 2cbe e383 953d b704 06be
00000200: e58f ebbd 0182 5e3c 51d5 acbc aefe 293d
00000210: 3615 2f3e 21b1 2c3c 8a31 0f3e 13a1 953d
00000220: 7008 bc3d 2865 3fbd b6d8 283e 04c1 4c3e
00000230: 0bd9 b83a f9e2 98bd 1790 113e c964 e13c
00000240: be02 94bd 9b77 533e 64e2 b3bc 3b8b 0dbe
00000250: c729 15be 09a3 05be 7aa3 3e3d fd97 843d
00000260: c1f1 f33c 1558 243e dd92 95bd 9852 10bd
00000270: 0f94 5e3d e5a0 46be 8a09 893d fc80 c1bc
00000280: 2568 edbd 4c80 9ebd 851b 2d3d 82d4 15bc
00000290: 4cae 31be b348 98bd 444f 123e dd1e dc3c
000002a0: 95fb 13be 2037 2dbe 9253 dbbd 4da4 06be
000002b0: f960 d2bd f8da 00be 0aad 683d b374 09be
000002c0: 19d8 3ebe 0bf7 36bd 9191 0bbd ff42 fa3d
000002d0: c419 553d 4ec2 43bd a367 233e 0958 05be
000002e0: b934 66bc fd43 cdbd d258 233e e35b 413c
000002f0: deda fabd 8f24 663c f0bf d1bd 1070 fe3c
00000300: 1d39 1bbe c7d8 9abc 54fd f63c 9abd 073e
00000310: baa8 db3d e036 c8bd 6e5e 4d3e b29a f93d
00000320: 211c 6dbd 3feb 33bd 458b 84bd 6b66 efbc
00000330: 738d 043e 963c 37be dd5b c93d df42 d83d
00000340: b641 29be ca9d 92bd 749d 943d 4a2e 273e
00000350: 71ae 803d da4a 083e 4f17 4f3d 51ca ce3d
00000360: 2179 103e a02d b3be 220e 2a3e a43e 2abd
00000370: e876 03be cdb7 52bd 0c97 0bbe 967d 123b
00000380: e0a7 d2bd 3801 7d3d 273e 793d 85ca 213e
00000390: 8834 abbd 35fe 09be 8f27 6ebc ef21 62bc
000003a0: ddda e73d aa5e b93d 17da ed3d 006a 8cbd
000003b0: 7f88 acbd ffd9 04be e29c 88bd 995c 373e
000003c0: 8400 e0bd 9db4 0abe 84b0 14bd 132c 053e
000003d0: df8c 21be 8341 323d 1d92 f3bb bafc 023e
000003e0: 1a3b 513e dc4a b73b df2a 5a3e edb7 31be
000003f0: 0a58 0b3d 02cc c43a 38a2 37be 91ec 09be

0.bias f4 [256]
0.14349999 0.026707906 -0.16186795 0.021431575 0.15422039 -0.17250237 0.2019627 -0.086052604
0.04021193 0.056242857 0.10173021 -0.012483684 -0.1742973 0.064888716 0.15209164 0.0015112668
-0.17449318 -0.17522666 0.09365499 0.06883528 0.19660757 0.10308096 -0.16102111 0.004298955
-0.13908885 -0.20321712 -0.19956516 0.18749684 -0.120900474 0.113673046 0.06385648 0.061152015
-0.06305293 -0.07340445 0.057000943 0.15374711 -0.060018625 0.20455886 -0.14960529 -0.19435118
0.07093607 -0.033930153 0.13940708 0.21816126 -0.12993021 -0.035054196 0.15995897 -0.17493075
-0.08697268 0.21540722 -0.11831465 -0.018443422 -0.19964592 -0.10096486 0.007752653 -0.07599747
0.122287184 -0.21746293 -0.041536093 0.07954885 -0.03714092 0.11721604 -0.07335766 0.18273748
-0.070868835 -0.07004659 -0.1788345 0.11538646 0.009588182 0.030888114 -0.1702832 0.17080136
0.12895948 0.08487324 -0.11364646 0.09113116 -0.06211535 0.21641485 0.13947906 0.12697662
-0.13167362 -0.03288169 0.079753764 -0.0697902 0.033621036 -0.092359655 -0.13057972 0.10233656
-0.159775 0.1403759 0.12266539 0.1176338 0.16729294 -0.1376465 -0.103561416 -0.1426228
-0.00983116 0.041856535 0.026328932 -0.052314956 -0.16233154 -0.083537795 -0.048472498 0.008779634
0.119869135 0.061265882 -0.14397524 -0.15437153 0.12735847 -0.111197315 0.13268572 0.015283167
-0.010496156 -0.20861135 -0.14629257 -0.03794642 -0.17185323 0.16304028 -0.0975909 -0.0057690027
0.024444157 -0.13889915 0.032804407 -0.053472094 0.07964348 -0.08708889 0.1720648 -0.05754897
0.09454397 0.096791364 -0.0009969661 0.0099786185 -0.1293402 -0.016396672 0.018253027 -0.19339718
-0.07432924 0.08112584 -0.11202279 -0.19394703 0.14488596 0.14905383 -0.014761239 0.038353093
-0.08978579 0.09419199 0.22065657 -0.10710735 -0.08455473 -0.015173705 -0.0044670375 0.06663169
-0.18644416 0.06380283 -0.15199088 0.19472662 0.03919096 -0.01025888 -0.09791191 -0.06620848
0.107062794 0.06138921 0.17685731 -0.052225742 -0.12225251 0.06357531 -0.12563941 -0.21272452
-0.2104986 -0.15412498 -0.16800189 0.19401984 0.20574038 0.2058536 -0.06392084 -0.15504107
0.21210068 0.12936163 -0.0790492 -0.18367119 -0.016846266 0.1260576 0.14633316 -0.065989494
-0.08190056 -0.049727302 -0.099544786 0.20626351 0.04083812 -0.0857722 -0.08418404 -0.096137315
0.061359785 0.10421252 0.038120244 -0.13149033 -0.09943997 0.17265163 0.21140313 -0.10416394
0.12051771 0.004765728 0.1870581 -0.061325055 -0.19897799 0.17702112 -0.09124064 0.041005813
-0.024694536 -0.15046346 0.06340682 0.15435112 0.13031282 0.11517176 0.11485994 0.19042651
-0.062824845 0.027766865 -0.07680084 -0.22362384 0.099405415 0.07337872 -0.021735527 -0.07090946
-0.052099403 -0.017743962 0.14878894 0.10803082 -0.015793916 0.0663752 -0.04300911 -0.12308891
-0.13392489 0.11724338 -0.1790519 0.053263675 -0.07811098 -0.0023420455 0.040217966 0.12311904
0.051213857 -0.008412573 0.0907685 -0.12670362 0.05435215 -0.19232537 0.07985854 -0.013462953
0.058484204 0.0611222 0.05659615 -0.10004125 0.067428984 0.040238637 0.047551874 -0.07601375
00000000: a9f1 123e 8aca da3c b6c0 25be 4591 af3c
00000010: f3eb 1d3e 76a4 30be 4fcf 4e3e 593c b0bd
00000020: 44b5 243d e95e 663d ee57 d03d 5e88 4cbc
00000030: fe7a 32be 60e4 843d e9bd 1b3e b315 c63a
00000040: 57ae 32be 9e6e 33be 30ce bf3d 83f9 8c3d
00000050: 7f53 493e 1c1c d33d b8e2 24be 40de 8c3b
00000060: 4f6d 0ebe 2618 50be cf5a 4cbe 2cff 3f3e
00000070: ab9a f7bd 6acd e83d 30c7 823d 897a 7a3d
00000080: e521 81bd 1355 96bd d279 693d e26f 1d3e
00000090: 17d6 75bd e177 513e 2132 19be ff03 47be
000000a0: ee46 913d 58fa 0abd bbc0 0e3e aa65 5f3e
000000b0: 6d0c 05be fd94 0fbd 49cc 233e 0c21 33be
000000c0: bc1e b2bd b693 5c3e f44e f2bd a916 97bc
000000d0: fb6f 4cbe aac6 cebd f809 fe3b 90a4 9bbd
000000e0: b471 fa3d 9aae 5ebe c021 2abd 82ea a23d
000000f0: 1421 18bd f70e f03d 8a3c 96bd 891f 3b3e
00000100: ae23 91bd 9674 8fbd 6420 37be bd4f ec3d
00000110: c017 1d3c 1209 fd3c b85e 2ebe 8de6 2e3e
00000120: f40d 043e 05d2 ad3d 7abf e8bd f9a2 ba3d
00000130: aa6c 7ebd db9b 5d3e 99d3 0e3e 2906 023e
00000140: 73d5 06be f3ae 06bd f155 a33d 2aee 8ebd
00000150: 36b6 093d 0f27 bdbd b1b6 05be d595 d13d
00000160: 0f9c 23be b3be 0f3e fe37 fb3d fde9 f03d
00000170: d74e 2b3e 34f3 0cbe 0218 d4bd b60b 12be
00000180: e012 21bc c271 2b3d c6af d73c 3548 56bd
00000190: 3d3a 26be dd15 abbd 198b 46bd 74d8 0f3c
000001a0: f37d f53d eff1 7a3d 3f6e 13be 9213 1ebe
000001b0: 426a 023e 6bbb e3bd c4de 073e 4066 7a3c
000001c0: 12f8 2bbc 379e 55be b8cd 15be b56d 1bbd
000001d0: 4bfa 2fbe 08f4 263e bddd c7bd e709 bdbb
000001e0: 1d3f c83c 943b 0ebe ea5d 063d 8e05 5bbd
000001f0: 1f1c a33d a95b b2bd c131 303e 78b8 6bbd
00000200: 45a0 c13d 8d3a c63d a2ac 82ba 5c7d 233c
00000210: c271 04be 5052 86bc 5f87 953c e909 46be
00000220: ee39 98bd 4e25 a63d 346c e5bd 0d9a 46be
00000230: fc5c 143e 91a1 183e 20d9 71bc 2218 1d3d
00000240: 9de1 b7bd bbe7 c03d ccf3 613e 195b dbbd
00000250: 082b adbd 229b 78bc 3a60 92bb 3276 883d
00000260: 38eb 3ebe 0fab 823d 7fa3 1bbe 6a66 473e
00000270: b386 203d dd14 28bc 0a86 c8bd 5098 87bd
00000280: bd43 db3d 4173 7b3d 151a 353e a9ea 55bd
00000290: 865f fabd c633 823d 9ea7 00be 75d4 59be
000002a0: f28c 57be f0d2 1dbe b008 2cbe 23ad 463e
000002b0: 9bad 523e 49cb 523e eee8 82bd 16c3 1ebe
000002c0: ec30 593e 6077 043e 8ce4 a1bd 4d14 3cbe
000002d0: 2e01 8abc 3e15 013e 5cd8 153e 8025 87bd
000002e0: 7bbb a7bd dbae 4bbd 23de cbbd be36 533e
000002f0: df45 273d 56a9 afbd af68 acbd a4e3 c4bd
00000300: 6654 7b3d 606d d53d f923 1c3d 67a5 06be
00000310: 2fa7 cbbd 97cb 303e 107a 583e e753 d5bd
00000320: fdd1 f63d d329 9c3b 298c 3f3e fb2f 7bbd
00000330: e3c0 4bbe 0645 353e 5fdc babd b6f5 273d
00000340: 324c cabc 1813 1abe 6fdb 813d 380e 1e3e
00000350: b970 053e 2cdf eb3d b03b eb3d 2bff 423e
00000360: 50aa 80bd 5677 e33c c249 9dbd a6fd 64be
00000370: 1195 cb3d 9547 963d b40e b2bc fb38 91bd
00000380: 2f66 55bd c95b 91bc 215c 183e 433f dd3d
00000390: 3e62 81bc b9ef 873d 522a 30bd 0a16 fcbd
000003a0: 9b23 09be 4c1d f03d 6259 37be 032b 5a3d
000003b0: a6f8 9fbd 017d 19bb 98bb 243d d625 fc3d
000003c0: 9fc5 513d e3d4 09bc d6e4 b93d 98be 01be
000003d0: 5ca0 5e3d f1f0 44be e08c a33d b893 5cbc
000003e0: 228d 6f3d 465b 7a3d 5dd1 673d 6de2 ccbd
000003f0: 3518 8a3d 45d1 243d c1c5 423d 19ad 9bbd

2.weight f4 [128, 256]
0.057478253 -0.0016993894 -0.059067957 0.058581185 -0.062383417 -0.049813237 0.021418225 0.039702192
0.0054195607 -0.0026727472 0.05879363 -0.021919493 0.021576406 0.0011012359 0.014592404 -0.0264647
0.010727254 0.027756741 -0.04145789 0.03162442 0.033276156 0.0052272147 0.009094271 -0.04565265
-0.04561166 0.015905246 -0.0055542337 0.0029215235 0.03406536 0.050757363 -0.033405107 -0.013822346
0.038243953 0.04638808 -0.009203665 -0.0065424987 0.003951105 0.031241221 0.024684712 0.05947386
-0.062092464 0.023722459 -0.0075061047 0.034725066 -0.050579127 0.022008464 -0.0070448434 0.017946824
-0.008181524 -0.016186548 0.046408348 -0.017771626 0.07678985 0.050354555 0.048875622 -0.011064288
0.05471372 0.06489334 0.013641715 0.011997965 -0.03635623 0.017372131 -0.04201962 -0.058994718
0.056304973 0.033302832 0.02826666 -0.00423174 0.025278293 0.057017006 0.026059486 0.020730067
0.036827352 -0.030060178 0.04882316 0.05796399 -0.00072696793 0.03634135 -0.05694354 -0.04941358
0.042978 -0.012985647 -0.03257053 0.0364557 -0.026381426 0.013403804 0.03669169 -0.017731044
-0.060228392 0.056762002 -0.033958927 0.010666881 0.03264788 -0.046506792 0.026944336 -0.036957253
-0.05504325 -0.0056608994 -0.024077285 -0.0037718543 0.060592838 0.04414197 -0.065722294 -0.040378623
-0.04834257 0.055867113 0.02149491 -0.024099309 0.027590226 0.02090231 -0.043162268 -0.027831523
-0.0294963 -0.05355304 0.061275993 0.02185059 0.01107114 0.02152101 -0.025609644 0.00014619456
0.051069517 -0.024660397 -0.047665846 0.048737694 -0.014487712 0.04311369 -0.010855414 -0.022902183
-0.051783673 0.029658861 -0.04164488 0.0503448 -0.029456267 -0.050045405 0.00493472 -0.04771876
-0.038409106 0.017610993 0.061621692 -0.011399298 -0.057949577 -0.023340264 -0.038295075 -0.024437692
-0.025403477 0.018643104 0.0005542241 -0.051448546 -0.06332163 -0.031322304 0.020972513 0.013449804
0.01463288 -0.013006988 -0.053397413 0.05874761 0.0027420677 -0.0515117 0.00068700995 0.040794685
-0.04331924 -0.046244293 0.029786242 -0.0021311296 -0.024589157 -0.059209865 -0.06305955 -0.020245105
-0.02314389 -0.019061696 0.039526626 0.054532073 -0.0033329735 0.030491017 -0.0010019435 0.04101911
-0.03641312 0.0047710864 -0.0167631 0.026431907 0.051053014 -0.017278833 -0.035185184 0.043952018
0.025415644 0.01518845 -0.050350945 -0.005353681 0.033037692 0.0556527 -0.0282695 -0.05106123
0.06371455 0.06403609 0.0015525701 -0.027390521 -0.032066926 -0.056853525 0.055483986 0.005367014
0.040655967 -0.023754207 0.059710417 0.037141036 -0.03237877 -0.041451335 0.026484586 -0.0030850677
0.033246946 -0.025790509 -0.0544273 -0.04513034 -0.037720777 0.04859654 0.035239954 0.05876252
-0.027758712 0.006451026 0.034097005 0.016020358 0.05874235 0.018653356 0.043807443 -0.055769626
-0.0015289477 0.063875444 0.010616215 0.053784657 -0.04968034 0.007646069 -0.03431807 0.014919418
0.031209873 0.032861203 -0.049806 0.02884274 0.012453074 -0.012542158 -0.040669918 0.0304899
-0.033431344 -0.015884979 -0.004309598 -0.021719819 0.05915964 -0.011215128 -0.028289916 0.017152753
-0.038187232 -0.035195615 -0.0069142026 0.019088117 -0.034165196 0.01827261 -0.02495384 0.022822581
00000000: 516e 6b3d 0cbe deba 3ef1 71bd d3f2 6f3d
00000010: c185 7fbd f708 4cbd 4675 af3c c49e 223d
00000020: 9296 b13b 4229 2fbb 97d1 703d 8290 b3bc
00000030: 01c1 b03c 5857 903a fa14 6f3c 80cc d8bc
00000040: 5dc1 2f3c 1b62 e33c c0cf 29bd 9c88 013d
00000050: 944c 083d 0e49 ab3b 2300 153c 46fe 3abd
00000060: 4bd3 3abd b84b 823c 4a00 b6bb 0877 3f3b
00000070: 1e88 0b3d f4e6 4f3d cbd3 08bd 1f77 62bc
00000080: b1a5 1c3d 6d01 3e3d f8ca 16bc 7562 d6bb
00000090: 4578 813b 97ed ff3c 9837 ca3c dd9a 733d
000000a0: ab54 7ebd 9a55 c23c c5f5 f5bb df3b 0e3d
000000b0: 0f2c 4fbd 184b b43c 6ed8 e6bb 3805 933c
000000c0: cd0b 06bc a799 84bc ae16 3e3d cd95 91bc
000000d0: ff43 9d3d 9440 4e3d ce31 483d fd46 35bc
000000e0: 7e1b 603d cde6 843d 8081 5f3c 1d93 443c
000000f0: 45ea 14bd 0050 8e3c c41c 2cbd 72a4 71bd
00000100: 0ba0 663d 8d68 083d 7c8f e73c 68aa 8abb
00000110: 6c14 cf3c aa8a 693d b47a d53c 1ad2 a93c
00000120: 47d8 163d c340 f6bc cbfa 473d a66b 6d3d
00000130: fe91 3eba abda 143d a13d 69bd e565 4abd
00000140: b309 303d c0c1 54bc ad68 05bd 9252 153d
00000150: dc1d d8bc a19b 5b3c 074a 163d b240 91bc
00000160: 0cb2 76bd 467f 683d 8418 0bbd 24c4 2e3c
00000170: c9b9 053d e87d 3ebd 5eba dc3c 7d60 17bd
00000180: 0875 61bd 117f b9bb ba3d c5bc 3731 77bb
00000190: 3230 783d 36ce 343d 6999 86bd 0e64 25bd
000001a0: dc02 46bd ead4 643d 1816 b03c ea6b c5bc
000001b0: e604 e23c 523b ab3c ebca 30bd effe e3bc
000001c0: 39a2 f1bc 6f5a 5bbd 89fc 7a3d 0200 b33c
000001d0: ba63 353c d44c b03c 51cb d1bc ce4b 1939
000001e0: 452e 513d 9a04 cabc 433d 43bd 2da1 473d
000001f0: de5d 6dbc fb97 303d e8da 31bc 5c9d bbbc
00000200: 1e1b 54bd 24f7 f23c d293 2abd 5936 4e3d
00000210: 454e f1bc 69fc 4cbd 6fb3 a13b bf74 43bd
00000220: de52 1dbd ee44 903c 0767 7c3d 1fc4 3abc
00000230: 895c 6dbd 1534 bfbc 4cdb 1cbd 8e31 c8bc
00000240: f41a d0bc 6cb9 983c 5a49 113a b6bb 52bd
00000250: c5ae 81bd d14b 00bd 8cce ab3c 915c 5c3c
00000260: bfbe 6f3c 431b 55bc 3fb7 5abd 55a1 703d
00000270: 43b4 333b effd 52bd 7518 343a 5418 273d
00000280: 846f 31bd a86a 3dbd 4702 f43c 6caa 0bbb
00000290: 336f c9bc 0b86 72bd 5e25 81bd 10d9 a5bc
000002a0: 4198 bdbc 4627 9cbc ace6 213d 065d 5f3d
000002b0: 046e 5abb 4cc8 f93c a553 83ba a703 283d
000002c0: ec25 15bd c656 9c3b c552 89bc ba87 d83c
000002d0: f71c 513d 578c 8dbc 571e 10bd 0807 343d
000002e0: 7834 d03c fad8 783c cb3c 4ebd ee6d afbb
000002f0: 8852 073d 16f4 633d 7095 e7bc 9525 51bd
00000300: c67c 823d 5b25 833d 9c7f cb3a 1662 e0bc
00000310: 9c58 03bd 3edf 68bd 2d43 633d c7dd af3b
00000320: df86 263d 2f98 c2bc e992 743d 3321 183d
00000330: 9a9f 04bd e0c8 29bd 34f6 d83c d92e 4abb
00000340: f32d 083d 9e46 d3bc 29ef 5ebd 97da 38bd
00000350: 1a81 1abd 2a0d 473d c557 103d f8b0 703d
00000360: 3d66 e3bc 2163 d33b 4da9 0b3d 203d 833c
00000370: d29b 703d ecce 983c 6f6f 333d b16e 64bd
00000380: f966 c8ba 21d1 823d a2ef 2d3c 4d4d 5c3d
00000390: 9d7d 4bbd e08b fa3b 1b91 0cbd 9370 743c
000003a0: d9ab ff3c 7899 063d 6001 4cbd 9c47 ec3c
000003b0: fa07 4c3c a07d 4dbc 8095 26bd f4c5 f93c
000003c0: 4eef 08bd 3721 82bc 8737 8dbb c3ed b1bc
000003d0: 6151 723d a8bf 37bc 41c0 e7bc ee83 8c3c
000003e0: 376a 1cbd 4729 10bd 8990 e2bb af5e 9c3c
000003f0: cef0 0bbd 71b0 953c ff6b ccbc 6cf6 ba3c

2.bias f4 [128]
0.032754216 0.101902 -0.04053408 0.029377514 -0.02856473 -0.007392832 -0.10371099 -0.0030722583
0.082986265 0.091102615 0.0744081 0.076488025 -0.040342227 0.10154176 -0.013740397 0.024622405
-0.015848557 -0.02420059 -0.06943761 -0.04787327 0.006904889 -0.016317757 -0.033426277 0.053202163
0.06757276 -0.046730604 -0.057014104 -0.028392123 0.029959612 0.032855853 -0.04637071 -0.0026077104
-0.07845965 -0.0070947474 -0.015372718 0.04038236 0.096031345 0.08715967 -0.019136341 0.028444063
-0.059755288 0.028425328 0.07037908 -0.038244758 0.020250238 0.021691112 0.058657505 -0.021716455
0.09582934 0.010799378 0.013305581 -0.01441085 -0.06974952 0.05750286 -0.027225275 -0.049871303
0.061151948 0.009903394 0.04490149 -0.029027052 -0.08072291 -0.0019968068 0.016984252 -0.10038289
-0.043826103 0.018413298 -0.09627776 -0.04017563 -0.054315712 0.102723636 0.09877532 0.009778322
0.056501843 0.024484951 0.012755891 -0.017607426 -0.009639563 -0.073778674 0.0699749 -0.039995223
0.07856877 -0.010212675 0.0019304914 0.032408107 0.0092453575 0.08070274 0.08843735 0.05603924
-0.077269636 -0.09115472 0.0052023334 -0.011852721 -0.048321128 0.009797798 0.06641942 -0.034673255
-0.0761861 -0.018053038 0.00047374415 -0.06980598 0.079597995 0.077881776 -0.08134497 -0.093860656
-0.0077319834 0.09229298 -0.05782088 -0.10058117 -0.10226052 0.0057911687 0.05080961 0.017455608
0.09920317 0.07726618 -0.0263808 -0.09458386 0.034066875 -0.05836234 0.001979347 -0.00531684
-0.077705 0.012794098 -0.03794516 -0.011824676 -0.003785594 -0.012714758 0.0386109 -0.031821463
00000000: 4929 063d ffb1 d03d 1007 26bd 1da9 f03c
00000010: 9500 eabc 923f f2bb 6d66 d4bd f157 49bb
00000020: b4f4 a93d 0294 ba3d 4663 983d c1a5 9c3d
00000030: e43d 25bd 20f5 cf3d 671f 61bc edb4 c93c
00000040: d5d4 81bc 5140 c6bc 4e35 8ebd c316 44bd
00000050: 6842 e23b d1ac 85bc fee9 08bd 83ea 593d
00000060: 9663 8a3d 9768 3fbd 9f87 69bd 9996 e8bc
00000070: dc6d f53c dc93 063d 37ef 3dbd 1fe6 2abb
00000080: 74af a0bd 0e7b e8bb dadd 7bbc f967 253d
00000090: 15ac c43d c580 b23d d1c3 9cbc 8603 e93c
000000a0: f6c1 74bd 3cdc e83c e822 903d 89a6 1cbd
000000b0: d4e3 a53c 8fb1 b13c da42 703d b5e6 b1bc
000000c0: 2c42 c43d e0ef 303c a7ff 593c 7c1b 6cbc
000000d0: d6d8 8ebd 1e88 6b3d 8a07 dfbc da45 4cbd
000000e0: 777a 7a3d d841 223c a0ea 373d 24ca edbc
000000f0: 0e52 a5bd dcdc 02bb 8f22 8b3c 8b95 cdbd
00000100: 0083 33bd 7cd7 963c 462d c5bd 348f 24bd
00000110: 277a 5ebd c560 d23d b74a ca3d 4135 203c
00000120: 7a6e 673d aa94 c83c 16fe 503c 733d 90bc
00000130: 42ef 1dbc 4619 97bd 004f 8f3d 08d2 23bd
00000140: aae8 a03d 1053 27bc 8b08 fd3a 5dbe 043d
00000150: d779 173c 7a47 a53d a41e b53d 6789 653d
00000160: 8b3f 9ebd 53af babd 5678 aa3b ea31 42bc
00000170: 60ec 45bd f186 203c e806 883d 8b05 0ebd
00000180: 7507 9cbd f7e3 93bc dd60 f839 70f6 8ebd
00000190: 4604 a33d 7b80 9f3d 3198 a6bd 043a c0bd
000001a0: 945c fdbb 1a04 bd3d 96d5 6cbd 80fd cdbd
000001b0: f76d d1bd d8c3 bd3b bd1d 503d 10ff 8e3c
000001c0: 082b cb3d bb3d 9e3d 8c1c d8bc 2fb5 c1bd
000001d0: b589 0b3d 590d 6fbd efb7 013b e338 aebb
000001e0: cd23 9fbd 569e 513c 626c 1bbd 49bc 41bc
000001f0: ba17 78bb 8f51 50bc 7726 1e3d 3957 02bd

4.weight f4 [64, 128]
0.013795849 0.020566305 0.0036246493 0.00022763175 0.06881949 -0.077295214 -0.046205185 -0.004395471
-0.038405314 -0.04263226 -0.03390056 0.038587235 -0.08552476 -0.08192552 0.07433576 0.06324717
-0.023058025 0.008601056 -0.07092804 0.080522984 -0.021373892 0.009873052 -0.007156642 -0.029627463
-0.048383698 -0.07376586 -0.04039492 -0.010843009 0.025900837 -0.094289266 0.00046795033 0.02260136
-0.024221385 0.0033712492 -0.038389478 -0.056822833 -0.03408428 -0.014165433 0.06427263 -0.034826692
0.0263643 0.06069695 0.0707898 0.03523918 -0.07539279 0.055432297 -0.024638636 0.044950817
-0.008488137 0.017030368 -0.057487454 -0.012298179 0.061076555 -0.109014004 0.07446346 -0.06720327
-0.057794623 0.001891512 0.08090903 -0.02776896 -0.014503059 -0.059364602 0.026017204 -0.055418424
0.048455913 0.041339383 -0.014410076 0.03868042 0.0055955756 -0.023307372 0.018892633 0.01126
0.046506345 -0.02635617 -0.048284706 0.08424995 -0.10292912 0.09196895 -0.0429441 0.05054535
-0.011037359 0.041885506 0.021730991 -0.04713202 -0.029083854 -0.048318487 -0.048536237 -0.04785411
0.04155152 -0.049760666 -0.056456044 0.0802885 0.0916677 -0.065616794 -0.07196169 0.009229602
0.082094334 -0.074812144 -0.020260204 0.07875308 -0.072198845 -0.03064749 -0.07530121 -0.02585777
-0.03884874 0.03442783 0.05431498 0.08981394 0.08458532 -0.06251387 0.002140341 0.03904926
-0.09524528 -0.09413331 -0.06739714 -0.020455781 -0.054012295 -0.053579956 -0.09678421 0.024216363
-0.07542756 0.07462306 -0.056160886 0.046212874 -0.10014672 0.0396221 0.05195418 0.0408666
-0.036524016 0.0004584182 -0.029984184 0.012122477 0.063159555 0.10554544 -0.014344115 0.085636556
-0.0030424427 -0.026913514 -0.031341378 0.09774627 0.047388982 0.015063511 0.13919267 -0.06356345
0.07390779 -0.068511255 -0.109869175 -0.06816069 -0.005034434 0.028814826 -0.043528255 -0.011182113
0.08583807 -0.021027464 -0.014676653 -0.06473498 -0.019988878 0.025184723 -0.005236562 0.1094099
-0.0868808 -0.017014582 0.0040765507 0.0693291 0.09188311 0.08269812 -0.04268668 0.025831146
-0.045929022 0.08687706 0.079729214 0.02584229 -0.05582292 0.0821396 0.104390986 0.03133861
0.10522901 -0.060130008 -0.036542818 0.011078774 -0.062022746 0.05909292 -0.07062038 -0.047656868
0.06150772 0.07676143 -0.032170802 -0.052555095 -0.064777724 -0.06639842 0.09160628 -0.048016623
-0.038050607 0.021251203 -0.11107456 0.04475164 0.017088493 0.118775785 0.1298904 -0.036924016
0.03417788 0.08229 0.0769687 -0.09128179 0.07000399 -0.07517778 0.11775629 0.08381049
0.11003717 -0.13429575 0.09074322 -0.009724297 0.09999603 0.010323296 0.13184112 0.11358842
-0.03311597 -0.071922064 0.11923121 0.017356908 -0.11595132 -0.031229997 -0.024218816 0.05570793
-0.027705276 0.11253883 -0.1290026 -0.12905179 0.04216912 0.11155904 -0.09721582 -0.13833441
-0.011213524 0.08685211 -0.042707957 -0.10024688 0.03504148 0.090917975 0.062594995 -0.07322778
0.01764141 0.0865005 -0.105058864 -0.12736447 0.03791779 -0.005589949 -0.041880004 -0.024298018
0.016494125 -0.10288893 -0.1147656 -0.017995916 0.06560081 0.1315227 -0.008127255 -0.05259192
00000000: fc07 623c ab7a a83c 868b 6d3b 6fb0 6e39
00000010: 3cf1 8c3d f44c 9ebd a641 3dbd e207 90bb
00000020: e44e 1dbd 2a9f 2ebd 50db 0abd a60d 1e3d
00000030: 9b27 afbd 91c8 a7bd 593d 983d bb87 813d
00000040: 2fe4 bcbc 72eb 0c3c b842 91bd 3ce9 a43d
00000050: 4d18 afbc 95c2 213c 4482 eabb 4bb5 f2bc
00000060: fc2d 46bd 8e12 97bd 2575 25bd e0a6 31bc
00000070: fe2d d43c bb1a c1bd 3b57 f539 7d26 b93c
00000080: ed6b c6bc 2df0 5c3b 493e 1dbd 0fbf 68bd
00000090: f59b 0bbd 2216 68bc 5ea1 833d 6fa6 0ebd
000000a0: f2f9 d73c 5d9d 783d 3efa 903d f556 103d
000000b0: 8967 9abd fa0c 633d f7d6 c9bc 591e 383d
000000c0: d411 0bbc 4583 8b3c f777 6bbd 4d7e 49bc
000000d0: 692b 7a3d bc42 dfbd 4c80 983d dea1 89bd
000000e0: 0eba 6cbd 9cec f73a a2b3 a53d bb7b e3bc
000000f0: 3d9e 6dbc 4c28 73bd 0822 d53c 6efe 62bd
00000100: b579 463d 7c53 293d 3d18 6cbc 5c6f 1e3d
00000110: 175b b73b 1aef bebc b9c4 9a3c dd7b 383c
00000120: 707d 3e3d e5e8 d7bc 2fc6 45bd 3d8b ac3d
00000130: 81cc d2bd 385a bc3d 27e6 2fbd a408 4f3d
00000140: 0ad6 34bc 2390 2b3d 3105 b23c 810d 41bd
00000150: 4341 eebc 9be9 45bd efcd 46bd ac02 44bd
00000160: ed31 2a3d d7d1 4bbd 743e 67bd 4c6e a43d
00000170: 46bc bb3d 1962 86bd a760 93bd c237 173c
00000180: 1321 a83d 1c37 99bd baf8 a5bc 4b49 a13d
00000190: fddc 93bd 7210 fbbc 8537 9abd add3 d3bc
000001a0: db1f 1fbd 3204 0d3d 6279 5e3d 5ff0 b73d
000001b0: 113b ad3d 4607 80bd f744 0c3b 1ef2 1f3d
000001c0: f50f c3bd f7c8 c0bd 8307 8abd e292 a7bc
000001d0: ff3b 5dbd a876 5bbd cd36 c6bd 6561 c63c
000001e0: c479 9abd fad3 983d f508 66bd b649 3d3d
000001f0: b919 cdbd c84a 223d e8cd 543d bc63 273d
00000200: 359a 15bd d957 f039 64a1 f5bc 5b9d 463c
00000210: cc59 813d 3528 d83d 9403 6bbc 3862 af3d
00000220: b863 47bb bb79 dcbc d15f 00bd 322f c83d
00000230: f31a 423d f2cc 763c 8688 0e3e 8e2d 82bd
00000240: f85c 973d a14f 8cbd 1703 e1bd d597 8bbd
00000250: e5f7 a4bb 120d ec3c af4a 32bd 2e35 37bc
00000260: dfcb af3d ca41 acbc 5876 70bc c693 84bd
00000270: b7bf a3bc 3150 ce3c 7797 abbb 4c12 e03d
00000280: 90ee b1bd 2a62 8bbc 9694 853b 6afc 8d3d
00000290: 362d bc3d a25d a93d 3ad8 2ebd d79b d33c
000002a0: 1220 3cbd 9aec b13d 1249 a33d 36b3 d33c
000002b0: 93a6 64bd ce38 a83d f1ca d53d ea5c 003d
000002c0: 4f82 d73d e24a 76bd ecad 15bd bf83 353c
000002d0: 900b 7ebd 6b0b 723d 6ba1 90bd d933 43bd
000002e0: 85ef 7b3d 1935 9d3d 88c5 03bd 0344 57bd
000002f0: 2faa 84bd e5fb 87bd 139c bb3d 14ad 44bd
00000300: f4da 1bbd 0117 ae3c 0f7b e3bd 7f4d 373d
00000310: 2bfd 8b3c b840 f33d fd01 053e a33d 17bd
00000320: 1bfe 0b3d a987 a83d c4a1 9d3d f2f1 babd
00000330: 405e 8f3d cff6 99bd 362a f13d d6a4 ab3d
00000340: 2b5b e13d d384 09be 95d7 b93d a852 1fbc
00000350: b8ca cc3d 0b23 293c 5c01 073e 0ca1 e83d
00000360: 9da4 07bd e04b 93bd 7e2f f43d 1330 8e3c
00000370: e377 edbd 0dd6 ffbc 8a66 c6bc 002e 643d
00000380: 2df6 e2bc c27a e63d 4219 04be 2726 04be
00000390: 87b9 2c3d 1179 e43d 1619 c7bd 89a7 0dbe
000003a0: eeb8 37bc 85df b13d 8aee 2ebd 3c4e cdbd
000003b0: a887 0f3d 3433 ba3d ce31 803d 72f8 95bd
000003c0: b884 903c 2d27 b13d 1a29 d7bd d56b 02be
000003d0: af4f 1b3d e42b b7bb 5e8a 2bbd a30c c7bc
000003e0: b01e 873c 6eb7 d2bd 3a0a ebbd 2c6c 93bc
000003f0: b859 863d e3ad 063e 2e28 05bc a06a 57bd

4.bias f4 [64]
0.039284382 0.103165194 0.084606245 -0.06286017 -0.00907183 -0.059905503 -0.059845477 0.055174027
0.07363188 0.11778957 -0.00021005723 0.012113151 -0.1220678 0.08250624 0.016687548 0.043931577
0.008433309 0.025420338 -0.043915387 0.015577538 0.0840435 -0.06845666 0.072064325 0.041519295
0.074079946 -0.08390673 0.03465752 0.031571846 0.005500362 -0.09379666 -0.09179178 -0.049143054
0.011163711 -0.07068383 -0.117357776 0.0144465165 0.11909614 0.091428034 -0.042647652 -0.06299409
0.041025974 0.11787386 -0.005247937 0.08050158 -0.042645477 -0.040244658 0.027625004 -0.064754635
-0.057325743 -0.028982697 0.020071764 -0.008446131 0.07096254 -0.014409886 0.12805466 0.016495181
0.07622434 -0.038173623 -0.040064573 0.02803197 0.005980767 0.062925324 0.06732344 0.08204612
00000000: a9e8 203d 4648 d33d 0a46 ad3d d5bc 80bd
00000010: 03a2 14bc 795f 75bd 8820 75bd 29fe 613d
00000020: 50cc 963d a83b f13d cf42 5cb9 3d76 463c
00000030: affe f9bd 08f9 a83d 53b4 883c 99f1 333d
00000040: dd2b 0a3c 503e d03c 9fe0 33bd ee38 7f3c
00000050: 001f ac3d 0133 8cbd 7696 933d 2310 2a3d
00000060: 3ab7 973d 4bd7 abbd 0bf5 0d3d 7b51 013d
00000070: 613c b43b 7718 c0bd 54fd bbbd 3a4a 49bd
00000080: ffe7 363c afc2 90bd 4659 f0bd 15b1 6c3c
00000090: ade8 f33d 9f3e bb3d 4eaf 2ebd 0c03 81bd
000000a0: da0a 283d da67 f13d e3f6 abbb 03de a43d
000000b0: 06ad 2ebd 95d7 24bd d54d e23c 149e 84bd
000000c0: 66ce 6abd 1f6d edbc 8a6d a43c a461 0abc
000000d0: cf54 913d 7117 6cbc c320 033e e720 873c
000000e0: 821b 9c3d f25b 1cbd c01a 24bd 4da3 e53c
000000f0: 4ffa c33b fede 803d dfe0 893d cc07 a83d

6.weight f4 [1, 64]
0.06368614 -0.07603981 -0.116166994 0.005128137 -0.106425405 0.15164211 0.11567312 0.15324664
0.060136985 -0.11470579 -0.13464539 -0.10315622 0.09673575 -0.13238761 0.10897454 -0.113903075
-0.07318288 0.0110334605 -0.12821177 0.022915749 -0.13298053 0.17309168 0.098819874 0.0900796
-0.05145222 0.07939521 0.11558021 0.13904113 -4.8031656e-05 0.06396254 0.16063812 0.08541899
0.109316796 0.16767624 0.16414346 -0.08878434 -0.12921923 -0.074098766 -0.16790585 0.10892468
0.09598247 -0.102205805 -0.090353936 0.09010349 0.08762804 -0.08066858 0.11933304 0.07200045
0.073469386 -0.15582958 0.040532734 -0.1359178 0.03526911 -0.09826596 -0.052871466 0.031697232
-0.06326283 0.13696536 -0.08819959 0.10234145 -0.11305025 0.0580896 0.08884597 -0.14750743
00000000: e16d 823d c3ba 9bbd f6e8 edbd ee09 a83b
00000010: 90f5 d9bd 1248 1b3e 07e6 ec3d b0ec 1c3e
00000020: 3352 763d dfea eabd 7be0 09be 9143 d3bd
00000030: 651d c63d 9e90 07be 0b2e df3d 0446 e9bd
00000040: e8e0 95bd b0c5 343c f249 03be cfb9 bb3c
00000050: 0c2c 08be f23e 313e 1362 ca3d a77b b83d
00000060: 90bf 52bd f599 a23d 51b5 ec3d cc60 0e3e
00000070: 9975 49b8 cbfe 823d 527e 243e 27f0 ae3d
00000080: 7ce1 df3d 52b3 2b3e 3915 283e 90d4 b5bd
00000090: 0c52 04be 18c1 97bd 83ef 2bbe e713 df3d
000000a0: 7592 c43d 4751 d1bd 7c0b b9bd 2e88 b83d
000000b0: 5476 b33d 9235 a5bd e264 f43d f974 933d
000000c0: 1e77 963d ca91 1fbe a705 263d 092e 0bbe
000000d0: 5876 103d aa3f c9bd c08f 58bd f5d4 013d
000000e0: f18f 81bd a640 0c3e fda1 b4bd 6598 d13d
000000f0: e486 e7bd 5cef 6d3d e0f4 b53d 300c 17be
