src/training/critic.pth (torch, 200436 bytes, 7 tensors)

0.weight f4 [256, 31]
0	0x3cba11c9	0.022713559
1	0xbd15fd31	-0.036618415
2	0xbd8facc1	-0.07015372
3	0x3b9724bb	0.004612533
4	0xbe2685ea	-0.16262022
5	0x3e091bf0	0.13389564
6	0xbd3178ea	-0.043328203
7	0xbd34062f	-0.04395121
8	0xbd84dacd	-0.064870454
9	0x3df96de2	0.121791616
10	0xbde51af7	-0.11186784
11	0xbc7bf26c	-0.015377622
12	0xbc88b338	-0.01668702
13	0xbdba8b8f	-0.0910865
14	0xbc824f65	-0.015906999
15	0x3d8fd192	0.07022394
16	0x3e2d8dcb	0.16948621
17	0xbdbb606f	-0.091492526
18	0xbe013454	-0.12617618
19	0xbde9f6eb	-0.11424049
20	0x3d60c0c0	0.05487132
21	0x3df046dd	0.11732266
22	0x3e2c87ce	0.1684868
23	0x3b5cc2dd	0.0033685484
24	0xbdc890d9	-0.097932525
25	0xbdadfa10	-0.08494961
26	0xbdd394f7	-0.10331147
27	0xbdb2b974	-0.087267786
28	0xbd06689b	-0.032814603
29	0xbe1cb4c8	-0.15303338
30	0x3e34742f	0.17622446
31	0xbe5afcab	-0.21385448
32	0xbe21de08	-0.15807354
33	0x3c5eee48	0.013606615
34	0x3da053c1	0.07828475
35	0x3c289c74	0.010291208
36	0xbd8e4af4	-0.0694789
37	0xbe1359c0	-0.14389706
38	0xbe04eff0	-0.12982154
39	0x3d11800d	0.03552251
40	0x3d8d149b	0.06888696
41	0x3dfe4762	0.12415959
42	0xbbb7d850	-0.0056105033
43	0xbd69ca83	-0.057077896
44	0x3dfb9cbd	0.12285755
45	0xbdc12979	-0.094317384
46	0xbe0693ef	-0.1314237
47	0x3d1479cf	0.03624898
48	0xbd0f7158	-0.035020202
49	0x3daaea71	0.083454974
50	0x3d1f930b	0.03895859
51	0x3df1f5a3	0.118144296
52	0xbdcb110f	-0.09915363
53	0x3de70195	0.112795986
54	0xbe0baa8f	-0.13639282
55	0xbdf94e77	-0.12173169
56	0xbdd180d1	-0.10229648
57	0xbe1186a9	-0.14211525
58	0xbd8b4412	-0.06800093
59	0x3d5ae3c7	0.05343988
60	0x3c48b39a	0.012249852
61	0x3e060218	0.13086736
62	0xbe0eb883	-0.13937573
63	0x3ccc4f8e	0.024940278
64	0xbd04e2bc	-0.032442793
65	0xbe2951d1	-0.16535117
66	0xbdba09df	-0.09083914
67	0x3e120ef6	0.1426352
68	0xbe21ee78	-0.15813625
69	0x3dbd0f3b	0.092314206
70	0x3e26fde3	0.16307788
71	0xbdc6e164	-0.097109586
72	0x3e23a230	0.15979838
73	0x3c3fe224	0.011711631
74	0x3ce03633	0.027369594
75	0x3d49878e	0.04920154
76	0x3e18a7e0	0.14907789
77	0x3e00f8a2	0.12594846
78	0xbe380028	-0.1796881
79	0xbd9b267e	-0.07575701
80	0xbe286528	-0.16444838
81	0xbe1b1c3b	-0.15147488
82	0x3df9926e	0.12186132
83	0xbda40762	-0.08009221
84	0xbe286608	-0.16445172
85	0xbbb352d4	-0.0054725204
86	0x3dc349c7	0.09535556
87	0x3daa72c3	0.0832267
88	0x3ddda7d1	0.10823024
89	0x3d0f995e	0.03505837
90	0x3e22f105	0.15912254
91	0x3e2b8d64	0.16753155
92	0x3ced8fee	0.028999295
93	0xbbd2e9cf	-0.0064365636
94	0x3df1a18c	0.11798391
95	0x3e57350f	0.21016334
96	0xbdc81eaa	-0.09771474
97	0xbd958798	-0.07301253
98	0xbcc034a0	-0.023462594
99	0xbe2b6858	-0.16739023
100	0x3d322bd3	0.043498825
101	0x3dc70d22	0.09719302
102	0x3d210611	0.039312426
103	0x3e18b057	0.14911018
104	0x3c502e48	0.012706347
105	0xbd91c8fd	-0.071184136
106	0x3e19290d	0.14957066
107	0x3bda30b6	0.006658639
108	0x3e440379	0.1914195
109	0xbc167822	-0.009183915
110	0x3d8107e2	0.06300332
111	0xbdd04a8d	-0.101704694
112	0xbda07138	-0.07834095
113	0x3cbc1925	0.022961209
114	0x3ddfa58d	0.10920248
115	0xbd98c7b3	-0.074599646
116	0xbe3f981b	-0.18710367
117	0x3d3b76d4	0.04576762
118	0x3b426e05	0.0029667628
119	0x3d550ef7	0.052016225
120	0xbda88aee	-0.08229624
121	0x3d220e67	0.039564516
122	0xbd39013f	-0.045167204
123	0xbe34c91b	-0.1765484
124	0xbcad17e8	-0.021129563
125	0x3da49072	0.08035363
126	0x3ccf1618	0.02527909
127	0xbde4ed9b	-0.11178132
128	0xbddd80c3	-0.10815575
129	0x3cf8a743	0.030353194
130	0xbe0600d4	-0.13086253
131	0xbdad19ea	-0.08452208
132	0x3e142e4c	0.14470786
133	0xbd71adbd	-0.05900358
134	0x3dd7e34d	0.10541401
135	0xbe0074d4	-0.12544566
136	0x3dbd69a4	0.09248665
137	0x3d9ee8d6	0.07759254
138	0xbdf32a0b	-0.118732534
139	0x3cf7921a	0.030221034
140	0xbd032faa	-0.032027878
141	0xbde6e1f0	-0.11273563
142	0x3cc7ebc9	0.024404423
143	0x3e17383d	0.14767547
144	0xbdb7ba60	-0.08971095
145	0x3e61e5a1	0.22060253
146	0x3dd813f4	0.10550681
147	0xbdf2be67	-0.118527226
148	0xbcf09ccf	-0.029371647
149	0x3e1a9c71	0.1509874
150	0xbe341636	-0.17586598
151	0xbc89785b	-0.016781023
152	0xbd55aed6	-0.05216869
153	0x3dff6f20	0.12472367
154	0x3d540560	0.05176294
155	0xbe2504ea	-0.16115156
156	0xbdda90b8	-0.10672134
157	0xbe35f117	-0.1776775
158	0x3dbff96c	0.09373745
159	0xbd76867a	-0.06018684
160	0x3d71d0bd	0.05903696
161	0xbda0cb1f	-0.07851242
162	0xbd41d5bc	-0.047322974
163	0xbd1d0fb3	-0.03834505
164	0xbdf7dc7d	-0.12102602
165	0xbde8705f	-0.11349558
166	0x3e211c5b	0.15733473
167	0x3d2108a6	0.03931489
168	0x3d9eb1b9	0.07748742
169	0x3e262640	0.16225529
170	0xbe12178c	-0.14266795
171	0xbe29a542	-0.16566947
172	0xbd86cda8	-0.065821946
173	0x3d69c307	0.05707076
174	0x3d37d899	0.044884298
175	0xbdf96c57	-0.12178867
176	0xbe2af675	-0.16695578
177	0x3d3a3578	0.045461148
178	0x3e3938a8	0.18088019
179	0xbe02f5bd	-0.12789054
180	0xbdbbf709	-0.091779776
181	0x3d86f27f	0.06589221
182	0x3db119b6	0.08647482
183	0x3dab8c3c	0.08376357
184	0x3c5e2764	0.013559196
185	0x3de22c88	0.1104365
186	0x3be5ae4f	0.0070093046
187	0xbd40cc09	-0.047069583
188	0x3dc09606	0.09403615
189	0x3e326ee5	0.17425115
190	0x3cd54fd3	0.02603904
191	0xbe006552	-0.1253865
192	0x3d1d9651	0.03847343
193	0x3d679e39	0.056547377
194	0xbd02c549	-0.031926427
195	0x3cd7cf38	0.026343927
196	0x3c858e4b	0.016303202
197	0xbdb9fdd6	-0.090816185
198	0xbe3b7938	-0.1830796
199	0x3e09b1b4	0.13446695
200	0x3d2268fd	0.039650906
201	0xbd5b11b3	-0.053483676
202	0x3d0537b5	0.03252383
203	0xbdac0fbe	-0.0840144
204	0xbe1c77a2	-0.15280011
205	0x3d9a22a3	0.07526138
206	0xbd4c98ab	-0.049950283
207	0xbd940a8a	-0.07228573
208	0x3dc38ced	0.09548364
209	0x3d81fa58	0.063465774
210	0xbddc14b4	-0.10746136
211	0xbe0757fb	-0.13217156
212	0x3da46d75	0.0802869
213	0xbd684b29	-0.056712303
214	0xbcec88c3	-0.028873807
215	0x3df0f803	0.117660545
216	0x3b61af13	0.0034436628
217	0xbc887258	-0.016656086
218	0x3e7a9c33	0.24473648
219	0xbe0da7b3	-0.13833503
220	0x3daff5a9	0.08591778
221	0xbdd2ea1d	-0.1029856
222	0xbb1b0147	-0.0023651884
223	0x3cf69016	0.030098002
224	0x3e26124f	0.16217922
225	0xbd1782de	-0.03699004
226	0xbda580c2	-0.08081199
227	0xbd03690a	-0.032082595
228	0x3cc284eb	0.02374502
229	0x3e299f81	0.16564752
230	0x3c914353	0.017732298
231	0x3d4aeb55	0.049540836
232	0x3e109b3e	0.1412172
233	0xbddbe62e	-0.10737263
234	0x3e3a9a26	0.18222865
235	0xbdde709f	-0.108613245
236	0x3e0f4466	0.13990936
237	0x3df4b710	0.11948979
238	0x3d8790e8	0.066194355
239	0xbe0e1576	-0.13875374
240	0xbe39a6d8	-0.18130052
241	0xbdf5a11c	-0.1199362
242	0xbe07215b	-0.13196318
243	0x3c2e6dd5	0.010646303
244	0xbdf28347	-0.118414454
245	0x3d90c635	0.07069055
246	0xbd9eb927	-0.07750159
247	0xbdaf1ec4	-0.0855079
248	0xbe1b509b	-0.15167467
249	0xbe8f8373	-0.28029975
250	0x3dfa5a9a	0.12224312
251	0xbd1dee86	-0.03855755
252	0xbe1783e2	-0.14796403
253	0xbc8f7ce1	-0.017515602
254	0x3e0c5aae	0.13706467
255	0xbd893973	-0.06700411

0.bias f4 [256]
0	0xbd69003e	-0.056884997
1	0xbdd01706	-0.10160641
2	0xbe38f4ba	-0.18062106
3	0x3defcd71	0.11709107
4	0xbd0f844b	-0.035038274
5	0xbdfa9d14	-0.122369915
6	0x3d9c4ea3	0.07632186
7	0x3e19cdc8	0.15019906
8	0x3cce43f3	0.025178885
9	0x3c14fec7	0.009093947
10	0xbd405421	-0.04695523
11	0xbd068b9b	-0.032847982
12	0x3e474ed9	0.19463672
13	0xbde1d182	-0.110262886
14	0x3dd45c06	0.103691146
15	0xbca8feb5	-0.020629266
16	0x3c25784c	0.010099482
17	0xbe1665f6	-0.14687333
18	0xbe1a4ad4	-0.15067607
19	0x3e5905ae	0.21193573
20	0xbd1370a0	-0.03599608
21	0x3dbc92a3	0.09207656
22	0x3e4fda86	0.20298204
23	0x3d756917	0.059914675
24	0xbdadfa50	-0.08495009
25	0xbdaf4dbe	-0.0855975
26	0xbdeba818	-0.11506671
27	0x3e0f12a5	0.13971956
28	0xbd939c13	-0.07207503
29	0x3ce6a88f	0.028156547
30	0xbdf8e1ea	-0.12152465
31	0xbdc9def1	-0.09856976
32	0xbda10bdc	-0.0786359
33	0xbc8a11fc	-0.016854279
34	0xbcad0206	-0.021119129
35	0x3e4824d7	0.19545303
36	0x3cc6c023	0.02426154
37	0xbe263bf4	-0.16233808
38	0x3e58dba1	0.21177532
39	0xbd070e2a	-0.032972492
40	0xbdd19404	-0.1023331
41	0xbe54c807	-0.2077943
42	0x3de6d6ab	0.112714134
43	0xbd11b442	-0.035572298
44	0xbe62e83d	-0.22158904
45	0x3db17004	0.086639434
46	0x3e413eac	0.18871564
47	0x3d7e3378	0.062060803
48	0xbd438375	-0.04773279
49	0x3df1ed28	0.11812812
50	0x3e60362b	0.21895663
51	0xbd1e98b2	-0.03871984
52	0xbe01a879	-0.12661923
53	0x3c6731a3	0.014110955
54	0xbe31be9a	-0.17357865
55	0x3bd862e4	0.0066035856
56	0x3e2aed07	0.16691981
57	0xbdde937c	-0.10867974
58	0xbd14aca5	-0.03629746
59	0x3e4319f3	0.19052868
60	0x3b305337	0.0026905069
61	0xbd22df26	-0.039763592
62	0xbe049bf4	-0.12950116
63	0xbdd0c628	-0.10194045
64	0x3bd31f17	0.006442915
65	0x3e418ce4	0.18901402
66	0x3c3dcfc9	0.011585184
67	0xbd93159d	-0.07181857
68	0xbe00cd83	-0.12578396
69	0xbd376fef	-0.044784483
70	0xbd74c599	-0.059758756
71	0x3de310b2	0.11087169
72	0xbd82e297	-0.06390875
73	0x3e36c707	0.1784936
74	0xbddce8b6	-0.107865736
75	0xbdd28a3c	-0.10280272
76	0xbd4b3f16	-0.04962071
77	0xbcad285e	-0.021137413
78	0xbe4e474b	-0.20144384
79	0xbe0292cb	-0.1275131
80	0x3da8ea30	0.08247793
81	0x3d1b0842	0.037849672
82	0xbe1ba04d	-0.15197869
83	0xbe503a65	-0.20334776
84	0xbe41d1e6	-0.18927726
85	0xbd737492	-0.059437342
86	0x3e054508	0.13014615
87	0xbd8ac81f	-0.06776451
88	0x3d035a12	0.03206832
89	0x3dae3f07	0.08508115
90	0xbcf5d410	-0.030008346
91	0x3d9d2785	0.076735534
92	0x3d0686ac	0.032843277
93	0xba455422	-0.00075274904
94	0xbd1eda93	-0.038782667
95	0x3d9e440f	0.07727825
96	0xbe23b5a1	-0.15987255
97	0xbdbd60a0	-0.092469454
98	0x3b9b3611	0.00473667
99	0xbdd29fbb	-0.102843724
100	0x3e4ac34f	0.19801067
101	0xbdc6d4bd	-0.09708545
102	0xbce097e9	-0.027416186
103	0xbdddd93c	-0.1083245
104	0x3e133602	0.14376071
105	0xbdf8dba5	-0.12151269
106	0xbda0ab92	-0.078452244
107	0xbb6a371d	-0.0035738416
108	0xbcb042c4	-0.021516211
109	0x3dcb216f	0.09918486
110	0x3d8626c8	0.06550366
111	0x3dba253b	0.090891324
112	0x3df7a639	0.12092251
113	0xbe498660	-0.19680166
114	0x3d11b902	0.035576828
115	0x3dfc2a67	0.12312775
116	0x3e3876fb	0.18014137
117	0xbde5ddad	-0.11223922
118	0x3d5229a0	0.051309228
119	0xbdbd9e96	-0.092587635
120	0xbd904e7a	-0.07046218
121	0x3e5e849e	0.21730277
122	0x3dcc2555	0.09968058
123	0x3d14d94d	0.036340047
124	0xbdece6e6	-0.11567478
125	0x3d8a2a16	0.067463085
126	0xbe49b3db	-0.19697516
127	0xbdf925ab	-0.12165388
128	0xbe1d765c	-0.15377182
129	0xbcb49292	-0.022042546
130	0xbe442a68	-0.19156802
131	0x3e4986c9	0.19680323
132	0xbe1f3b87	-0.15550052
133	0xbd9a9765	-0.075484075
134	0x3df8633b	0.12128302
135	0xbe5b078e	-0.213896
136	0x3e156b27	0.14591657
137	0x3db8ccfb	0.09023472
138	0x3d4dd5af	0.050252613
139	0x3e04f3bc	0.12983602
140	0xbe08aa37	-0.13346182
141	0xbdf806a2	-0.1211064
142	0x3e0913d6	0.13386473
143	0xbe620764	-0.22073132
144	0x3d2973c8	0.041370183
145	0x3ba5d172	0.005060368
146	0x3e025d3b	0.12730877
147	0xbdca93d7	-0.098914795
148	0x3e21052f	0.15724634
149	0x3c88cadf	0.016698299
150	0x3d698c71	0.0570187
151	0x3ac4eccc	0.0015024184
152	0xbe5a8826	-0.21340999
153	0x3de3022f	0.11084401
154	0x3e1083b7	0.14112745
155	0x3dd4c624	0.10389355
156	0x3db8e278	0.090275705
157	0x3d0662a1	0.032808904
158	0x3d3cd8e5	0.046105284
159	0xbe41124d	-0.18854637
160	0x3af39235	0.0018583002
161	0x3dc8eb9f	0.09810566
162	0x3e58c574	0.21169072
163	0xbc25aa49	-0.0101114
164	0x3e3b51fb	0.18292992
165	0x3e2686d8	0.16262376
166	0x3d382905	0.044960994
167	0x3e022f86	0.12713441
168	0x3d38d5f3	0.045125913
169	0xbd0d2ed6	-0.034468494
170	0x3cf01087	0.029304756
171	0x3d43dd6b	0.047818583
172	0x3dbef74f	0.09324514
173	0x3dab7088	0.08371073
174	0x3d8c2d51	0.06844581
175	0x3ccb14e3	0.024790233
176	0x3e21f0ad	0.15814467
177	0xbdb211e3	-0.08694818
178	0xbd302f6e	-0.043013982
179	0xbdb2dcaf	-0.08733498
180	0xbe24156d	-0.16023798
181	0xbe4fd4e4	-0.20296055
182	0xbe4d1839	-0.20028771
183	0x3e1923b3	0.14955024
184	0x3df9b490	0.12192643
185	0x3d20f7fd	0.039299
186	0xbdb53014	-0.08847061
187	0x3d9929a6	0.07478647
188	0x3e0d6f5f	0.13812016
189	0x3da5fd6a	0.081049755
190	0xbca4a8f5	-0.020100096
191	0xbde5b8b3	-0.11216869
192	0xbd899b0c	-0.06719026
193	0xbce60d8d	-0.028082633
194	0x3d5dc380	0.05414152
195	0xbde41cf7	-0.11138337
196	0x3e3f59eb	0.18686645
197	0x3dfa0155	0.12207285
198	0x3d8d5e9c	0.06902811
199	0xbd808f28	-0.06277305
200	0x3ca06478	0.019579157
201	0x3d6e01c1	0.05810714
202	0x3e224f13	0.15850477
203	0x3c15eacb	0.009150217
204	0x3e5f5bed	0.2181241
205	0x3e55a93b	0.20865338
206	0x3da4dfe4	0.08050516
207	0x3d9241f9	0.071414895
208	0x3dbf0d82	0.09328748
209	0x3c80ec86	0.015737783
210	0x3ca270a0	0.019829094
211	0xbddcdd6a	-0.10784419
212	0xbde23cf5	-0.11046783
213	0x3d66c086	0.05633595
214	0xbbb2af11	-0.0054529984
215	0x3c67bcf3	0.01414417
216	0x3dc2eb46	0.09517531
217	0xbe04f025	-0.12982233
218	0x3e00157c	0.12508196
219	0x3e0fe481	0.14052011
220	0x3dbc8051	0.09204162
221	0xbe2eb541	-0.1706133
222	0x3ce447ae	0.02786621
223	0x3e1a697a	0.15079299
224	0xbc156928	-0.0091193095
225	0xbce29790	-0.027660161
226	0xbe51c77d	-0.20486255
227	0x3e268b50	0.16264081
228	0x3e595590	0.21224046
229	0x3df3a6b7	0.11897033
230	0x3e05493d	0.1301622
231	0x3c3652ee	0.01112817
232	0x3dc0d9a2	0.0941651
233	0x3b8a999e	0.0042297384
234	0x3d9d7b08	0.07689482
235	0xbe1bae2d	-0.15203162
236	0x3e073907	0.13205348
237	0x3da5d41a	0.08097096
238	0x3dc0b8f4	0.09410277
239	0x3e5003a2	0.20313886
240	0xbd9846ec	-0.07435402
241	0x3d987a74	0.07445231
242	0xbe572af0	-0.21012473
243	0x3db2df68	0.087340176
244	0x3e5abd73	0.21361332
245	0xbdc0cc20	-0.09413934
246	0xbd98234c	-0.07428607
247	0xbc8ec6ae	-0.017428722
248	0x3d7c4531	0.061589424
249	0x3e291558	0.16512048
250	0xbe46262d	-0.193505
251	0x3e4a6ebf	0.19768809
252	0xbcfb18b6	-0.030651432
253	0x3da2eb7c	0.07955071
254	0x3e507678	0.20357692
255	0x3dfd092e	0.123552665

2.weight f4 [128, 256]
0	0xbd4feebe	-0.05076479
1	0x3cdedb73	0.02720425
2	0x3be5116c	0.0069906022
3	0x3bbf6f11	0.0058420976
4	0x3bcf8efb	0.0063341833
5	0xbd22a99b	-0.03971253
6	0xbd02246b	-0.031773012
7	0x3d531214	0.051530913
8	0x3b56085b	0.003265879
9	0x3d683ded	0.056699682
10	0xbc36f13f	-0.011165916
11	0xbb13d2e2	-0.0022556116
12	0x3d05f511	0.032704417
13	0x3d412110	0.04715067
14	0x3d48e5c9	0.049047265
15	0x3d056867	0.03257027
16	0x3d1c4772	0.038154073
17	0x3d411987	0.047143485
18	0x3d8594c3	0.06522515
19	0x3c2ee948	0.010675736
20	0x3d136299	0.035982702
21	0xbd44c8a1	-0.048042897
22	0xbd74c34a	-0.059756555
23	0x3c8d8f5d	0.017280275
24	0xbd83776a	-0.06419261
25	0x3d5ba1c6	0.053621076
26	0xbd0a3ebb	-0.03375123
27	0xbd15ac7b	-0.036541443
28	0x3d1dae8c	0.03849654
29	0x3c522003	0.012825015
30	0x3aeddb81	0.0018147082
31	0xbce839d3	-0.028347885
32	0xbd8cb897	-0.06871145
33	0x3d4141d9	0.047181938
34	0x3ceaf676	0.028681975
35	0x3ca27eb7	0.019835813
36	0x3bf413e3	0.0074486597
37	0x3ce72caa	0.02821954
38	0x3c4059a1	0.011740119
39	0xbd912401	-0.07086945
40	0x3be8e895	0.007107804
41	0x3d30c12c	0.043152973
42	0xbcc52e9d	-0.024070079
43	0xbd37ad54	-0.044843033
44	0xbd2c7fce	-0.04211407
45	0x3d753759	0.059867237
46	0xbcb73277	-0.02236293
47	0xbd3bb199	-0.045823667
48	0xbd69513f	-0.056962248
49	0x3c6453b3	0.013935971
50	0xbc8f4483	-0.017488724
51	0xbd996684	-0.074902564
52	0x3c89b61f	0.016810475
53	0x3be6bde8	0.0070416816
54	0x3d341e2e	0.043974094
55	0x3c2e8322	0.010651382
56	0xbcf96517	-0.030443711
57	0x3d1d467b	0.038397294
58	0x3d26fd3f	0.040768858
59	0xbc84dc73	-0.0162184
60	0x3cf87be5	0.030332515
61	0x3d01f638	0.031728953
62	0xbd925dbc	-0.07146785
63	0x3ca29cb5	0.019850114
64	0x3d5624c8	0.05228117
65	0xbd81e7c6	-0.063430354
66	0xbc7f82cb	-0.015595148
67	0xbd8141f9	-0.063114114
68	0xbc8b6e9c	-0.017020516
69	0xbd84913e	-0.06473015
70	0x3ce9f488	0.028558984
71	0x3c4689f7	0.012117854
72	0x3b86f1e4	0.004118191
73	0x3be2c7a5	0.006920772
74	0xbd0fd793	-0.035117697
75	0x3ca6148f	0.020273475
76	0x3d0b872b	0.034064453
77	0xbd8d80f6	-0.06909363
78	0x3d4aabef	0.049480375
79	0xba896a63	-0.0010483976
80	0xbd5cc448	-0.053898126
81	0xbd79dc16	-0.061000906
82	0xbd3c3f72	-0.045958944
83	0x3b4fc78f	0.003170464
84	0x3d7d3367	0.0618166
85	0x3d6b8a77	0.057505097
86	0x3c974a6a	0.0184681
87	0x3d8976e5	0.067121305
88	0xbcc20167	-0.02368231
89	0x3d13f0fa	0.036118485
90	0x3cd4597b	0.025921574
91	0x3c72b9b1	0.01481478
92	0x3b0c69e6	0.0021425425
93	0x3d5ca1ce	0.053865246
94	0xbd540fc5	-0.05177285
95	0xbcd897f4	-0.026439644
96	0x3d827b2b	0.06371149
97	0xbd65d436	-0.056110583
98	0x3c885b51	0.016645106
99	0x3c55b874	0.013044465
100	0xbd6b7b12	-0.057490416
101	0x3bc4ad36	0.0060020937
102	0xbd17fdfe	-0.03710746
103	0x3ca48e1c	0.020087294
104	0xbd5941f4	-0.053041413
105	0x3d7f5ebc	0.062346205
106	0x3d67d73a	0.05660174
107	0xbd13ef39	-0.036116812
108	0x3b027f44	0.0019912282
109	0x3d693fe0	0.05694568
110	0x3d5f92cf	0.054583367
111	0x3cd2f56b	0.02575179
112	0xbd083efd	-0.033263195
113	0xbd0dedcb	-0.034650605
114	0xbd15b40a	-0.03654865
115	0xbbaebecf	-0.0053328048
116	0xbd84f960	-0.06492877
117	0xbc2c3896	-0.010511538
118	0xbcb3c573	-0.021944737
119	0xbd03a710	-0.032141745
120	0xbc477e5c	-0.0121761225
121	0x3d099d9c	0.033597574
122	0xbd430839	-0.047615264
123	0xbd60e26b	-0.05490343
124	0xbc24ff8d	-0.010070694
125	0x3b7184e9	0.0036852902
126	0xbd2263e9	-0.039646063
127	0x3cb33cf8	0.021879658
128	0xbd346c7f	-0.044048782
129	0xbd01ac68	-0.03165856
130	0x3cbb598d	0.02286985
131	0x3d051849	0.032493863
132	0x3c19020a	0.009338865
133	0x3caa2d2c	0.020773493
134	0x3d83044a	0.063973024
135	0xbcdc60a7	-0.026901556
136	0x3d01b2ef	0.031664785
137	0x3c9166d8	0.017749235
138	0x3cb0ed90	0.021597654
139	0xbd3b984d	-0.045799542
140	0x3d0619bd	0.03273939
141	0xbcdec71d	-0.027194554
142	0x3d71222d	0.058870483
143	0xbcce9b94	-0.02522067
144	0xbd493a94	-0.04912813
145	0xbd7dbd57	-0.061948147
146	0x3d1b6dbd	0.03794645
147	0xbd0ebc52	-0.034847565
148	0xbd80cfc5	-0.06289629
149	0xbc9beb68	-0.019033149
150	0x3d479930	0.048730075
151	0x3d5673d8	0.05235657
152	0xbd599ba9	-0.053126965
153	0x3c4bcc1c	0.0124388
154	0x3d1c692c	0.038186237
155	0x3d84f14d	0.06491337
156	0xbd280ebc	-0.041029677
157	0x3ccfc387	0.02536179
158	0xbc162ce3	-0.009165975
159	0x3c42f064	0.011898134
160	0x3cdd00ba	0.026977886
161	0xbd1b75f2	-0.03795428
162	0xba19b70c	-0.0005863763
163	0x3d646c30	0.05576724
164	0x3d3d7578	0.046254605
165	0x3bcc9f02	0.006244541
166	0xbd5fedf4	-0.05467029
167	0x3d33ddde	0.04391276
168	0x3cd87004	0.0264206
169	0xbd9653bd	-0.073401906
170	0xbc9b8d22	-0.018988196
171	0xbd01877d	-0.031623352
172	0xbd830103	-0.06396677
173	0x3d807457	0.0627219
174	0xbd54f1e8	-0.051988512
175	0x3d4f8d5d	0.050671924
176	0x3d159862	0.036522277
177	0xbd87711c	-0.06613371
178	0x3d24e93c	0.040261492
179	0xbd1e125c	-0.038591728
180	0xbcf4ed8b	-0.029898426
181	0xbd49c1c3	-0.04925705
182	0x3aba0685	0.0014192617
183	0xbc0c58a3	-0.0085660545
184	0x3ce11e90	0.027480394
185	0xbc60aefa	-0.013713593
186	0x3b20f971	0.002456274
187	0xbcd178e3	-0.025570339
188	0xbc8b65aa	-0.01701625
189	0xbd7b560e	-0.061361365
190	0x3cbf20cf	0.023331074
191	0x3befb903	0.0073157563
192	0xbcd33105	-0.02578021
193	0xbd490d20	-0.049084783
194	0xbc94fa23	-0.01818568
195	0xbd461f0e	-0.04836946
196	0xbc1b0966	-0.00946269
197	0x3d06d8a5	0.032921452
198	0x3d212666	0.03934326
199	0x3beb6724	0.007183926
200	0x3ca67c94	0.020323075
201	0x3d4b4bd1	0.04963285
202	0x3c7e39b7	0.01551669
203	0xbcd35ef7	-0.025802119
204	0xbd2e4f76	-0.04255625
205	0x3d2f456e	0.042790823
206	0xbd1639e2	-0.036676295
207	0x3cb1ae25	0.021689484
208	0x3cfb86ae	0.030703869
209	0x3cfe5711	0.031047376
210	0xbd684542	-0.056706674
211	0xbd3c2060	-0.045929313
212	0xbd3a50b7	-0.045487132
213	0xbc8c816f	-0.017151562
214	0xbd848b14	-0.064718395
215	0xbd02b949	-0.031914983
216	0xbd099c1d	-0.033596147
217	0xbd414020	-0.047180295
218	0x3d670821	0.056404237
219	0x3c356623	0.011071715
220	0x3cde3430	0.027124494
221	0xbc492774	-0.012277473
222	0xbc935c56	-0.017988365
223	0xbc09f527	-0.008420265
224	0x3d04765b	0.032339435
225	0x3d3f46d6	0.046698414
226	0x3d018e80	0.03163004
227	0xbce8d0bd	-0.028419847
228	0x3bc4c0a2	0.006004409
229	0xbd7c2882	-0.06156207
230	0x3ca48417	0.020082517
231	0x3c72749f	0.014798312
232	0x3d2cc88b	0.04218344
233	0xbd310c2a	-0.04322449
234	0x3d0f7893	0.035027098
235	0xbd29efdd	-0.041488517
236	0xbcd308ca	-0.025761027
237	0xbd584c08	-0.052806884
238	0x3d43d630	0.047811687
239	0x3d5d4348	0.054019243
240	0xbd3b885a	-0.04578433
241	0xbd27dd76	-0.040982686
242	0x3c64b916	0.013960144
243	0xbcd7640f	-0.026292829
244	0xbcb46a0a	-0.02202322
245	0x3d2de54d	0.042455006
246	0x3d88dacf	0.066823594
247	0x3d0777c5	0.033073206
248	0x3d2d4c4b	0.042309087
249	0x3bf94a23	0.0076077147
250	0xbd5b0c55	-0.053478558
251	0x3c34e4dc	0.011040892
252	0xbc062920	-0.008188516
253	0xbd1e7f3a	-0.03869555
254	0x3c325e52	0.0108867455
255	0xbd5a74d0	-0.053334057

2.bias f4 [128]
0	0x3cd35752	0.025798474
1	0x3d58595e	0.052819602
2	0xbdb69137	-0.08914416
3	0xbd19bda3	-0.037534367
4	0xbb8a78b7	-0.004225816
5	0x3c66528b	0.014057766
6	0xbc5daf93	-0.01353063
7	0x3db481e3	0.088138364
8	0x3c3ad9a8	0.011404432
9	0x3c189317	0.009312413
10	0xbd92af7d	-0.07162378
11	0x3d3a6514	0.04550655
12	0x3d58f50a	0.052968062
13	0xbd1f66e2	-0.038916476
14	0x3d33a98d	0.043862868
15	0x3d2587d8	0.040412754
16	0xbd74791e	-0.05968582
17	0x3d4ecfa7	0.050491
18	0x3ce24d46	0.027624737
19	0x3d120cda	0.035656787
20	0x3c288e82	0.010287883
21	0xbc8bc572	-0.017061923
22	0xbc1b7f94	-0.009490866
23	0x3d3aec95	0.04563578
24	0x3dad143d	0.08451126
25	0x3d81cb14	0.06337562
26	0xbc1b8de6	-0.00949428
27	0x3d25fa53	0.04052193
28	0x3c96b689	0.018397586
29	0x3cc78354	0.024354614
30	0x3d52b7ff	0.051445004
31	0xbd3f21af	-0.046662983
32	0x3da692f8	0.08133501
33	0xbc7103be	-0.014710365
34	0x3d89151a	0.06693478
35	0xba832436	-0.0010005299
36	0x3dbe5922	0.092943445
37	0x3b26d2a4	0.0025455141
38	0xbc619e70	-0.013770685
39	0x3dafa921	0.08577181
40	0xbaad85dc	-0.0013238746
41	0xbda1abb7	-0.0789408
42	0x3d3b3c66	0.045711897
43	0xbd887009	-0.06661994
44	0xbdb0d1d0	-0.086337686
45	0x3c924a99	0.017857837
46	0x3d8414ec	0.06449303
47	0xbc668889	-0.014070638
48	0x3cceb3b2	0.02523217
49	0x3d09d25a	0.033647873
50	0x3daa3a9c	0.0831196
51	0x3d08f1dc	0.03343378
52	0xbdcfeb13	-0.10152259
53	0xbdad9aaf	-0.08476769
54	0x3d976b05	0.07393459
55	0x39b35df8	0.00034211553
56	0x3d30d4b9	0.043171618
57	0xbd160791	-0.03662831
58	0x3d3f23d7	0.04666504
59	0xbca0930c	-0.019601367
60	0x3d2edbf3	0.04269023
61	0x3c195c76	0.009360423
62	0x3d2e7868	0.042595297
63	0x3dc55b0c	0.096365064
64	0x3cd4a965	0.02595968
65	0x3c95fdf6	0.018309575
66	0xbdaa4ba4	-0.083152086
67	0xbd6ce5b6	-0.057836257
68	0xbd895652	-0.067059174
69	0xbd7f283e	-0.062294237
70	0xbc9eb1fb	-0.019371977
71	0xbd4aac51	-0.04948074
72	0xbd531356	-0.051532112
73	0xbd579188	-0.052629024
74	0xbd835fd1	-0.0641476
75	0xbbd9f1f1	-0.006651156
76	0x3d867138	0.065645635
77	0xbd6c9637	-0.057760444
78	0x3ce392a0	0.027779877
79	0x3cfd05ed	0.030886615
80	0xbd82b5e1	-0.06382347
81	0x3c9d1f20	0.01917988
82	0xbda1ac29	-0.07894165
83	0x3b0ebf80	0.0021781623
84	0xbcedcbf8	-0.029027924
85	0xbd9a77a5	-0.07542352
86	0x3db466f0	0.08808696
87	0x3c9317a3	0.017955607
88	0x3cb039e3	0.021511978
89	0x3d0e4acc	0.0347393
90	0xbc98ff7f	-0.018676518
91	0x3d51bb87	0.05120423
92	0x3d8a7c3f	0.06761979
93	0xb9a05346	-0.00030579622
94	0x3b5358d9	0.0032249002
95	0x3d0c88fe	0.034310333
96	0xbd362e08	-0.044477493
97	0xbd0c938f	-0.03432041
98	0xbda53a6c	-0.08067784
99	0x3cc940ae	0.024566974
100	0x3cd331f9	0.025780665
101	0xbdc61862	-0.096726194
102	0xbc683eeb	-0.014175157
103	0x3db8c3e9	0.09021742
104	0x3db97a49	0.09056527
105	0x3d632113	0.055451464
106	0x3dcfecce	0.10152589
107	0xb89d1cc1	-7.491699e-05
108	0xbd7c4995	-0.06159361
109	0xbd6ea376	-0.058261357
110	0x3c5b60b6	0.013389757
111	0xbb25336e	-0.0025207656
112	0x3d19683f	0.037452932
113	0x3d2a0307	0.041506793
114	0x3ce6c0bb	0.028168073
115	0xbd888356	-0.06665675
116	0x3c6022d8	0.013680182
117	0x3db7eb79	0.0898046
118	0xbce82ba0	-0.028341115
119	0xbcc95f29	-0.024581509
120	0xba5854a9	-0.00082523614
121	0xbc465759	-0.012105786
122	0xbc1af67e	-0.009458182
123	0xbcd1a2d3	-0.025590336
124	0x3b99460a	0.0046775388
125	0x3d967cbe	0.073480114
126	0x3cd25da2	0.025679413
127	0x3d012942	0.031533487

4.weight f4 [64, 128]
0	0x3ce2df14	0.027694263
1	0xbd820806	-0.063491866
2	0x3d00ed97	0.031476583
3	0x3be768b9	0.0070620445
4	0xbd00cc8b	-0.031445067
5	0xbd067df4	-0.032834962
6	0x3d70dc26	0.0588037
7	0x3d064a50	0.032785714
8	0xbd874f17	-0.06606882
9	0x3d8c6e66	0.06856994
10	0xbd2f57ac	-0.04280822
11	0xbc537fde	-0.012908904
12	0x3cae6a7e	0.021291014
13	0x3d7fd82b	0.062462013
14	0x3d9e7cc3	0.0773864
15	0x3ca36261	0.019944372
16	0x3d33319d	0.043748487
17	0xbd279ec2	-0.040922888
18	0x3db335e2	0.08750512
19	0x3e060d8c	0.13091105
20	0xbcd56af8	-0.026051983
21	0xbd59a40b	-0.05313496
22	0x3d019fe5	0.031646628
23	0x3b48a82d	0.0030617819
24	0x3b646221	0.0034848528
25	0x3d7148a9	0.058907185
26	0xbdfb2948	-0.12263733
27	0xbc3189a7	-0.0108360415
28	0xbd62290e	-0.055214934
29	0xbd97702c	-0.07394442
30	0xbd1902bf	-0.037356135
31	0xbdc059c3	-0.09392121
32	0x3d6667e6	0.05625143
33	0x3d656a36	0.056009494
34	0x3d76a80d	0.06021886
35	0x3d543eef	0.05181783
36	0xba4ea449	-0.0007882757
37	0xbcfdc99d	-0.030979926
38	0xbc9ad165	-0.018898675
39	0xbcede5f6	-0.029040318
40	0x3cb6d9dc	0.02232068
41	0xbdc24d2d	-0.09487376
42	0x3db3c989	0.08778674
43	0xbb62af47	-0.0034589337
44	0xbd13f854	-0.036125496
45	0xbb9464cf	-0.004528619
46	0x3d90c161	0.07068134
47	0x3e07e847	0.132722
48	0x3dd6044e	0.1045004
49	0x3d88e79b	0.066848
50	0x3db0c5d7	0.08631485
51	0x3def551c	0.11686155
52	0xbd62ca4e	-0.055368714
53	0xbddc7910	-0.10765278
54	0x3d1dc9e2	0.03852261
55	0x3bd39777	0.006457265
56	0x3df0b0dc	0.11752483
57	0xbdea8c58	-0.1145255
58	0xbd8182d8	-0.063237846
59	0xbe043618	-0.1291126
60	0xbc354c8f	-0.011065616
61	0x3df3ccb2	0.11904277
62	0xb9c1a8ab	-0.00036937496
63	0x3da4a115	0.080385365
64	0x3c3ad4e0	0.011403292
65	0xbd1a0717	-0.037604418
66	0xbdfa9058	-0.12234563
67	0x3d280eb4	0.041029647
68	0xbc01f75f	-0.007932513
69	0x3c498fb1	0.012302325
70	0xbc6b8a94	-0.014376301
71	0x3c046ec3	0.008083048
72	0xbd3cc33e	-0.046084635
73	0x3d3c6777	0.04599711
74	0xbd4f835f	-0.050662395
75	0x3de7f12b	0.11325296
76	0xbc862323	-0.016374176
77	0xbc97c03d	-0.018524284
78	0xbd17b2fd	-0.03703593
79	0xbb67e702	-0.0035385494
80	0x3d643a26	0.055719517
81	0x3d92a83c	0.071609944
82	0xbc200de2	-0.009768935
83	0x3ad7c7b6	0.0016462717
84	0xbdc406bc	-0.09571597
85	0xbd4be4d1	-0.049778763
86	0xbcd3f7a6	-0.025874924
87	0x3cb44e8b	0.022010108
88	0x3d846249	0.06464059
89	0xbb630b15	-0.0034644057
90	0xbdee0b05	-0.116231956
91	0x3d96196b	0.07329067
92	0x3d9b63f7	0.07587426
93	0xbd427f0a	-0.047484435
94	0x3d27aac4	0.04093434
95	0x3d403a24	0.046930447
96	0xbdced3b4	-0.10098973
97	0xbc9e53af	-0.019327013
98	0xbdbf224f	-0.09332716
99	0x3d4eb10d	0.050461818
100	0xbc607323	-0.013699326
101	0xbd8c84cd	-0.06861267
102	0xbb184e06	-0.0023239865
103	0x3dee9cc6	0.11650996
104	0x3dc00c6a	0.09377368
105	0x3dd57068	0.104218304
106	0x3dda19c6	0.10649447
107	0xbcb0619d	-0.02153092
108	0xbcf174d5	-0.029474655
109	0xbe007d9a	-0.12547913
110	0x3d6af342	0.057360895
111	0x3c501199	0.012699508
112	0xba7cca70	-0.00096432026
113	0xbbf4c210	-0.007469423
114	0xbd040c4f	-0.0322383
115	0xbd8033e3	-0.062598966
116	0xbdf3c0b4	-0.119019896
117	0x3ddfaa49	0.10921151
118	0x3ce95d95	0.028487006
119	0x3da53c88	0.08068186
120	0x3c86ccfa	0.016455162
121	0xbd4ced93	-0.050031256
122	0xbd0bb3e1	-0.034107093
123	0xbd6f4d2e	-0.058423214
124	0xbcb5431b	-0.022126725
125	0xbc9c63db	-0.019090584
126	0x3cf9372c	0.030421816
127	0x3d6429a7	0.055703785
128	0x3c907fae	0.017639007
129	0x3d1b4b60	0.03791368
130	0xbdfb180f	-0.12260448
131	0x3ce64850	0.028110653
132	0x3dab70ca	0.08371122
133	0xbd6605b1	-0.05615777
134	0xbd401948	-0.04689911
135	0x3dd8758c	0.10569295
136	0x3bd92064	0.0066261757
137	0x3dcc0bae	0.09963165
138	0x3d251296	0.040300928
139	0xbd5814bb	-0.052754145
140	0x3d5d55d9	0.05403695
141	0x3d296f57	0.041365948
142	0xbcaeafd8	-0.021324083
143	0xbd8eed43	-0.06978848
144	0xbc833920	-0.01601845
145	0xbcd99e96	-0.026564877
146	0xbd1b6578	-0.037938565
147	0x3d3d1851	0.046165768
148	0x3dfdc0a5	0.1239026
149	0xbcc9b350	-0.024621636
150	0x3bfebc4c	0.0077739116
151	0xbdc5448a	-0.096322134
152	0x3d94277e	0.07234095
153	0x3c54f987	0.012998945
154	0xbdd7a107	-0.105287604
155	0xbd4ec077	-0.050476518
156	0xbd67630a	-0.056490935
157	0xbd0ad66f	-0.033895906
158	0x3d47981f	0.04872906
159	0x3d05b40b	0.032642405
160	0x3df619ae	0.12016617
161	0x3cf00764	0.0293004
162	0x3dcbf9c9	0.09959752
163	0xbd3663e7	-0.044528868
164	0x3dfde261	0.12396694
165	0xbd0c9dc2	-0.034330137
166	0x3d8f16a1	0.06986738
167	0xbcb78205	-0.022400865
168	0xbbb059c5	-0.005381795
169	0x3ce607eb	0.028079947
170	0x3dbc0e79	0.09182448
171	0xbcbf5f56	-0.02336089
172	0x3d09d9e8	0.033655077
173	0x3d617834	0.055046275
174	0x3d79f13a	0.061021067
175	0x3d8c9bd4	0.06865659
176	0x3d385f63	0.045012843
177	0x3df5c5e5	0.12000636
178	0x3dda1044	0.10647634
179	0x3dd9eb84	0.10640624
180	0xbde3ed08	-0.111291945
181	0xbe02c9d2	-0.12772301
182	0x3b63d7fe	0.0034766193
183	0xbc5e3225	-0.01356176
184	0x3dd9cdd1	0.106349595
185	0x3d89d61b	0.067302905
186	0xbcb40824	-0.021976538
187	0xbd11ce87	-0.03559735
188	0xbbadd19b	-0.005304528
189	0xbd0df927	-0.03466144
190	0x3bf9a0ca	0.0076180445
191	0xbc5b86da	-0.01339885
192	0x3ce9ce21	0.028540673
193	0x3dfdf983	0.12401106
194	0xbddc6f81	-0.10763455
195	0xbdb42bf9	-0.087974496
196	0x3d18d978	0.03731677
197	0xbdc077a9	-0.09397823
198	0xbd34215c	-0.043977126
199	0xbca8de83	-0.020613914
200	0x3d287cc4	0.04113461
201	0xbdcc5943	-0.09977963
202	0xbda5cc39	-0.08095593
203	0x3dc77b66	0.09740333
204	0x3d689f9a	0.056792833
205	0x3d0b8068	0.034058005
206	0x3dc5411c	0.09631559
207	0x3e072187	0.13196383
208	0xbc77a565	-0.015115117
209	0x3dfd4edc	0.12368557
210	0xbcba896e	-0.02277061
211	0x3b8cc64f	0.004296101
212	0xbd95d13a	-0.073152974
213	0xbd52470c	-0.051337287
214	0x3c3a5649	0.011373111
215	0x3de02e93	0.10946383
216	0x3b915e8b	0.004436319
217	0xbdb8a67a	-0.09016128
218	0x3c54348d	0.012951982
219	0x3de2caf0	0.110738635
220	0x3dab9262	0.0837753
221	0x3d8cb306	0.068700835
222	0xbd3d0d0f	-0.04615503
223	0x3d0926c7	0.033484247
224	0xbb618388	-0.0034410674
225	0xbdb09d64	-0.0862377
226	0xbb0c51b3	-0.0021411001
227	0xbd66d1f9	-0.05635259
228	0x3dd7e6b3	0.10542049
229	0xbcc9baae	-0.024625149
230	0x3d6ce2a5	0.057833333
231	0x3d5dbf58	0.054137558
232	0x3bf08875	0.0073404857
233	0x3dac7709	0.08421142
234	0xbc272ebc	-0.010204013
235	0xbddd6c67	-0.10811692
236	0xbd854372	-0.06507005
237	0xbbca0e39	-0.0061662463
238	0x3da7068c	0.081555456
239	0xbca16b76	-0.019704562
240	0x3db77bb0	0.089591384
241	0x3da1c415	0.07898728
242	0xbd65dab2	-0.056116767
243	0xbde7530f	-0.11295139
244	0xbd52133d	-0.05128788
245	0x3de8f3d6	0.11374633
246	0xbde6f596	-0.112773106
247	0xbba49060	-0.0050220937
248	0xbdc83bb4	-0.097770125
249	0x3dc06dda	0.093959525
250	0xbc9e6a5a	-0.019337822
251	0xbdcc600b	-0.09979256
252	0xbe034baf	-0.1282184
253	0x3db65ee4	0.08904818
254	0xbd15890b	-0.036507647
255	0x3d4aa0ff	0.049469944

4.bias f4 [64]
0	0x3cecbe0d	0.028899217
1	0x3d66c0e1	0.056336287
2	0xbd6b08b3	-0.057381343
3	0x3d31c91b	0.04340468
4	0xbce7c9fd	-0.028294558
5	0x3d1a3fce	0.037658505
6	0xbdfb0153	-0.12256112
7	0x3dced836	0.10099833
8	0xbbf0246c	-0.0073285606
9	0xbd080d81	-0.033216003
10	0xbd0c4b9a	-0.034251787
11	0x3d55bf12	0.052184172
12	0x3d3920c4	0.045197263
13	0xbc3ae03f	-0.0114060035
14	0x3d088e4b	0.033338826
15	0x3dfb0fd2	0.12258877
16	0xbc76bbdb	-0.015059437
17	0xbd529499	-0.051411245
18	0x3a9a0baa	0.0011752744
19	0x3ca10b22	0.019658629
20	0x3d178f55	0.037001926
21	0xbd29bbac	-0.041438743
22	0x3d7a56f8	0.061118096
23	0x3cf761bb	0.030197969
24	0x3bbbdbb3	0.0057329773
25	0x3da86139	0.08221669
26	0x3da22e7b	0.07919022
27	0xb9110508	-0.00013830152
28	0x3db498c7	0.088182025
29	0xbc89349e	-0.016748723
30	0xbd47bc88	-0.04876378
31	0x3bf2b60a	0.0074069547
32	0x3d22bef7	0.0397329
33	0x3d7bc1d0	0.06146413
34	0xbc1e4aca	-0.009661386
35	0xbc4f17c6	-0.012639945
36	0x3d853a1f	0.06505226
37	0x3d8c7a90	0.068593144
38	0x3ce0d59a	0.027445603
39	0xbd25c347	-0.040469434
40	0xbd0472c4	-0.03233601
41	0x3d17ca87	0.03705838
42	0xbca436e7	-0.02004571
43	0xbde6bc32	-0.11266364
44	0x3d4b0fdf	0.049575683
45	0xbbdc1331	-0.006716155
46	0x3c0ea991	0.00870742
47	0xbca9467f	-0.020663498
48	0xbd1dc7ca	-0.03852061
49	0x3ca12839	0.0196725
50	0xbd86e478	-0.06586546
51	0xbce3aa69	-0.027791219
52	0x3d6cfe4a	0.057859696
53	0x3d35280d	0.04422765
54	0xbc676a76	-0.014124503
55	0xbd00e8d1	-0.03147203
56	0x3cb8c307	0.022553934
57	0xbc9eccaa	-0.0193847
58	0x3dd1b3bd	0.102393605
59	0xbc2533a2	-0.010083111
60	0xbdd72990	-0.10505974
61	0x3c266434	0.010155726
62	0x3d983567	0.07432061
63	0xbcf147dd	-0.029453212

6.weight f4 [1, 64]
0	0xbde5c32b	-0.11218866
1	0xbe1f3316	-0.15546831
2	0x3da853df	0.08219122
3	0xbde1eee0	-0.1103189
4	0x3dc0b7a5	0.094100274
5	0xbd5369b4	-0.05161448
6	0x3d878a13	0.066181324
7	0xbd74b366	-0.0597414
8	0x3daba3b4	0.08380833
9	0x3da21ec2	0.07916023
10	0xbd35b71f	-0.04436409
11	0xbdb561fb	-0.08856579
12	0xbe2af3e1	-0.16694595
13	0xbe29aab7	-0.16569029
14	0xbdd9af47	-0.106291346
15	0xbd8e2be9	-0.06941969
16	0xbdf90851	-0.12159789
17	0x3d82545c	0.063637465
18	0x3d50e916	0.051003538
19	0xbe0add78	-0.13561046
20	0xbdd9bb24	-0.10631397
21	0x3d42603f	0.04745507
22	0xbd8b533e	-0.068029866
23	0x3ddf28ee	0.108964786
24	0x3dddc80d	0.10829172
25	0xbdfd0db3	-0.123561285
26	0x3d3ef3dd	0.046619285
27	0x3d9f5c2b	0.077812515
28	0xbe26bfda	-0.16284123
29	0xbdcfd2be	-0.10147618
30	0x3d96d1b7	0.07364219
31	0xbe039831	-0.12851025
32	0xbd5927c0	-0.053016424
33	0x3d97936e	0.07401167
34	0x3e14f919	0.14548148
35	0xbd44d6f5	-0.04805656
36	0x3ca3232b	0.01991423
37	0x3d040dbd	0.032239664
38	0xbe04667a	-0.12929717
39	0xbde7e5a1	-0.11323095
40	0x3de2bbc1	0.110709675
41	0xbde00ec2	-0.10940315
42	0x3d8cc55c	0.06873581
43	0x3e16c864	0.1472488
44	0xbda04d55	-0.0782725
45	0x3d75462d	0.059881378
46	0xbdc8561e	-0.097820505
47	0x3dc5e643	0.096630596
48	0x3d48e860	0.049049735
49	0x3e196130	0.1497848
50	0x3de3dbdd	0.1112592
51	0x3d6ef1b5	0.05833598
52	0xbe277de0	-0.16356611
53	0x3dde1eb1	0.10845698
54	0xbdc95a43	-0.09831669
55	0xbd5db10f	-0.054123934
56	0xbd60f319	-0.054919336
57	0xbe28fc76	-0.16502556
58	0xbd0bb467	-0.034107592
59	0xbe203627	-0.15645657
60	0x3da8e44b	0.082466684
61	0x3d345cf7	0.04403397
62	0xbdbe5c10	-0.09294903
63	0x3da2444f	0.07923185
