src/training/critic.pth (torch, 200436 bytes, 7 tensors)

0.weight f4 [256, 31]
0	0x3e11a720	0.1422391
1	0x3e1e63b7	0.15467726
2	0x3d70f0ee	0.05882352
3	0x3d8e62c9	0.069524355
4	0x3df91a9d	0.12163279
5	0xbdb06327	-0.08612662
6	0xbd4aedf5	-0.04954334
7	0xbda0d1de	-0.07852529
8	0xbdc1ab87	-0.09456544
9	0xbe286fca	-0.16448894
10	0xbdec125e	-0.11526941
11	0x3e2edc4b	0.17076223
12	0x3e16adce	0.14714739
13	0x3e11c5e7	0.1423565
14	0x3bd1b407	0.0063996348
15	0x3de00341	0.10938121
16	0x3e4b1e40	0.19835758
17	0xbc85c03d	-0.016327018
18	0x3e129be8	0.14317286
19	0x3e13ed43	0.14445977
20	0x3d8b30e8	0.067964375
21	0x3bab3fd3	0.0052261143
22	0x3daaf635	0.083477415
23	0x3bf1d902	0.0073806057
24	0x3d5c8842	0.053840883
25	0xbd326968	-0.043557554
26	0xbe0f7f35	-0.1401337
27	0xbd4d84a8	-0.05017534
28	0x3d99534d	0.074865915
29	0xbd67ca3f	-0.05658936
30	0xbe05437a	-0.13014022
31	0x3da17b77	0.07884877
32	0x3e7560a5	0.23962648
33	0xbdae6741	-0.08515788
34	0x3e125cca	0.14293209
35	0x3dc0a83c	0.09407088
36	0xbd7bf238	-0.061510295
37	0x3e1c4625	0.15261133
38	0x3e07a54e	0.13246652
39	0x3de8e881	0.113724716
40	0x3dff0f04	0.12454036
41	0x3db51078	0.08841032
42	0xbdca5a5b	-0.09880515
43	0x3dbfceac	0.093655914
44	0x3d643d27	0.055722382
45	0x3e3351ae	0.17511627
46	0x3e5f52ff	0.21809004
47	0xbcba767d	-0.022761578
48	0x3dee7c17	0.11644762
49	0xbd082fad	-0.033248592
50	0x3de17297	0.110081844
51	0x3e45d220	0.19318438
52	0x3d26c596	0.040715776
53	0x3e11cd39	0.14238442
54	0xbe474952	-0.19461563
55	0xbd932107	-0.07184034
56	0xbd9e0d4b	-0.07717379
57	0x3d81a5dc	0.06330463
58	0x3dd3a4ea	0.10334189
59	0xbd366603	-0.04453088
60	0x3d5e6492	0.05429513
61	0xbe175177	-0.1477717
62	0x3e8402dd	0.25783435
63	0x3dea1116	0.1142904
64	0xbdd7f1b3	-0.10544147
65	0x3dd2e12b	0.10296854
66	0x3d28785a	0.0411304
67	0x3d4d25f6	0.05008503
68	0xbd732d0a	-0.059369124
69	0x3e2a39f7	0.16623674
70	0x3bd4baaa	0.0064919787
71	0xbe01a8aa	-0.12661996
72	0xbdeb66e7	-0.114942364
73	0xbe2109ca	-0.1572639
74	0xbe1d82ab	-0.15381877
75	0xbe36ed79	-0.17864026
76	0x3d48cbc2	0.049022444
77	0xbdf714d9	-0.12064523
78	0x3e524a24	0.20536095
79	0xbdaaec3a	-0.08345838
80	0xbe0f56be	-0.13997933
81	0xbe3016c5	-0.17196186
82	0xbda440c7	-0.08020168
83	0x3e2f6ba0	0.171309
84	0x3dd3a75f	0.10334658
85	0x3dfa1e3f	0.122128
86	0x3df13813	0.117782734
87	0xbda56c87	-0.080773406
88	0x3d0120e5	0.03152551
89	0xbe11b99c	-0.1423096
90	0xbda3c9d9	-0.07997484
91	0x3cd61c65	0.026136586
92	0xbde2b1c3	-0.110690616
93	0x3e105e2a	0.1409842
94	0x3cc17278	0.023614153
95	0xbbfda479	-0.007740554
96	0x3e157d73	0.14598636
97	0xbc833e8a	-0.016021032
98	0xbdc47a21	-0.09593607
99	0x3de12180	0.10992718
100	0xbd5f2f58	-0.05448851
101	0x3d6768bf	0.056496378
102	0xbe04d452	-0.12971619
103	0xbdb2fa30	-0.08739126
104	0xbd8aa2a6	-0.06769304
105	0x3e208ea1	0.15679409
106	0x3b9b2c06	0.0047354726
107	0x3e099a2e	0.13437721
108	0x3d14dca6	0.03634324
109	0x3e4650b5	0.19366725
110	0x3e538a28	0.20658171
111	0x3c40a52c	0.01175813
112	0xbc1198a3	-0.008886489
113	0x3d79943a	0.060932375
114	0x3ca6da73	0.020367837
115	0xbe108961	-0.14114906
116	0x3d590ac6	0.05298879
117	0x3e2f026e	0.1709077
118	0xbb5faf33	-0.0034131526
119	0xbca4ba06	-0.020108234
120	0x3e04c33d	0.12965102
121	0xbe21fe81	-0.15819742
122	0x3de7ea57	0.11323994
123	0x3d0fe68d	0.03513198
124	0x3e1ba8ba	0.15201083
125	0x3cf3b6a9	0.029750185
126	0x3da20f6b	0.07913097
127	0xbe0604b7	-0.13087736
128	0xbdeb8fe5	-0.11502055
129	0x3c5e8201	0.0135808
130	0xbcacd551	-0.021097811
131	0x3d29feae	0.041502647
132	0x3e2f1536	0.17097935
133	0x3c2cb121	0.010540278
134	0x3e0f318a	0.13983741
135	0x3d95a113	0.07306113
136	0x3dc893f7	0.09793847
137	0xbd3f6528	-0.04672733
138	0x3e28d8b6	0.16488919
139	0x3e5a6913	0.21329145
140	0x3c5370c8	0.012905307
141	0xbd88dd15	-0.06682793
142	0x3e17d5f3	0.14827709
143	0x3ce1624e	0.027512696
144	0xbd87773a	-0.066145375
145	0x3e59bd79	0.21263684
146	0xbcb3e267	-0.021958543
147	0xbe13d119	-0.14435233
148	0xbe1529c7	-0.14566718
149	0xbe05a309	-0.13050474
150	0x3d3ea37a	0.046542622
151	0x3d8497fd	0.06474302
152	0x3cf3f1c1	0.029778363
153	0x3e245815	0.16049226
154	0xbd9592dd	-0.073034026
155	0xbcbff6a3	-0.023433035
156	0xbe176574	-0.14784795
157	0xbe4c7129	-0.19965042
158	0x3d89098a	0.066912726
159	0xbcc180fc	-0.023621075
160	0xbded6825	-0.115921296
161	0xbd9e804c	-0.077393144
162	0x3d2d1b85	0.042262573
163	0xbc15d482	-0.009144904
164	0xbe31ae4c	-0.17351645
165	0xbd9848b3	-0.07435741
166	0x3e124f44	0.1428805
167	0x3cad9b4e	0.02119222
168	0xbe13fb95	-0.1445144
169	0xbe2d3720	-0.1691556
170	0xbdf5d243	-0.12002995
171	0xbe120229	-0.14258637
172	0xbde19029	-0.110138245
173	0xbe06ab52	-0.13151291
174	0x3d68ad0a	0.056805648
175	0xbe0f4517	-0.139912
176	0xbe44a887	-0.19204913
177	0xbd36f70b	-0.044669192
178	0xbce8a263	-0.028397745
179	0x3dfa42ff	0.1221981
180	0x3d5519c4	0.052026525
181	0xbd43c24e	-0.047792725
182	0x3e2367a3	0.15957503
183	0xbe055809	-0.13021864
184	0xbc6634b9	-0.014050656
185	0xbdcd43fd	-0.10022733
186	0x3e18812a	0.14893022
187	0x3e5a1175	0.21295722
188	0xbdee77c9	-0.11643941
189	0x3c66248f	0.014046802
190	0xbdd1bff0	-0.10241687
191	0x3cfe7010	0.031059295
192	0xbe1b391d	-0.15158506
193	0xbc9ad8c7	-0.018902196
194	0x3cf6fd54	0.030150093
195	0x3e07bd9a	0.13255921
196	0x3ddba8ba	0.107255414
197	0xbdc836e0	-0.097760916
198	0x3e538feb	0.20660369
199	0x3df99ab2	0.12187709
200	0xbd6d1c21	-0.057888154
201	0xbcfad5b6	-0.030619483
202	0xbd5a1b4f	-0.0532487
203	0xbcafa822	-0.021442477
204	0x3e0abef0	0.135494
205	0xbe373ce5	-0.17894323
206	0x3dd5bef4	0.10436812
207	0x3de4a5f6	0.11164467
208	0xbe2941b6	-0.16528973
209	0xbd9f00e1	-0.077638395
210	0x3d949d74	0.07256594
211	0x3e272e4a	0.16326252
212	0x3d80ae71	0.06283272
213	0x3e084ada	0.13309804
214	0x3d4f174f	0.05055934
215	0x3dceca51	0.100971825
216	0x3e107921	0.14108707
217	0xbeaee42f	-0.34158465
218	0xbcfe7657	-0.031062288
219	0xbd42fdb9	-0.04760525
220	0xbe0376e8	-0.12838328
221	0xbd52b7cd	-0.051444817
222	0xbe0b970c	-0.13631839
223	0x3b127d96	0.0022352687
224	0xbdd2a7e0	-0.10285926
225	0x3d7d0138	0.06176874
226	0x3d793e27	0.06085029
227	0x3e21ca85	0.15799911
228	0xbdab3488	-0.08359629
229	0xbe102e23	-0.140801
230	0xbc6e278f	-0.014535799
231	0xbc6221ef	-0.013802036
232	0x3dccb143	0.099947475
233	0x3da2059c	0.07911226
234	0x3dde0bda	0.10842104
235	0xbd98c9b6	-0.07460348
236	0xbdac887f	-0.08424472
237	0xbe0b09e7	-0.13577996
238	0xbd94fcb4	-0.07274762
239	0x3e375c99	0.17906417
240	0xbdd3a150	-0.10333502
241	0xbe0ab49d	-0.13545461
242	0xbd14b084	-0.03630115
243	0x3e052c13	0.13005094
244	0xbe218cdf	-0.15776394
245	0x3d324183	0.043519508
246	0xbbf3921d	-0.0074331895
247	0x3e02fcba	0.1279172
248	0x3e46b238	0.19403923
249	0x3e53406c	0.20630044
250	0x3e606b6e	0.21915981
251	0xbe31b7ed	-0.17355318
252	0x3d0b580a	0.034019507
253	0x3ac4cc02	0.0015014412
254	0xbe37a238	-0.17932975
255	0xbe09ec91	-0.13469149

0.bias f4 [256]
0	0x3e191d6a	0.14952627
1	0x3d0596bd	0.03261446
2	0xbe1fb1fb	-0.15595238
3	0x3ce0c193	0.027436053
4	0x3e2431d3	0.16034631
5	0xbe3674e2	-0.17818025
6	0x3e5500cd	0.20801087
7	0xbdbc9c2d	-0.09209476
8	0x3d3db761	0.046317462
9	0x3d7d6554	0.061864212
10	0x3ddd291e	0.10798858
11	0xbbd418dd	-0.0064726905
12	0xbe380ea1	-0.1797433
13	0x3d710853	0.05884583
14	0x3e220cf5	0.15825255
15	0xbb912939	-0.004429963
16	0xbe390493	-0.18068151
17	0xbe397e1f	-0.18114518
18	0x3dcbf5d7	0.099589996
19	0x3d9976ae	0.074933395
20	0x3e4fb05c	0.2028212
21	0x3ddf0dd1	0.10891307
22	0xbe2aec2c	-0.16691655
23	0xbaf8dd07	-0.001898677
24	0xbe1477f3	-0.14498882
25	0xbe56066f	-0.20900892
26	0xbe528057	-0.2055677
27	0x3e45bd7f	0.19310568
28	0xbe01ecc3	-0.12687974
29	0x3df50d83	0.11965468
30	0x3d6cc648	0.057806283
31	0x3d64c099	0.055847738
32	0xbd8cd027	-0.068756394
33	0xbda24f85	-0.079253234
34	0x3d80cea0	0.062894106
35	0x3e237e78	0.15966213
36	0xbd5d7300	-0.05406475
37	0x3e57bb6a	0.21067587
38	0xbe21f478	-0.15815914
39	0xbe4d2ab5	-0.20035823
40	0x3d9d9fe5	0.07696513
41	0xbd237b5d	-0.03991257
42	0x3e1518cc	0.1456024
43	0x3e657392	0.22407368
44	0xbe0b84b6	-0.13624844
45	0xbceeafb7	-0.029136522
46	0x3e29ff32	0.16601256
47	0xbe39460f	-0.18093131
48	0xbdbec399	-0.09314651
49	0x3e62db81	0.22154047
50	0xbdfe546b	-0.12418445
51	0xbc49343a	-0.012280518
52	0xbe52f507	-0.20601283
53	0xbdc2911a	-0.09500332
54	0xbc190c96	-0.00934138
55	0xbda782cd	-0.08179245
56	0x3e037b36	0.1283997
57	0xbe64b92f	-0.22336267
58	0xbd123ff1	-0.03570551
59	0x3d964496	0.073373005
60	0xbd007c81	-0.031368736
61	0x3dfc7962	0.123278394
62	0xbda240b8	-0.079225
63	0x3e407496	0.18794474
64	0xbd9b7c1a	-0.0759203
65	0xbd82bab5	-0.06383268
66	0xbe3d9269	-0.18512882
67	0x3df80957	0.121111564
68	0x3c7e60ce	0.01552601
69	0x3ccb325c	0.024804287
70	0xbe347701	-0.17623521
71	0x3e350ebd	0.17681403
72	0x3dfbcfb5	0.12295476
73	0x3db9d2ad	0.09073386
74	0xbdf56cd0	-0.11983645
75	0x3dc5f50a	0.09665878
76	0xbd655479	-0.055988763
77	0x3e63b9c4	0.22238833
78	0x3e1514a6	0.14558658
79	0x3e084d03	0.13310628
80	0xbe0ce1e5	-0.13758047
81	0xbcde5fa7	-0.02714522
82	0x3dafbbe7	0.085807614
83	0xbd82774c	-0.0637041
84	0x3ce24764	0.027621932
85	0xbdc90d6f	-0.098170154
86	0xbdfee4d3	-0.124459885
87	0x3dddcb6b	0.108298145
88	0xbe29e61b	-0.16591685
89	0x3e15ff40	0.14648151
90	0x3e03bbfe	0.12864682
91	0x3dfcb8cf	0.12339937
92	0x3e31500c	0.17315692
93	0xbe128b91	-0.14311053
94	0xbde08569	-0.10962946
95	0xbe1801a6	-0.14844379
96	0xbc6ee57c	-0.0145810805
97	0x3d148229	0.036256943
98	0x3d02d38d	0.03194003
99	0xbd6f073d	-0.058356512
100	0xbe2c5665	-0.16829832
101	0xbdb786ee	-0.08961283
102	0xbd2d6f9d	-0.04234277
103	0x3c7464d2	0.014916616
104	0x3de8b46b	0.11362537
105	0x3d899d47	0.067194514
106	0xbe19b160	-0.1500907
107	0xbe24675d	-0.16055055
108	0x3dfc3302	0.123144165
109	0xbdf03309	-0.11728484
110	0x3e01e8de	0.12686488
111	0x3cadc059	0.021209883
112	0xbba2430d	-0.0049518407
113	0xbe5b8a9c	-0.21439594
114	0xbe1bd9b8	-0.15219772
115	0xbd0308cb	-0.031990808
116	0xbe365d81	-0.17809106
117	0x3e2d4a79	0.1692294
118	0xbdd44605	-0.10364918
119	0x39ad4bde	0.00033053657
120	0x3c998686	0.018740904
121	0xbe1448d4	-0.14480907
122	0x3d1f3557	0.03886923
123	0xbd736058	-0.059418052
124	0x3d967ada	0.07347651
125	0xbda639a5	-0.081164636
126	0x3e3672ac	0.17817181
127	0xbd526626	-0.051366948
128	0x3db5e530	0.08881605
129	0x3db9cced	0.090722896
130	0x3ba8d6b8	0.0051525496
131	0x3b8b5903	0.0042525544
132	0xbe0a69cb	-0.1351692
133	0xbcb6ccb8	-0.022314414
134	0x3cc50c22	0.024053637
135	0xbe4c0611	-0.19924189
136	0xbda48d6f	-0.08034789
137	0x3d99cc6b	0.07509693
138	0xbdf21c41	-0.11821795
139	0xbe4ca79c	-0.19985813
140	0x3e0f7c48	0.14012253
141	0x3e1e7334	0.15473634
142	0xbc1130c9	-0.008861729
143	0x3d04e019	0.03244028
144	0xbdac4ff0	-0.08413684
145	0x3dcccb97	0.09999769
146	0x3e6841c3	0.22681336
147	0xbdce7dca	-0.10082586
148	0xbda07f17	-0.078367405
149	0xbcabb214	-0.020958938
150	0x3ab3972e	0.0013701671
151	0x3d948ae1	0.072530515
152	0xbe45021b	-0.19239084
153	0x3d6ce2f3	0.057833623
154	0xbe219c7b	-0.15782349
155	0x3e4d9584	0.20076567
156	0x3d396256	0.045259796
157	0xbb900c48	-0.0043959953
158	0xbdd4e039	-0.103943296
159	0xbd946bba	-0.0724711
160	0x3de8505f	0.113434546
161	0x3d8a5877	0.067551546
162	0x3e3ae319	0.18250693
163	0xbd3e2b4c	-0.04642801
164	0xbe0382b2	-0.12842825
165	0x3d8e572f	0.06950223
166	0xbdf4ff1c	-0.11962721
167	0xbe5fbe4c	-0.21849936
168	0xbe5d85cf	-0.21633075
169	0xbe241b9e	-0.1602616
170	0xbe321d58	-0.17394006
171	0x3e4cca69	0.19999088
172	0x3e58c788	0.21169865
173	0x3e59022c	0.21192235
174	0xbd6d7d26	-0.05798068
175	0xbe2512b9	-0.16120423
176	0x3e5f5949	0.21811403
177	0x3e0aa2d9	0.13538684
178	0xbd9575d1	-0.07297862
179	0xbe42279c	-0.18960422
180	0xbc330570	-0.010926589
181	0x3e075bf6	0.13218674
182	0x3e1bf2fe	0.15229413
183	0xbd92ecfe	-0.07174109
184	0xbd9bcd39	-0.076075025
185	0xbd654310	-0.05597216
186	0xbdd7899b	-0.10524293
187	0x3e597836	0.21237263
188	0x3d3fa285	0.04678585
189	0xbdbc3b46	-0.09190993
190	0xbdb7fcdb	-0.08983775
191	0xbdb8c7f2	-0.090225115
192	0x3d6299db	0.05532251
193	0x3dc9767a	0.09837051
194	0x3d3535e1	0.044240836
195	0xbe0cd980	-0.13754845
196	0xbdd81c9a	-0.1055233
197	0x3e36d9a8	0.17856467
198	0x3e5eb242	0.21747687
199	0xbdc93390	-0.09824288
200	0x3dea9fae	0.11456238
201	0x3c364807	0.011125571
202	0x3e456df7	0.1928023
203	0xbd8a4ebb	-0.06753298
204	0xbe523026	-0.2052618
205	0x3e3b6e87	0.18303882
206	0xbdae3b5b	-0.08507415
207	0x3d0f1035	0.034927566
208	0xbcfae615	-0.03062729
209	0xbe203202	-0.15644076
210	0x3d6b1fdc	0.05740343
211	0x3e246935	0.16055758
212	0x3e0b933b	0.13630383
213	0x3ddef915	0.108873524
214	0x3df80fe7	0.12112408
215	0x3e493715	0.19649918
216	0xbd8d2951	-0.06892646
217	0x3d09d260	0.033647895
218	0xbda9e2f5	-0.08295242
219	0xbe6ac5fa	-0.22927085
220	0x3dbf31f5	0.093357004
221	0x3da2bce6	0.07946186
222	0xbc811aba	-0.015759815
223	0xbd84786a	-0.0646828
224	0xbd3d036f	-0.046145853
225	0xbcc43386	-0.02395035
226	0x3e1e5d3c	0.15465254
227	0x3de9d7e5	0.11418132
228	0xbcb20196	-0.021729272
229	0x3d93b972	0.07213105
230	0xbd47d350	-0.048785508
231	0xbe040915	-0.1289409
232	0xbe032061	-0.1280532
233	0x3dfc6792	0.12324442
234	0xbe3d4ef7	-0.18487154
235	0x3d436db1	0.04771203
236	0xbdac9402	-0.08426668
237	0x3b85e9d9	0.0040867147
238	0x3d3ca137	0.046052184
239	0x3df01a9a	0.11723824
240	0x3d6b868d	0.057501364
241	0xbc641e1b	-0.013923193
242	0x3dc648cb	0.09681853
243	0xbdf6903f	-0.120392315
244	0x3d4799c3	0.048730623
245	0xbe4b580c	-0.19857806
246	0x3daf5062	0.08560254
247	0xbbf52a05	-0.0074818158
248	0x3d8386d0	0.06422198
249	0x3d89a7f5	0.067214884
250	0x3d4dfeef	0.05029195
251	0xbdd98952	-0.10621895
252	0x3d964f2a	0.07339318
253	0x3d3b19f0	0.045679033
254	0x3d5b5378	0.0535464
255	0xbda7de7c	-0.081967324

2.weight f4 [128, 256]
0	0x3d6e2441	0.058140043
1	0xbb5e486b	-0.0033917676
2	0xbd6f4bb4	-0.058421806
3	0x3d820115	0.06347863
4	0xbd751fa5	-0.05984463
5	0xbd52f0e7	-0.051499274
6	0x3cb4907c	0.022041552
7	0x3d18494c	0.037179276
8	0x3bc42539	0.0059858826
9	0x39cce08f	0.0003907722
10	0x3d799eef	0.060942587
11	0xbc94669d	-0.018115336
12	0x3c8ee141	0.017441394
13	0xbae7100b	-0.0017628683
14	0x3c7fdc4c	0.015616488
15	0xbcf365ff	-0.029711721
16	0x3c1b566e	0.009481056
17	0x3cca3118	0.024681613
18	0xbd2870f5	-0.04112335
19	0x3d13ee2d	0.036115814
20	0x3d15d078	0.036575764
21	0x3c021ecb	0.007941912
22	0x3c12c261	0.008957476
23	0xbd38d75d	-0.04512726
24	0xbd488517	-0.04895505
25	0x3c6cfe46	0.01446492
26	0xbc194001	-0.009353639
27	0x3bfad5ad	0.0076548667
28	0x3d074e90	0.033033907
29	0x3d542cfa	0.051800705
30	0xbd1293d7	-0.035785522
31	0xbc712d69	-0.014720299
32	0x3d089a92	0.033350535
33	0x3d2efa6c	0.04271929
34	0xbbbfcf80	-0.0058535933
35	0xbb96da58	-0.0046036653
36	0x3bb9f5f7	0.0056750732
37	0x3d019839	0.03163931
38	0x3cc78c40	0.024358869
39	0x3d7045fe	0.0586605
40	0xbd7108ae	-0.05884617
41	0x3cd13a0c	0.025540374
42	0xbbf22ef3	-0.0073908507
43	0x3d1416aa	0.036154427
44	0xbd4cd9e1	-0.050012473
45	0x3cd9f068	0.026603892
46	0xbbd97f89	-0.006637518
47	0x3c7ffc70	0.015624151
48	0xbc00868d	-0.007844579
49	0xbc7bd309	-0.015370139
50	0x3d308202	0.043092735
51	0xbc8246f1	-0.015902968
52	0x3d96fc59	0.0737235
53	0x3d59930d	0.053118754
54	0x3ce7415a	0.028229404
55	0xbc6b796c	-0.014372211
56	0x3d64d41e	0.055866353
57	0x3d7fa784	0.062415615
58	0x3c5c287b	0.013437386
59	0x3c45aee6	0.012065625
60	0xbcf65b8d	-0.030072952
61	0x3c9b41f4	0.018952347
62	0xbd3a9cb5	-0.045559604
63	0xbd61acb9	-0.05509636
64	0x3d1ae659	0.037817333
65	0x3d0cffce	0.03442364
66	0x3cd4cfa8	0.025977924
67	0xbb39905e	-0.002831481
68	0x3ccc1fa2	0.024917427
69	0x3d696369	0.05697957
70	0x3cc5fdf7	0.024168951
71	0x3cb0d667	0.02158661
72	0x3cf87b84	0.030332334
73	0xbcdaf281	-0.026726963
74	0x3d447151	0.04795963
75	0x3d8782b7	0.06616729
76	0x3bc44922	0.0059901634
77	0x3d1f9fa0	0.03897059
78	0xbd5e2690	-0.054235995
79	0xbd3a92cb	-0.04555015
80	0x3d2e4927	0.042550232
81	0xbbbd81c5	-0.005783292
82	0xbce71562	-0.028208438
83	0x3d1c7e38	0.03820631
84	0xbcf71f9d	-0.030166442
85	0x3c3dac93	0.011576789
86	0x3d175c4d	0.03695326
87	0xbc78ee1c	-0.015193488
88	0xbd750e7d	-0.05982827
89	0x3d6ed931	0.0583126
90	0xbcf5a9f2	-0.029988263
91	0x3c24fcb9	0.010070019
92	0x3d0eb5df	0.034841415
93	0xbd50ec1b	-0.051006418
94	0x3ce3f574	0.027827002
95	0xbd267156	-0.04063543
96	0xbd556cf3	-0.052105855
97	0xbc854e03	-0.01627255
98	0xbc9ce3a9	-0.019151526
99	0xbbb91ad3	-0.0056489496
100	0x3d6e6ea8	0.058211
101	0x3d370f1c	0.044692144
102	0xbd7b7616	-0.061391912
103	0xbd23bec7	-0.03997686
104	0xbd54ef5b	-0.05198608
105	0x3d60b2da	0.054858066
106	0x3c971ab0	0.018445343
107	0xbcc4fe06	-0.024046909
108	0x3c2659f9	0.010153287
109	0x3cb3214b	0.021866461
110	0xbd4a07d6	-0.04932388
111	0xbce5bd48	-0.028044358
112	0xbcf58bf1	-0.029973956
113	0xbd6b40b0	-0.057434738
114	0x3d6eaac0	0.05826831
115	0x3cb7f2f1	0.02245471
116	0x3c46e5b5	0.012139727
117	0x3cdfce61	0.027320089
118	0xbcd641ef	-0.026154486
119	0x3aa290d3	0.001240278
120	0x3d3e6aed	0.04648869
121	0xbd0beea4	-0.034163132
122	0xbd37f188	-0.044908077
123	0x3d3c38a3	0.04595245
124	0xbc9663bd	-0.018358106
125	0x3d3b3ee4	0.045714274
126	0xbbd5e32a	-0.006527324
127	0xbcc7a722	-0.024371687
128	0xbd62fbb1	-0.055415813
129	0x3ceda36d	0.029008592
130	0xbd3232be	-0.043505423
131	0x3d3732c3	0.044726145
132	0xbd021bd8	-0.031764835
133	0xbd51c3d6	-0.051212154
134	0x3be9739c	0.0071243774
135	0xbd511bd2	-0.051051922
136	0xbd2cc8af	-0.042183574
137	0x3c5cc8f8	0.013475649
138	0x3d714ce5	0.058911223
139	0xbc8342ad	-0.016023004
140	0xbd7ebc11	-0.062191073
141	0xbcb66cd5	-0.022268692
142	0xbd0ee2ff	-0.03488445
143	0xbcc1ed54	-0.023672737
144	0xbcd2d551	-0.025736483
145	0x3ca34804	0.0199318
146	0x3b236df7	0.002493737
147	0xbd5243f5	-0.05133434
148	0xbd84366b	-0.06455692
149	0xbd0bc6ff	-0.034125324
150	0x3ccee3c6	0.025255095
151	0x3c84b2b3	0.016198492
152	0x3c309151	0.010776834
153	0xbc8872ba	-0.016656268
154	0xbd6b3f02	-0.057433136
155	0x3d75085c	0.059822425
156	0x3b5de40d	0.0033857853
157	0xbd458818	-0.048225492
158	0xbb6fd697	-0.0036596411
159	0x3d1f3e58	0.038877815
160	0xbd4347dd	-0.047675956
161	0xbd2cdc99	-0.042202566
162	0x3d119171	0.035539094
163	0xbafdd7cc	-0.0019366681
164	0xbce149d9	-0.027501034
165	0xbd6d62fb	-0.057955723
166	0xbd757a41	-0.059931044
167	0xbcb4911f	-0.022041855
168	0xbce0937b	-0.027414074
169	0xbcb8b05a	-0.022545028
170	0x3d1784ea	0.03699199
171	0x3d6aabee	0.05729287
172	0xbb126a15	-0.0022341062
173	0x3d038046	0.032104753
174	0x3af6ad01	0.001881987
175	0x3d2c2cb1	0.04203481
176	0xbd11cc19	-0.035595033
177	0x3bfeb9d2	0.0077736164
178	0xbc8106d5	-0.015750328
179	0x3cd72acd	0.026265526
180	0x3d4419f3	0.04787631
181	0xbc5e3433	-0.01356225
182	0xbd03e1d1	-0.032197777
183	0x3d1f6ac6	0.038920186
184	0x3d068bb6	0.032848082
185	0x3c7b9615	0.015355607
186	0xbd52a008	-0.05142215
187	0xbb0de4f3	-0.0021651357
188	0x3d1469e2	0.03623379
189	0x3d690f78	0.056899518
190	0xbd0443c6	-0.032291196
191	0xbd3ae46d	-0.045628
192	0x3d6ea7ce	0.0582655
193	0x3d7f605e	0.062347762
194	0x3ba2ee24	0.004972236
195	0xbce6e746	-0.028186452
196	0xbcf5c1be	-0.02999961
197	0xbd5c12e5	-0.053728957
198	0x3d6c4d9b	0.057691198
199	0x3bbc6a1f	0.0057499553
200	0x3d17f31c	0.03709708
201	0xbca9dedf	-0.020736156
202	0x3d7e9c75	0.062160928
203	0x3d062d3d	0.032757986
204	0xbd063a40	-0.032770395
205	0xbd256f20	-0.04038918
206	0x3cf41728	0.029796198
207	0xbbd152bb	-0.006388036
208	0x3cf4e346	0.029893529
209	0xbcb981bf	-0.022644876
210	0xbd60767d	-0.0548005
211	0xbd36cefe	-0.044630997
212	0xbd1a9278	-0.03773734
213	0x3d299ee6	0.041411303
214	0x3d0f80a2	0.035034783
215	0x3d835279	0.06412215
216	0xbceedc8d	-0.029157901
217	0x3c2c6536	0.010522177
218	0x3cdaafe1	0.026695194
219	0x3c770da3	0.015078935
220	0x3d648cb5	0.05579825
221	0x3c99ccf9	0.018774496
222	0x3d3e65ef	0.04648393
223	0xbd57a4db	-0.052647453
224	0x3a600812	0.00085461244
225	0x3d82603f	0.06366014
226	0x3c5e9eee	0.0135876965
227	0x3d60fa61	0.05492628
228	0xbd4d86bd	-0.050177325
229	0x3c37b160	0.011211723
230	0xbd0e11f5	-0.034685094
231	0x3c2244ee	0.009904129
232	0x3d1f2c3f	0.038860556
233	0x3d0da35c	0.03457962
234	0xbd4aef15	-0.049544413
235	0x3cd0e2a2	0.025498692
236	0x3c3e0cb3	0.011599707
237	0xbc5d3ddc	-0.013503518
238	0xbd1a4bfb	-0.037670117
239	0x3cd4d78c	0.025981687
240	0xbd089db8	-0.033353537
241	0xbca446e7	-0.02005334
242	0xbb5dee07	-0.00338638
243	0xbcaf7077	-0.021415932
244	0x3d70d295	0.058794577
245	0xbc31eb5b	-0.010859336
246	0xbcbc17ff	-0.022960661
247	0x3c9a98bf	0.018871663
248	0xbd0325d7	-0.03201851
249	0xbd16aefa	-0.036787964
250	0xbb28f9ea	-0.0025783726
251	0x3c98da34	0.018658735
252	0xbd04bbd5	-0.032405693
253	0x3cb6c773	0.022311902
254	0xbcadc840	-0.02121365
255	0x3caebfb3	0.021331644

2.bias f4 [128]
0	0x3d0d27c4	0.03446175
1	0x3de018d4	0.109422356
2	0xbd4d74b5	-0.05016013
3	0x3d15a296	0.036532007
4	0xbd0da438	-0.03458044
5	0xb95aa093	-0.00020849919
6	0xbde4172f	-0.111372344
7	0x3b8b4678	0.004250344
8	0x3db8fc13	0.09032454
9	0x3dc95ec7	0.098325305
10	0x3da79b01	0.081838615
11	0x3dabd448	0.08390099
12	0xbd378ad1	-0.04481012
13	0x3ddebc7c	0.10875794
14	0xbbd5c209	-0.006523375
15	0x3cd504fd	0.026003355
16	0xbc0beb80	-0.008540034
17	0xbcf3b9af	-0.029751627
18	0xbd9d74ae	-0.076882705
19	0xbd61bbd1	-0.055110756
20	0xb9b196bb	-0.00033872374
21	0xbc8b6794	-0.017017163
22	0xbd271b39	-0.040797446
23	0x3d597bed	0.0530967
24	0x3d99e1b8	0.075137556
25	0xbd5cf9c6	-0.05394914
26	0xbd83b967	-0.06431847
27	0xbd0f5748	-0.034995347
28	0x3cf8ab68	0.03035517
29	0x3ce13d56	0.027495068
30	0xbd386a31	-0.045023147
31	0x3b9a62ee	0.0047115004
32	0xbdafa3ad	-0.085761406
33	0xbc43586d	-0.011922938
34	0xbc044c50	-0.008074835
35	0x3d438490	0.047733843
36	0x3dd34f8d	0.103179075
37	0x3dc1aac7	0.09456401
38	0xbcc7c4cc	-0.024385832
39	0x3cda9da6	0.0266865
40	0xbd88fbe9	-0.06688673
41	0x3d126b1b	0.035746675
42	0x3d9f56fd	0.077802636
43	0xbd392415	-0.045200426
44	0x3c88b7c0	0.016689181
45	0x3ccb570f	0.024821786
46	0x3d87434c	0.06604633
47	0xbcb21e13	-0.021742856
48	0x3dd2ef1c	0.10299513
49	0x3bd17114	0.006391654
50	0x3c35fc14	0.011107463
51	0xbcb26aa4	-0.021779366
52	0xbd9cf9d3	-0.07664838
53	0x3d84cca0	0.064843416
54	0xbd0cb124	-0.034348622
55	0xbd680fa1	-0.05665553
56	0x3d8c6db3	0.06856861
57	0x3c8c9bbd	0.017164106
58	0x3d2b739c	0.0418583
59	0xbd138501	-0.036015514
60	0xbdb3a5e0	-0.087718725
61	0xbc14e4b9	-0.009087735
62	0x3cc43046	0.0239488
63	0xbddcca1d	-0.107807375
64	0xbd335bde	-0.043788783
65	0x3cd0e2e6	0.025498819
66	0xbdd47ed0	-0.1037575
67	0xbd40e85c	-0.047096595
68	0xbd77ecf5	-0.060528714
69	0x3de19def	0.110164516
70	0x3dd98817	0.1062166
71	0x3ba247ec	0.0049524214
72	0x3d6351f4	0.05549808
73	0x3cc5278a	0.024066705
74	0x3ca58f3b	0.0202099
75	0xbcca6146	-0.024704587
76	0xbb1d0f8f	-0.0023965572
77	0xbda5d3d9	-0.08097047
78	0x3d9ddb2f	0.077078216
79	0xbd1c5e58	-0.03817591
80	0x3dafd66e	0.08585821
81	0xbc90083d	-0.017582053
82	0x3c1873b4	0.0093049295
83	0x3d22aa75	0.03971334
84	0x3c8889e9	0.016667323
85	0x3db45334	0.08804932
86	0x3dc4132f	0.095739715
87	0x3d8229df	0.063556425
88	0xbdad6f66	-0.08468513
89	0xbdc93c35	-0.09825937
90	0x3c493315	0.012280245
91	0xbc9b9774	-0.018993117
92	0xbd6335d3	-0.055471253
93	0x3b268602	0.0025409465
94	0x3d9710c1	0.073762424
95	0xbd1724d0	-0.03690034
96	0xbda9464e	-0.08265363
97	0xbc2cfaf2	-0.010557877
98	0xbbdbfb92	-0.006713339
99	0xbd9e499a	-0.07728882
100	0x3db2410a	0.087038115
101	0x3daea7a1	0.085280664
102	0xbdb58ee6	-0.08865146
103	0xbdcfb382	-0.1014166
104	0xb9b9b9b4	-0.0003542431
105	0x3dcc74b4	0.09983197
106	0xbd851486	-0.06498055
107	0xbddca18d	-0.10773001
108	0xbde0f3ec	-0.109840244
109	0x3c51ee2c	0.012813132
110	0x3d6d6c26	0.057964467
111	0x3c47ace6	0.012187218
112	0x3dda1fd4	0.10650602
113	0x3dacb2d8	0.08432549
114	0xbd0ab07f	-0.033859726
115	0xbdd0b6c6	-0.10191111
116	0x3d2897ca	0.041160382
117	0xbd86372c	-0.06553492
118	0xbb5a6b5d	-0.0033328154
119	0x3b0bf7bd	0.002135738
120	0xbdada193	-0.084780835
121	0x3bbcb611	0.0057590087
122	0xbd3995f1	-0.04530901
123	0xbb9533a7	-0.0045532766
124	0x3b6da0e1	0.0036259221
125	0xbbb9a61b	-0.0056655533
126	0x3d3c4c4b	0.045971196
127	0xbd20fb5b	-0.03930221

4.weight f4 [64, 128]
0	0xba09f301	-0.00052623457
1	0x3c7f79ce	0.015593005
2	0xbbb26776	-0.0054444624
3	0xbbaa242a	-0.0051922994
4	0x3d8ac550	0.067759156
5	0xbda8633e	-0.08222054
6	0xbd282810	-0.04105383
7	0xbc1d1291	-0.009586946
8	0xbd32be4b	-0.04363851
9	0xbd44a96d	-0.04801314
10	0xbd209557	-0.03920492
11	0x3d09fa62	0.03368605
12	0xbdb2278f	-0.086989515
13	0xbdb2d584	-0.08732131
14	0x3d8d9d5b	0.06914779
15	0x3d779858	0.06044802
16	0xbce88331	-0.02838287
17	0x3b9f7b43	0.004866989
18	0xbd86ad51	-0.06576026
19	0x3daee47e	0.08539675
20	0xbc839c9f	-0.016065894
21	0x3c41fa6c	0.01183949
22	0xbade52b5	-0.0016961904
23	0xbd1272df	-0.03575408
24	0xbd5d0482	-0.053959377
25	0xbd8c315c	-0.06845352
26	0xbd10fa9e	-0.035395257
27	0xbc27bb71	-0.010237561
28	0x3c9fbd02	0.019499306
29	0xbdc45808	-0.09587103
30	0xbbc44e68	-0.005990792
31	0x3c8e44a7	0.01736672
32	0xbc9a8fe9	-0.01886745
33	0xbaa77e28	-0.0012778686
34	0xbd34aad0	-0.044108212
35	0xbd7db5a4	-0.061940804
36	0xbd21feae	-0.039549522
37	0xbca2a82d	-0.019855583
38	0x3d77352d	0.060353447
39	0xbd2b4916	-0.041817747
40	0x3cf64410	0.030061752
41	0x3d635284	0.055498615
42	0x3d85b63c	0.06528899
43	0x3d2656cd	0.040610123
44	0xbda7ebd9	-0.08199281
45	0x3d4e087f	0.05030107
46	0xbcf4ea17	-0.029896779
47	0x3d371cc3	0.044705164
48	0xbc6a76e4	-0.014310572
49	0x3c185639	0.009297901
50	0xbd6053b4	-0.054767326
51	0xbbddb560	-0.0067660064
52	0x3d8348d6	0.06410377
53	0xbde997f0	-0.11405933
54	0x3da3d574	0.07999697
55	0xbd7c316a	-0.061570562
56	0xbd81fcc2	-0.06347038
57	0xbb80b957	-0.003928344
58	0x3da99f12	0.082822934
59	0xbcb6b86b	-0.022304734
60	0xbc1c32a8	-0.009533562
61	0xbd5cf701	-0.0539465
62	0x3cb0452b	0.021517357
63	0xbd4de91c	-0.05027114
64	0x3cfefc4c	0.031126164
65	0x3d12062d	0.03565042
66	0xbc0d263e	-0.008615075
67	0x3d2a15c5	0.041524667
68	0x3c320491	0.0108653465
69	0xbcead643	-0.028666621
70	0x3c5e897b	0.013582583
71	0x3c09fabf	0.008421599
72	0x3d3bd747	0.0458596
73	0xbcd86a93	-0.026418006
74	0xbd5c83cd	-0.053836633
75	0x3db29766	0.08720283
76	0xbddd7849	-0.10813958
77	0x3dc7e099	0.097596355
78	0xbd438235	-0.047731597
79	0x3d59140b	0.05299763
80	0xbc8403f9	-0.016115176
81	0x3d412d90	0.047162592
82	0x3c8af39b	0.016961863
83	0xbd580f94	-0.05274923
84	0xbd0d962a	-0.034567036
85	0xbd5babad	-0.05363052
86	0xbd5c45ec	-0.05377762
87	0xbd58991c	-0.05288039
88	0x3d3fa49d	0.046787847
89	0xbd35f17e	-0.044419758
90	0xbd7b3da7	-0.061338093
91	0x3daaf44f	0.083473794
92	0x3dc6b264	0.09701994
93	0xbd79c0d0	-0.060974896
94	0xbd9e86c4	-0.07740548
95	0x3bc9d7ca	0.0061597573
96	0x3db03bbf	0.08605146
97	0xbda420f5	-0.080140986
98	0xbc711450	-0.0147143155
99	0x3dab55b0	0.08365953
100	0xbd9eefd9	-0.07760591
101	0xbd13cf72	-0.036086507
102	0xbd8f8b3e	-0.0700898
103	0xbca98351	-0.0206925
104	0xbd334ba9	-0.043773327
105	0x3ced1169	0.028938966
106	0x3d751b35	0.0598404
107	0x3dc393d0	0.09549677
108	0x3db88d46	0.09011321
109	0xbd89c76b	-0.06727489
110	0xbb54beac	-0.0032462282
111	0x3d13d2c3	0.03608967
112	0xbdce65c9	-0.10078008
113	0xbdcb04e2	-0.09913041
114	0xbd7c9917	-0.061669435
115	0xbc78ebf0	-0.015192971
116	0xbd709a1f	-0.05874073
117	0xbd43f2ca	-0.047838964
118	0xbdc747eb	-0.09730514
119	0x3c9a08c0	0.018803
120	0xbd903bd4	-0.07042661
121	0x3da107db	0.078628264
122	0xbd50c000	-0.050964355
123	0x3d28ab50	0.041179
124	0xbdd7562d	-0.105144836
125	0x3d0d7138	0.034531802
126	0x3d40b786	0.04705002
127	0x3d3dd655	0.04634698
128	0xbcb68422	-0.022279803
129	0x3bba0d56	0.0056778593
130	0xbca98a3b	-0.020695796
131	0x3c91b8cf	0.017788319
132	0x3d830159	0.063967414
133	0x3de2bf8c	0.11071691
134	0xbca1ba70	-0.01974222
135	0x3dba852c	0.09107432
136	0x3b1fb0d1	0.0024366865
137	0xbcae614f	-0.021286635
138	0xbcd34786	-0.025790941
139	0x3dd2b9fc	0.1028938
140	0x3d47166c	0.048605368
141	0x3ca99d72	0.020704959
142	0x3e1418f3	0.14462642
143	0xbd79144a	-0.060810365
144	0x3da2c59e	0.07947849
145	0xbd852c07	-0.06502538
146	0xbdec19c3	-0.11528351
147	0xbd9614de	-0.07328199
148	0xbc2d7eab	-0.010589282
149	0x3cdb8be6	0.026800107
150	0xbd49aab8	-0.049235076
151	0xbba846ac	-0.005135378
152	0x3dbbb815	0.0916597
153	0xbcd9d033	-0.026588535
154	0xbca33735	-0.019923786
155	0xbd865969	-0.065600224
156	0xbc616653	-0.013757306
157	0x3cd9351a	0.026514579
158	0x3a973f0e	0.0011539178
159	0x3deb4bff	0.114891045
160	0xbdbd66e7	-0.09248143
161	0xbc4e964a	-0.012609074
162	0x3c248503	0.010041478
163	0x3d98f89c	0.074692935
164	0x3dc7df63	0.097594045
165	0x3db5858b	0.08863362
166	0xbd1fcd07	-0.03901389
167	0x3d057447	0.032581594
168	0xbd4c4c25	-0.049877305
169	0x3dbd130c	0.092321485
170	0x3daf0e09	0.08547599
171	0x3ca5ac97	0.020223899
172	0xbd4a9152	-0.049454994
173	0x3db2b45a	0.087258056
174	0x3de110be	0.109895214
175	0x3d014b43	0.031565916
176	0x3de3ef93	0.111296795
177	0xbd57953a	-0.052632548
178	0xbd20cac9	-0.03925589
179	0x3bada9e4	0.0052997936
180	0xbd85bd6b	-0.06530269
181	0x3d83dc01	0.06438447
182	0xbd9c7814	-0.076400906
183	0xbd5b4826	-0.053535603
184	0x3d8a1839	0.06742901
185	0x3da9a15e	0.082827315
186	0xbd0c0598	-0.034185022
187	0xbd6ea7f6	-0.05826565
188	0xbd8f58f2	-0.06999387
189	0xbd9395f9	-0.072063394
190	0x3dc55484	0.09635261
191	0xbd5ac4c5	-0.05341031
192	0xbcaae55c	-0.02086132
193	0x3cdeb69b	0.027186682
194	0xbdefdab3	-0.117116354
195	0x3d2a9b3c	0.04165195
196	0x3c3d9437	0.011570982
197	0x3dfebb6e	0.12438093
198	0x3e0ab276	0.1354464
199	0xbd0c9f69	-0.034331713
200	0x3d0e38be	0.034722082
201	0x3da8620c	0.08221826
202	0x3da9819a	0.08276673
203	0xbdc181e0	-0.094486
204	0x3d9a8af5	0.07546035
205	0xbda5fe79	-0.081051774
206	0x3dfb792a	0.122789696
207	0x3da6947e	0.081337914
208	0x3dec425d	0.11536095
209	0xbe0f2cf1	-0.13981988
210	0x3dc41d91	0.09575952
211	0xbb7d0f46	-0.003861384
212	0x3dd88641	0.10572482
213	0x3c821988	0.015881315
214	0x3e0c9fc0	0.13732815
215	0x3df36d62	0.118860975
216	0xbd1e1a13	-0.038599085
217	0xbd9ebd44	-0.07750943
218	0x3dfeb037	0.12435954
219	0x3c640b40	0.013918698
220	0xbdf8ef69	-0.12155039
221	0xbd13f238	-0.03611967
222	0xbc97caf5	-0.018529395
223	0x3d705a06	0.058679603
224	0xbd02b4df	-0.031910773
225	0x3df1e57a	0.11811347
226	0xbe0a07c7	-0.1347953
227	0xbe096d07	-0.13420497
228	0x3d43e15e	0.04782235
229	0x3df01dff	0.11724471
230	0xbdd2469c	-0.10267374
231	0xbe133276	-0.14374718
232	0xbbc60273	-0.0060427724
233	0x3dbd9e40	0.092586994
234	0xbd469332	-0.04848022
235	0xbdd972e6	-0.10617618
236	0x3cefc117	0.029266877
237	0x3dc474c6	0.09592585
238	0x3d8bbaf9	0.068227716
239	0xbd906b71	-0.07051743
240	0x3cbfe1b4	0.023423053
241	0x3dbbe3d7	0.091743164
242	0xbde36576	-0.111033365
243	0xbe08103e	-0.13287446
244	0x3d2fb124	0.042893544
245	0xbc3db060	-0.011577696
246	0xbd2a7112	-0.04161174
247	0xbc98b099	-0.018638896
248	0x3c383fe6	0.011245703
249	0xbddb6ed5	-0.10714499
250	0xbdf6301a	-0.120208934
251	0xbc5056cc	-0.0127160065
252	0x3d91170f	0.07084476
253	0x3e0c24e2	0.13685945
254	0xbb4312f3	-0.0029765933
255	0xbd6ee09d	-0.058319677

4.bias f4 [64]
0	0x3d00432f	0.03131407
1	0x3de41702	0.11137201
2	0x3dbe9f6d	0.09307752
3	0xbd6ddbbd	-0.058070887
4	0xba2b183d	-0.0006526744
5	0xbd8c4001	-0.06848145
6	0xbd8be32a	-0.068304375
7	0x3d3ed855	0.04659303
8	0x3d8685ae	0.06568466
9	0x3e01479d	0.12624975
10	0x3c083716	0.008313915
11	0x3ca817d7	0.02051918
12	0xbe058e28	-0.1304251
13	0x3dba6d58	0.09102887
14	0x3c072c8d	0.008250368
15	0x3d56947f	0.05238771
16	0x3c880fd6	0.016609114
17	0x3ccdd5e6	0.025126409
18	0xbd110acd	-0.03541069
19	0x3c29a757	0.010354838
20	0x3dbd9275	0.0925645
21	0xbd9ddf12	-0.07708563
22	0x3d82894f	0.06373846
23	0x3d081edc	0.033232555
24	0x3da7b1b8	0.08188194
25	0xbdbcb413	-0.09214034
26	0x3cd7592a	0.026287634
27	0x3cbca4f6	0.023027878
28	0x3b71941e	0.0036861966
29	0xbdd0986d	-0.10185323
30	0xbdcd9d23	-0.10039737
31	0xbd6b30b8	-0.05741951
32	0x3b33443b	0.00273539
33	0xbda268c1	-0.079301365
34	0xbe00fd6a	-0.1259667
35	0x3cba5ba7	0.022748781
36	0x3e02adc5	0.127616
37	0x3dcbfe8c	0.0996066
38	0xbd0b5c9b	-0.034023862
39	0xbd9242ee	-0.07141672
40	0x3d05f000	0.032699585
41	0x3e014d74	0.12627202
42	0x3b49892b	0.0030751924
43	0x3d93f6cd	0.07224808
44	0xbd509fb6	-0.050933562
45	0xbd031ca5	-0.03200974
46	0x3c9d32d1	0.01918927
47	0xbd9553dd	-0.07291386
48	0xbd861f61	-0.06548954
49	0xbca6fd1f	-0.02038437
50	0x3c545161	0.012958855
51	0x38c6b016	9.474174e-05
52	0x3d831390	0.064002156
53	0xbbc60ca1	-0.006043986
54	0x3e0b2a8b	0.13590448
55	0x3c1e9634	0.009679366
56	0x3dac96f6	0.08427231
57	0xbd3f5774	-0.04671426
58	0xbd0215a4	-0.03175892
59	0x3ca10088	0.019653574
60	0x3c6c46df	0.014421194
61	0x3d617ced	0.05505078
62	0x3d720157	0.05908331
63	0x3db99859	0.09062261

6.weight f4 [1, 64]
0	0x3d89df68	0.067320645
1	0xbda6a0d3	-0.081361435
2	0xbdf8d80e	-0.12150584
3	0x3b023050	0.0019865222
4	0xbde4821f	-0.11157631
5	0x3e203340	0.1564455
6	0x3df7399d	0.12071536
7	0x3e21d67d	0.15804477
8	0x3d83db10	0.06438267
9	0xbdf5aa02	-0.11995317
10	0xbe0ebbb5	-0.13938792
11	0xbdde2137	-0.10846179
12	0x3dd0527c	0.10171983
13	0xbe0ca6cd	-0.13735504
14	0x3dea2634	0.11433068
15	0xbdf3e15d	-0.11908219
16	0xbda0c054	-0.07849184
17	0x3bc490a5	0.0059986883
18	0xbe0845f3	-0.13307934
19	0x3ca6f7df	0.020381866
20	0xbe0d2414	-0.13783294
21	0x3e3657d6	0.17806944
22	0x3dd1bc84	0.102410346
23	0x3dc17a5e	0.09447168
24	0xbd65eaa4	-0.056131974
25	0x3dad5b01	0.08464623
26	0x3df0f18a	0.1176482
27	0x3e136fec	0.14398164
28	0x3b00dee4	0.0019664103
29	0x3d8da95a	0.06917067
30	0x3e29c9ee	0.16580936
31	0x3db929bc	0.09041163
32	0x3dea14a0	0.11429715
33	0x3e30ca43	0.17264657
34	0x3e2d175e	0.16903445
35	0xbdc01003	-0.09378054
36	0xbe09c709	-0.13454832
37	0xbda264ee	-0.07929407
38	0xbe3151f3	-0.17316417
39	0x3de92714	0.11384407
40	0x3dcd4d8e	0.10024558
41	0xbddc0812	-0.10743727
42	0xbdc3d4a0	-0.095620394
43	0x3dbf835d	0.093512274
44	0x3dbd5a23	0.09245708
45	0xbdaf5168	-0.08560449
46	0x3dfbb57d	0.122904755
47	0x3d9e23da	0.07721682
48	0x3da09f6c	0.07842907
49	0xbe250a5a	-0.1611723
50	0x3d27182c	0.040794536
51	0xbe108b24	-0.14115578
52	0x3d15b2ae	0.036547355
53	0xbdd368d2	-0.10322727
54	0xbd6cda0b	-0.05782513
55	0x3d0aa279	0.033846352
56	0xbd8c521e	-0.068516
57	0x3e11704e	0.14202997
58	0xbdbf44f2	-0.09339322
59	0x3ddb134f	0.10697042
60	0xbdf15f08	-0.11785704
61	0x3d7ce2b8	0.061739653
62	0x3dbcf07c	0.09225556
63	0xbe1c769f	-0.15279625
