src/training/discrete_actor.pth (torch, 219796 bytes, 8 tensors)

0.weight f4 [256, 49]
0	0x3e04fdf0	0.12987494
1	0xbdad4ee0	-0.0846231
2	0xbda95815	-0.082687534
3	0x3c683db8	0.014174871
4	0x3dd2ad3c	0.10286948
5	0xbcabf1b7	-0.020989282
6	0x3d6f09a5	0.058358807
7	0x3e1063a7	0.14100514
8	0x3d1c76c5	0.038199205
9	0x3e0a42be	0.13502023
10	0xbde54063	-0.111939214
11	0x3d3f6c33	0.046734046
12	0x3b9968f0	0.004681699
13	0x3dfbc03a	0.12292524
14	0x3ddfadd9	0.10921831
15	0x3e0b8243	0.1362391
16	0x3c2ff61b	0.010739828
17	0xbde7a353	-0.113104485
18	0x3dea0f02	0.11428644
19	0x3db08608	0.086193144
20	0xbda1011e	-0.07861541
21	0x3df451ce	0.119296655
22	0x3c680513	0.014161366
23	0xbdee841a	-0.1164629
24	0xbd8713a5	-0.06595544
25	0x3a86664a	0.0010253873
26	0x3d8ca610	0.068676114
27	0x3dd6dca7	0.10491305
28	0xbdecc61e	-0.11561225
29	0xbd01b717	-0.03166875
30	0xbdce8866	-0.1008461
31	0xbe0db404	-0.13838202
32	0x3cdfdf4b	0.027328154
33	0x3e08efa6	0.13372669
34	0x3ded60bf	0.115907185
35	0xbdcd95de	-0.100383505
36	0x3d0a65b7	0.03378841
37	0xbdbdb9ea	-0.09263976
38	0xbde4467a	-0.11146255
39	0xbd4e850e	-0.05041986
40	0x3d132fca	0.035934247
41	0x3dde3e59	0.108517356
42	0x3ce72e78	0.0282204
43	0xbe014d6c	-0.1262719
44	0x3caa2dee	0.020773854
45	0xbd9f104a	-0.07766779
46	0x3d9b367a	0.0757875
47	0xbd26746a	-0.040638365
48	0x3d4cdeb3	0.05001707
49	0xbd9bfd48	-0.07616669
50	0xbdf13dad	-0.11779342
51	0x3d073d39	0.03301737
52	0xbd94d1fa	-0.07266612
53	0x3c56e7b7	0.013116769
54	0x3cf547ae	0.029941406
55	0x3cee60d3	0.029098904
56	0xbdc34a8e	-0.095357046
57	0x3da42165	0.08014182
58	0x3dd4a515	0.103830494
59	0x3de02c75	0.109459795
60	0x3d80fcf3	0.06298246
61	0xbcf5729d	-0.029961878
62	0xbe09e5d9	-0.13466586
63	0x3cd0bd96	0.025481027
64	0x3d981711	0.074262746
65	0xbd90adf4	-0.07064429
66	0x3d8ee845	0.06977896
67	0x3da40895	0.080094494
68	0xbdb0ae43	-0.08626988
69	0xbdd90b5b	-0.10597869
70	0xbddf8efc	-0.10915944
71	0x3de592f8	0.11209673
72	0xbe0aa466	-0.13539276
73	0x3d7600c5	0.060059328
74	0x3dfbefc5	0.12301592
75	0x3b2f3fb7	0.0026740858
76	0x3de60f7e	0.11233424
77	0xbd4b9cf3	-0.049710225
78	0xbe0c7002	-0.13714603
79	0x3c4a83a0	0.012360483
80	0xbd183087	-0.037155654
81	0x3cd23a1b	0.025662472
82	0xbda06fe2	-0.0783384
83	0x3de02e9a	0.109463885
84	0xbe0c1298	-0.13678968
85	0x3dbc299b	0.09187623
86	0x3dfc370a	0.12315185
87	0x3cbb3a56	0.022854965
88	0xbc850baa	-0.016240913
89	0x3df25cec	0.1183413
90	0xbcadc31b	-0.021211198
91	0x3db8684c	0.09004268
92	0x3d87dfe5	0.06634501
93	0x3de54dce	0.11196481
94	0xbbb68201	-0.005569697
95	0xbcce6625	-0.02519519
96	0xbc8c7c37	-0.017149074
97	0x3daf8231	0.08569754
98	0x3d315c87	0.04330113
99	0x3d8e0737	0.0693497
100	0x3cf9a460	0.030473888
101	0x3dcdac83	0.100426696
102	0x3d168b40	0.036753893
103	0x3e018a4e	0.12650415
104	0x3d5b3421	0.05351651
105	0xbd8d1f37	-0.068907194
106	0xbddc1758	-0.1074664
107	0x3d094f7c	0.033523068
108	0xbdadc0d5	-0.084840454
109	0x3cbcb32e	0.023034658
110	0x3dc5ba9e	0.09654735
111	0xbdd2b718	-0.102888286
112	0xbd860ee7	-0.06545811
113	0xbd484fe3	-0.04890431
114	0xbdebf867	-0.11521988
115	0xbdfd3efa	-0.123655275
116	0x3e05ccc9	0.130664
117	0xbcacadf0	-0.021079034
118	0x3d872673	0.065991305
119	0x3e00b60c	0.12569445
120	0xbd2e30a5	-0.04252686
121	0xbdfbf8f8	-0.123033464
122	0x3d2fb221	0.042894486
123	0x3dd63341	0.10458995
124	0x3ddb08d5	0.10695044
125	0x3d1a3113	0.037644457
126	0xbd0d0f73	-0.03443856
127	0x3c82531c	0.01590877
128	0xbce66480	-0.028124094
129	0xbd8f6e00	-0.07003403
130	0xbc756b82	-0.014979245
131	0x3de5624f	0.112003915
132	0x3d6fe45b	0.058567386
133	0xbe14af06	-0.14519891
134	0xbd4fb98a	-0.050714053
135	0xbc447b25	-0.011992251
136	0x3e0aaeb9	0.13543214
137	0x3cb951c1	0.022621991
138	0x3dbb5dd1	0.091487534
139	0xbd564e0b	-0.05232052
140	0x3bcd0101	0.006256223
141	0x3e0ed006	0.13946542
142	0xbd60938a	-0.054828204
143	0x3b9b4000	0.004737854
144	0x3d90896e	0.07057463
145	0xbe095085	-0.13409622
146	0x3db5dd47	0.08880096
147	0xbd8dba76	-0.0692033
148	0xbd278736	-0.04090043
149	0x3d893556	0.06699626
150	0x3c3688ee	0.011141045
151	0xbdb66a05	-0.0890694
152	0xbe0a49f5	-0.13504775
153	0xbd69d498	-0.05708751
154	0xbd7796a1	-0.060446385
155	0x3cd82b1c	0.026387744
156	0xbb68bbb8	-0.003551228
157	0x3b2bb093	0.0026197776
158	0x3d533b1c	0.051570043
159	0x3e0bb1cd	0.13642044
160	0x3e08bd9d	0.13353582
161	0x3d073597	0.03301009
162	0xbc4ceee4	-0.012508128
163	0x3d6a1edb	0.057158332
164	0xbd062a88	-0.032755405
165	0x3ba19dbe	0.0049321344
166	0x3d0886ce	0.033331685
167	0x3d20a170	0.03921646
168	0x3df3fbf3	0.1191329
169	0xbb91d16e	-0.004450015
170	0xbd424d1c	-0.04743682
171	0x3dab461c	0.08362982
172	0x3cf4b76e	0.029872622
173	0xbdc0ac1c	-0.09407827
174	0xbe089e5b	-0.13341658
175	0xbdcc9975	-0.09990207
176	0x3de00738	0.10938877
177	0x3db550ef	0.088533275
178	0xbcc46793	-0.02397517
179	0x3de289c5	0.11061434
180	0x3e0475bc	0.12935537
181	0xbd0097c9	-0.031394754
182	0x3d680b2b	0.056651276
183	0x3ddd8840	0.10817003
184	0xbd9e59a5	-0.07731942
185	0x3e1582ba	0.1460065
186	0xbcb0a0ae	-0.021560993
187	0xbd6147f8	-0.055000275
188	0x3d458544	0.048222795
189	0xbe1133ef	-0.14179967
190	0x3deb197a	0.11479469
191	0xbdcbeebc	-0.09957644
192	0x3df9bc2a	0.121940926
193	0x3dc71543	0.09720852
194	0x3c90d777	0.017680867
195	0xbe02f1c3	-0.12787537
196	0xbcd6449d	-0.026155764
197	0xbd26fdea	-0.040769495
198	0xbdcf4c0e	-0.10121928
199	0x3ce906ee	0.028445687
200	0xbcee00c1	-0.029053094
201	0xbd5f4758	-0.054511398
202	0xbc8e5525	-0.017374584
203	0x3dd8d6ac	0.105878204
204	0xbdaad8da	-0.083421424
205	0xbdf5a9be	-0.119952664
206	0x3ddae6ea	0.106885746
207	0xbdb48ea3	-0.08816268
208	0x3e0d6143	0.13806634
209	0x3d4476b6	0.047964774
210	0x3e09f814	0.1347354
211	0x3d367811	0.044548098
212	0x3df559b4	0.1198
213	0xbde65205	-0.11246113
214	0xbdcf8950	-0.10133612
215	0x3c546712	0.012964027
216	0xbcf0ac2a	-0.02937897
217	0x3dd6ea67	0.104939274
218	0xbd89e34a	-0.06732805
219	0xbdb6dc2c	-0.08928713
220	0xbdc67ce1	-0.096917875
221	0x3e088490	0.13331819
222	0xbdc7616a	-0.09735377
223	0x3e0388d8	0.1284517
224	0x3cc3880a	0.02386858
225	0x3d8b4397	0.06800001
226	0xbdd8f0f4	-0.10592833
227	0xbc4993ae	-0.012303276
228	0xbcd00600	-0.025393486
229	0xbd9013d9	-0.07035036
230	0x3d28a3c2	0.041171797
231	0x3e110204	0.14160925
232	0x3e0b2917	0.13589893
233	0x3d48283c	0.048866495
234	0xbe069fa7	-0.1314684
235	0xbbdf74d5	-0.0068193474
236	0x3dbc3f03	0.09191706
237	0x3d71c164	0.059022322
238	0xbd1df0d7	-0.03855976
239	0xbd7b1778	-0.06130168
240	0x3d4312d3	0.047625374
241	0xbc682193	-0.014168161
242	0xbd3ff501	-0.046864513
243	0xbdcbbd4c	-0.09948215
244	0x3c035c80	0.008017659
245	0xbd85a1fc	-0.06525037
246	0xbd811b1c	-0.06303999
247	0xbbcbb614	-0.0062167738
248	0x3ba25a00	0.0049545765
249	0x3e11d76e	0.14242336
250	0x3ccbf94a	0.024899144
251	0xbd5b2ffc	-0.05351256
252	0x3dd13437	0.10215037
253	0x3d33126a	0.043718733
254	0xbddc7ca3	-0.1076596
255	0xbd3381f3	-0.0438251

0.bias f4 [256]
0	0x3ddadd97	0.10686796
1	0x3d852f21	0.0650313
2	0xbd6e945d	-0.05824696
3	0xbb91e516	-0.004452358
4	0xbd95b2f5	-0.07309524
5	0xbd449cdb	-0.04800115
6	0x3d79edac	0.061017677
7	0x3db8f6ea	0.0903147
8	0xbd3eaed7	-0.04655346
9	0x3e1252f1	0.14289452
10	0xbd088c61	-0.033337
11	0x3dacd2ab	0.08438619
12	0xbd8e9b37	-0.06963199
13	0xbdaf98b1	-0.085740454
14	0xbc2d5884	-0.010580186
15	0x3c8c9b71	0.017163964
16	0x3c23fbd8	0.010008775
17	0xbdd78f9c	-0.10525438
18	0xbd184eae	-0.03718441
19	0xbc9ad989	-0.018902557
20	0xbe085bbd	-0.13316245
21	0xbd39d5c8	-0.045369893
22	0xbca65c7d	-0.020307774
23	0xbd0b5aef	-0.034022268
24	0x3d1c43e7	0.038150694
25	0xbd9327d9	-0.07185335
26	0xbcb35877	-0.02189277
27	0xbe064883	-0.13113599
28	0x3da475a4	0.08030251
29	0x3c607ebf	0.013702094
30	0x3da8de87	0.08245569
31	0xbd89d640	-0.06730318
32	0xbd1b214c	-0.03787355
33	0x3dc48bc5	0.095969714
34	0x3df3c616	0.11903016
35	0x3e01ef27	0.12688886
36	0x3d80e4ae	0.06293617
37	0x3d82e524	0.06391361
38	0x3d2fa960	0.042886138
39	0xbdd04b41	-0.101706035
40	0x3cb3b52f	0.021936981
41	0xbd720294	-0.05908449
42	0x3cf86ac5	0.03032435
43	0x3d98b172	0.0745572
44	0x3e049196	0.12946162
45	0xbd70d666	-0.058798216
46	0x3d4fb8f9	0.050713513
47	0xbe013014	-0.12615997
48	0x3db8277b	0.08991905
49	0x3d9c52b3	0.07632961
50	0x3d3f60d3	0.0467232
51	0x3e15e56e	0.14638302
52	0x3cb12d11	0.021627935
53	0x3df0cbc8	0.11757618
54	0x3d9f3487	0.07773691
55	0xbe002072	-0.12512377
56	0x3d77e56f	0.06052154
57	0x3daf02c6	0.08545451
58	0xbdd69124	-0.10476902
59	0x3dba34f1	0.09092129
60	0xbd6267e1	-0.055274848
61	0xbcd98d04	-0.0265565
62	0xbd0e1117	-0.034684267
63	0x3d24b2cb	0.040209573
64	0xbdb0c37e	-0.08631037
65	0x3e10ee87	0.14153491
66	0xbd9254e5	-0.071450986
67	0xbda44a4c	-0.080219835
68	0x3db34dd8	0.08755082
69	0xbc9e1efb	-0.019301882
70	0x3c848b65	0.01617975
71	0x3e090bb6	0.13383374
72	0x3d8d9ad4	0.06914297
73	0x3dfe208d	0.12408552
74	0xbdf8643e	-0.12128495
75	0x3df49a18	0.119434536
76	0xbd581f5d	-0.052764285
77	0x3cd58951	0.026066454
78	0x3dea037d	0.114264466
79	0x3d1cee12	0.03831298
80	0xbd4d8195	-0.050172407
81	0xbd81bf98	-0.06335372
82	0xbdc30e98	-0.09524268
83	0xbd82587d	-0.06364534
84	0x3d4da723	0.050208222
85	0x3db062f4	0.08612624
86	0x3db86814	0.09004226
87	0xbd08f61f	-0.033437844
88	0x3d7d1a41	0.061792616
89	0x3d03fe5c	0.032224998
90	0xbdc292d6	-0.09500663
91	0x3d007ac0	0.031367064
92	0x3dcf20ff	0.101137154
93	0xbd163ebf	-0.036680933
94	0x3dd989f1	0.10622013
95	0x3e077c4a	0.13231006
96	0x3d803f60	0.06262088
97	0xbdd6d2a1	-0.10489393
98	0xbe0f9eb5	-0.14025386
99	0x3d93f17e	0.07223795
100	0x3e0bea34	0.1366356
101	0x3cc884cd	0.024477387
102	0xbe084ac3	-0.1330977
103	0x3d8a9a58	0.0676772
104	0xbaa3b55c	-0.0012489962
105	0x3e04bb15	0.12961991
106	0x3df191d9	0.11795396
107	0xbd8ac525	-0.067758836
108	0xbce8931b	-0.028390458
109	0x3d93eaa6	0.0722249
110	0x3e092fa5	0.13397081
111	0xbe087492	-0.13325718
112	0xbda0fd00	-0.07860756
113	0x3d8c2cf8	0.068445146
114	0x3d9b1ebd	0.07574222
115	0xbdd35711	-0.10319341
116	0xbde0023b	-0.109379254
117	0xbe06b145	-0.1315356
118	0xbd11b2a8	-0.03557077
119	0xbde67912	-0.11253561
120	0xbd6aed27	-0.057355072
121	0x3aa8b4b0	0.0012871232
122	0xbcb7a97f	-0.02241969
123	0x3d02f8d6	0.03197559
124	0x3d6755ed	0.05647843
125	0x3d807b52	0.062735215
126	0xbcac4e97	-0.021033568
127	0xbce39322	-0.02778012
128	0x3da2aa7e	0.07942675
129	0xbcc56ef9	-0.024100767
130	0x3c4814d5	0.012211998
131	0xbdcedc9a	-0.1010067
132	0x3e0c44c8	0.13698113
133	0x3d8cfa5c	0.0688369
134	0x3d8b6fe2	0.06808449
135	0x3d69681c	0.056984052
136	0xbd111eda	-0.035429813
137	0x3ba017b6	0.004885639
138	0xbd7ad7fe	-0.061241142
139	0x3e018696	0.12648997
140	0x3db2d86b	0.08732685
141	0xbde53909	-0.11192519
142	0xbe0a9e5a	-0.13536969
143	0x3ddea014	0.10870376
144	0xbe00595b	-0.12534086
145	0x3b78dd42	0.0037973677
146	0xbda33df3	-0.079708
147	0x3dded552	0.10880531
148	0x3d6fbcb6	0.05852958
149	0x3da04661	0.07825924
150	0xbc5a4bc4	-0.013323728
151	0x3dad007f	0.0844736
152	0x3c669beb	0.01407526
153	0xbd454e35	-0.048170287
154	0x3b9ac98d	0.0047237338
155	0x3de2b098	0.11068839
156	0x3d5b595e	0.053552024
157	0xbe07cde9	-0.13262142
158	0xbd57a79f	-0.05265009
159	0xbdc70466	-0.09717636
160	0x3df3d448	0.11905724
161	0x3df8ffbb	0.12158152
162	0x3d881765	0.06645087
163	0xbda0d640	-0.07853365
164	0xbdf8a0ab	-0.1214002
165	0xbe02b079	-0.12762631
166	0xbdea297a	-0.11433692
167	0xbd0066d1	-0.031348053
168	0x3d5d30b5	0.05400153
169	0xbdb1ccd7	-0.08681648
170	0xbd6a059e	-0.057134263
171	0xbe0a9da8	-0.13536704
172	0xbdadedbf	-0.08492612
173	0xbc074e3b	-0.008258398
174	0xbd1af558	-0.037831634
175	0x3d46e643	0.04855944
176	0xbd1cd60b	-0.038290065
177	0x3dbcd0c9	0.0921951
178	0x3d764dc7	0.060132768
179	0xbd502f51	-0.050826374
180	0xbbc5269c	-0.0060165655
181	0x3de48344	0.111578494
182	0x3d970ff2	0.07376088
183	0xbd9e82ba	-0.07739778
184	0x3e08eb2e	0.13370964
185	0xbde369ab	-0.11104139
186	0x3dca2a87	0.09871393
187	0x3ddcd62f	0.1078304
188	0xbd6c3f1b	-0.05767737
189	0x3cc62231	0.024186226
190	0xbbd15305	-0.0063880705
191	0xbd711f17	-0.05886754
192	0x3cbea6c7	0.023272885
193	0x3db349f4	0.0875434
194	0xbd8652e6	-0.0655878
195	0xbdaff1a5	-0.08591012
196	0x3e050101	0.12988664
197	0x3dfd39fe	0.12364577
198	0x3dae6142	0.08514644
199	0x3df55c09	0.11980445
200	0xbc789c5b	-0.015173997
201	0x3dd24ca3	0.102685235
202	0xbe025328	-0.12727034
203	0x3d3a88df	0.045540687
204	0xbbba6da0	-0.005689338
205	0x3d351f66	0.044219397
206	0x3e0c8eaa	0.13726297
207	0xbd423ff6	-0.04742428
208	0x3dfff738	0.12498325
209	0x3c8899b2	0.01667485
210	0xbdff1465	-0.12455062
211	0x3d0b5f0d	0.034026194
212	0x3d6d21b7	0.05789348
213	0x3ddc0185	0.10742477
214	0x3e03bed8	0.1286577
215	0xbc8d6a2c	-0.01726254
216	0x3d8c9205	0.068637885
217	0x3c09da02	0.0084137935
218	0x3d2fa0e0	0.04287803
219	0xbd7c79bd	-0.061639536
220	0xbd0565b8	-0.03256771
221	0xbd78a7c0	-0.060706854
222	0x3d0d2534	0.034459308
223	0x3ceb48ec	0.028721295
224	0x3dcb178e	0.09916602
225	0xbd4d1949	-0.050072942
226	0x3d20c9af	0.03925484
227	0xbd168c8e	-0.036755137
228	0xbcda7326	-0.026666235
229	0xbdf6ecdf	-0.12056898
230	0x3df6c434	0.120491415
231	0xbdb92b9c	-0.09041521
232	0xbd267eed	-0.04064839
233	0xbd9fbe35	-0.07799951
234	0x3df49d40	0.119440556
235	0x3ca1d622	0.019755427
236	0x3df2a772	0.11848344
237	0x3c93a6de	0.018023904
238	0xbdf7f362	-0.121069685
239	0x3d4f4117	0.050599184
240	0xbe06a8d5	-0.13150342
241	0x3e0d5ae2	0.138042
242	0xbd49afd2	-0.04923994
243	0xbdc8211d	-0.09771941
244	0x3e13b245	0.14423473
245	0xbc47e23f	-0.012199937
246	0xbde692c7	-0.11258464
247	0x3e077012	0.13226345
248	0xbdd682bd	-0.10474155
249	0xbdbca991	-0.0921203
250	0x3d33987d	0.043846596
251	0xbd4000f8	-0.046875924
252	0x3df67c66	0.12035446
253	0xbd98ee80	-0.07467365
254	0x3e093460	0.13398886
255	0x3db1bd91	0.08678735

2.weight f4 [128, 256]
0	0xba8f2373	-0.0010920599
1	0x3cdb365f	0.026759325
2	0xbc947c4a	-0.018125672
3	0xbd3f5622	-0.046713002
4	0x3d1ed841	0.038780455
5	0x3d4f205f	0.05056798
6	0x3cd097a0	0.025462925
7	0xbc9bb021	-0.019004883
8	0x3b94f66b	0.004545977
9	0xbc271946	-0.010198897
10	0xbcbde504	-0.023180492
11	0x3c9c5756	0.019084614
12	0xbd63a40e	-0.055576377
13	0x3d756e3d	0.059919585
14	0x3ce36b87	0.027761234
15	0x3d2ba37a	0.04190395
16	0xbcbb8fbd	-0.022895688
17	0x3d0bebca	0.034160413
18	0x3cdfc0ff	0.027313707
19	0xbbbd326a	-0.005773832
20	0x3b621565	0.0034497615
21	0x3d72570f	0.059165057
22	0x3d4270ad	0.047470737
23	0x3cba9682	0.022776846
24	0xbcb24749	-0.021762507
25	0xbd0ff659	-0.035147045
26	0x3cd1f421	0.025629105
27	0xbd670f00	-0.05641079
28	0xbd569a83	-0.052393448
29	0x3b49f1b6	0.0030814237
30	0x3c4503eb	0.01202486
31	0xbd6a051c	-0.05713378
32	0xbc94de00	-0.018172264
33	0xbd0a6e4b	-0.03379659
34	0x3cc64388	0.024202123
35	0xbc6a1627	-0.014287508
36	0x3cc63657	0.024195833
37	0xbbe08dcc	-0.006852841
38	0xbbaa4fc4	-0.005197497
39	0x3d1ba8ab	0.03800265
40	0xbce5fce6	-0.028074693
41	0xbb12010f	-0.0022278463
42	0xbd81069f	-0.06300091
43	0x3d20a7cc	0.039222524
44	0xbce76501	-0.028246405
45	0x3bcada89	0.006190602
46	0x3d71f6de	0.05907332
47	0x3c9b8067	0.018982125
48	0xbcf69b1f	-0.030103264
49	0x3d7bd78a	0.06148485
50	0xbd2b6812	-0.041847296
51	0x3c9363a1	0.017991843
52	0x3c1eb4e8	0.009686686
53	0xbcff88c1	-0.031193139
54	0xbd249adb	-0.040186744
55	0x3cc518e2	0.024059717
56	0x3bd72e4f	0.0065667997
57	0x3d47b5bf	0.04875731
58	0xbd6098f3	-0.054833364
59	0xbd60a617	-0.054845896
60	0xbd1ab35f	-0.037768718
61	0xbd5274e6	-0.051381014
62	0x3b020905	0.0019841802
63	0xbd14f866	-0.036369704
64	0xbcd702a4	-0.026246376
65	0xbd4a809e	-0.049439065
66	0xbcf4fe7d	-0.029906506
67	0x3d4d55c6	0.050130628
68	0x3b7930ee	0.003802355
69	0x3d0a0fd4	0.0337065
70	0xbd1a1a13	-0.037622523
71	0x3cd57b49	0.026059764
72	0x3d782694	0.060583666
73	0x3cc77ed9	0.024352478
74	0xbd2416d6	-0.04006084
75	0x3c4d240d	0.012520802
76	0x3cb576ed	0.022151435
77	0x3cb8b27a	0.022546042
78	0x3d341e35	0.04397412
79	0x3ced6526	0.028978895
80	0x3a90b5a1	0.0011040458
81	0x3d5df049	0.054184232
82	0xbc6d6c32	-0.014491128
83	0xbb813745	-0.003943356
84	0xbcd34cad	-0.025793398
85	0x3d1a1069	0.037613306
86	0xbc3b6ae7	-0.011439062
87	0xbc7105ed	-0.0147108855
88	0xbd1fe659	-0.039038036
89	0xbbe37584	-0.006941499
90	0x3cb59901	0.022167685
91	0x3d454e32	0.048170276
92	0x3d3a0a6b	0.04542009
93	0x3d500297	0.05078372
94	0x3d122d58	0.035687774
95	0x3bcb326f	0.0062010805
96	0x3d4e6365	0.05038776
97	0xbcdb3564	-0.026758857
98	0x3cc4f5e5	0.024043033
99	0xbca0dc5a	-0.019636322
100	0xbd5d1c0d	-0.05398183
101	0x3c1af7e0	0.009458512
102	0x3b384d41	0.0028122219
103	0x3d733aa7	0.059382107
104	0xbc78b111	-0.015178935
105	0xbd5824b3	-0.052769374
106	0xbbc67704	-0.0060566682
107	0xbcddb3f6	-0.027063351
108	0x3cb1825a	0.021668602
109	0xbd3ca6a6	-0.046057366
110	0x3ba1b2cf	0.0049346457
111	0xba1dbbef	-0.0006017079
112	0x3d5c85ab	0.053838413
113	0xbce4316d	-0.0278556
114	0xbd2cca3a	-0.042185046
115	0x3d02a823	0.03189863
116	0xbc11134a	-0.0088546965
117	0xbcd811db	-0.026375702
118	0xbc84cd4b	-0.016211173
119	0x3c5872bb	0.013210948
120	0xbd70dd6e	-0.05880492
121	0x3d2b6345	0.041842718
122	0x3c47fc1f	0.012206106
123	0x3d053d0f	0.032528933
124	0x3d40666c	0.046972677
125	0x3d898ec9	0.06716687
126	0x3cfebca3	0.031095808
127	0x3d4f65a3	0.050634038
128	0xbbaa2799	-0.0051927087
129	0x3d328294	0.04358156
130	0xbbd40409	-0.0064702076
131	0x3c51bc6f	0.012801274
132	0x3c8e094f	0.017338423
133	0x3c9ce43f	0.019151805
134	0x3d69b100	0.057053566
135	0x3d14d6e0	0.036337733
136	0x3c6aea10	0.014338031
137	0xbcc68eb7	-0.024237974
138	0x3b9581df	0.004562601
139	0x3c7e5b30	0.0155246705
140	0xbc46a73a	-0.012124831
141	0x3c5a7f84	0.013336066
142	0x3d451fc3	0.048125993
143	0xbd1df6fc	-0.03856562
144	0x3d4a55ef	0.04939836
145	0x3cd3e189	0.02586438
146	0x3d81e88f	0.06343185
147	0xbc05d496	-0.00816836
148	0xbd213d5e	-0.039365165
149	0xbcd6a93b	-0.026203742
150	0xbbaf2f61	-0.005346224
151	0xbd5462e6	-0.05185213
152	0xbd044318	-0.032290548
153	0xbd63ee97	-0.05564746
154	0x3d36e25a	0.04464946
155	0x3d647b75	0.0557818
156	0xbd337126	-0.04380908
157	0xbce26ad9	-0.02763884
158	0xbd3ff292	-0.046862192
159	0x3c00b700	0.007856131
160	0x3d4cc54c	0.049992844
161	0xbcdb7c22	-0.02679259
162	0x3cde7303	0.027154451
163	0x3d611df2	0.0549602
164	0xbae12a8e	-0.001717882
165	0x3d37319f	0.044725057
166	0x3d540c6e	0.051769666
167	0x3d4c7c87	0.049923446
168	0x3c9485a2	0.018130127
169	0x3cc38f70	0.023872107
170	0xbd317360	-0.04332292
171	0xbd13b346	-0.03605964
172	0x3d1d9c69	0.038479242
173	0x3d5c2b8a	0.05375246
174	0xbbb96076	-0.005657251
175	0x3d3a860c	0.045537993
176	0xbbccf447	-0.006254706
177	0xba527788	-0.0008028676
178	0x3c8053f9	0.015665041
179	0x3cfc9006	0.030830394
180	0x3d699c7c	0.057034
181	0x3d768099	0.060181234
182	0xbd330e18	-0.043714613
183	0xbd26f055	-0.040756542
184	0xbd3bf162	-0.045884497
185	0x3cce7c6a	0.02520581
186	0x3c9dc99d	0.019261176
187	0x3b444e1c	0.0029953783
188	0x3d3b8f17	0.045790758
189	0xbcb2a321	-0.021806302
190	0xbd100230	-0.035158336
191	0x3c257457	0.010098538
192	0xbcd5ed17	-0.02611403
193	0xbc5d4daf	-0.013507291
194	0x3c284536	0.010270407
195	0xbd81e961	-0.063433416
196	0xbcc47ecb	-0.02398624
197	0x3c1e0a0d	0.009645951
198	0xbd460a95	-0.048349936
199	0x3d24fd84	0.040280834
200	0xbcf6f354	-0.030145325
201	0xbd5edfad	-0.054412533
202	0x3be4efe5	0.0069866055
203	0xbd1c7037	-0.038192954
204	0x3c1ca735	0.00956135
205	0xbcb97898	-0.022640511
206	0xbd64e3a0	-0.055881143
207	0xbd2178f4	-0.03942199
208	0xbd0b232f	-0.0339691
209	0x3d1c8dfa	0.038221337
210	0xbb042f77	-0.0020169893
211	0xbcebfc1c	-0.028806739
212	0x3d0b4783	0.034003746
213	0x3bd4bd6c	0.0064923074
214	0xbcb9c4bf	-0.022676824
215	0xbb3bb1f2	-0.002864
216	0x3d40615d	0.046967853
217	0x3c61a31f	0.013771801
218	0x3d526ded	0.051374365
219	0xbc9b0a59	-0.018925833
220	0x3d0d9528	0.034566075
221	0xbd41d849	-0.047325406
222	0xbcfaab5d	-0.03059929
223	0x3d25af21	0.04045022
224	0x3ca0af09	0.019614713
225	0xbd51e9bd	-0.0512483
226	0x3d4d051f	0.050053712
227	0xbcc9ced2	-0.024634752
228	0x3c9b29ba	0.018940795
229	0xbd2b82b8	-0.04187271
230	0xbbd64bb3	-0.006539786
231	0x3cc71331	0.024301143
232	0xbd34961b	-0.044088464
233	0xbc9742bc	-0.018464439
234	0xbc840c6e	-0.016119208
235	0xbcef5699	-0.029216098
236	0xbc9ad9a7	-0.018902613
237	0x3d4c1c70	0.049831808
238	0xbd215e78	-0.039396733
239	0xbc478844	-0.012178484
240	0xbd265277	-0.04060599
241	0x3d36c68e	0.04462295
242	0x3cbd5db4	0.02311597
243	0xbd11c745	-0.03559043
244	0x3cbf49c6	0.023350608
245	0xbd1df96a	-0.038567938
246	0x3d14db4b	0.036341947
247	0xbd1cbd22	-0.03826631
248	0x3d20380f	0.03911596
249	0xbc49c048	-0.01231391
250	0xbca10786	-0.019656908
251	0x3d57445b	0.052555423
252	0x3cb408be	0.021976825
253	0xbd1f29b8	-0.038858145
254	0xbc48e10f	-0.012260689
255	0x3d21395b	0.03936134

2.bias f4 [128]
0	0xbd49fdf5	-0.049314458
1	0x3d45ad46	0.04826095
2	0x3cb0cf26	0.021583151
3	0x3d09ecfd	0.033673275
4	0xbd056ba4	-0.032573357
5	0xbd4ed87e	-0.05049943
6	0x3cb75a3b	0.022381892
7	0x3d3b378b	0.045707267
8	0xbcbbfe14	-0.022948302
9	0x3d0e8393	0.034793448
10	0x3c16b62e	0.009198708
11	0xbc07d2a3	-0.008289966
12	0xbd36ba04	-0.044610992
13	0xbb800171	-0.003906422
14	0xbd3667a5	-0.044532437
15	0xbd2e96b6	-0.042624198
16	0x3c2fa412	0.01072027
17	0x3bf131d1	0.007360675
18	0x3d322d03	0.043499958
19	0x3d65f7eb	0.056144636
20	0x3cc704d2	0.02429429
21	0xbc94d834	-0.0181695
22	0x3bc54f5d	0.0060214237
23	0xbd60b90f	-0.054863986
24	0x3cb44913	0.0220075
25	0x3d13125f	0.035906192
26	0xbd16aa0c	-0.036783263
27	0x3d81c92a	0.06337197
28	0xbd1a9e21	-0.03774846
29	0xbce4e1f2	-0.02793977
30	0xbd3320f2	-0.04373259
31	0x3b81d631	0.003962301
32	0xbca8652a	-0.020556051
33	0xbd5e2d00	-0.054242134
34	0x3cd1257a	0.025530566
35	0x3d22f8ea	0.039788164
36	0xbb1ef90d	-0.0024257333
37	0xbd65546b	-0.05598871
38	0xbc6af0e8	-0.014339663
39	0xbbfe90f0	-0.0077687427
40	0xbd5a206c	-0.053253576
41	0x3ce8fafa	0.028439987
42	0xbd24d1cf	-0.04023915
43	0xbb2f5ad7	-0.0026757026
44	0xbc84fe2a	-0.016234476
45	0x3d733298	0.05937442
46	0xbd7f3bc3	-0.062312853
47	0xbd0c538d	-0.034259368
48	0x3ac3bafa	0.0014933043
49	0xbd73573d	-0.05940937
50	0xbd23a20d	-0.039949466
51	0xbd5c3c66	-0.053768538
52	0x3c62d054	0.013843615
53	0xbd5c3f7e	-0.05377149
54	0xbba5c000	-0.0050582886
55	0xbd85238b	-0.0650092
56	0xbbbbb99c	-0.0057289135
57	0xbd417d35	-0.047238547
58	0x3d7820bf	0.060578104
59	0x3d5d5959	0.054040287
60	0x3d35d33c	0.044390902
61	0x3cc8a66c	0.024493419
62	0xbd1fd6da	-0.039023258
63	0xbcd6025e	-0.026124176
64	0xbd58d5b9	-0.052938197
65	0x3d3c3f63	0.045958888
66	0xbce9b023	-0.028526371
67	0x3d35d799	0.044395063
68	0xbd2309bc	-0.039804205
69	0x3ad55148	0.0016274834
70	0x3d882b7b	0.06648918
71	0xbd70de0b	-0.058805507
72	0xbc27ce2b	-0.010242025
73	0xbd262c9a	-0.04056988
74	0x3d0d1d06	0.034451507
75	0x3d11b148	0.03556946
76	0xbcfd16f3	-0.030894732
77	0x3c88b9d6	0.016690176
78	0xbc7fd8b9	-0.015615636
79	0xbd265196	-0.04060515
80	0xbd359d93	-0.044339728
81	0x3d3394d8	0.04384312
82	0x3d7c9f86	0.06167557
83	0x3cbf41b4	0.02334676
84	0xbc1e5103	-0.009662869
85	0x3c9f131a	0.019418288
86	0x3c2c8b44	0.01053125
87	0x3c89173e	0.016734716
88	0x3d05fb12	0.032710142
89	0xbd62a796	-0.055335604
90	0x3c542cc1	0.012950123
91	0xbd7adbd5	-0.061244804
92	0x3d07d09f	0.03315794
93	0x3d432c49	0.047649655
94	0x3d26a7f3	0.040687513
95	0x3d623d24	0.05523409
96	0x3c026a68	0.00795994
97	0xbcacaf56	-0.0210797
98	0xbd55616d	-0.052094866
99	0x3d5c4669	0.053778086
100	0x3d1b482e	0.037910633
101	0xbce68f95	-0.028144637
102	0xbc420dcc	-0.01184411
103	0x3d42883f	0.047493216
104	0x3c17a530	0.009255692
105	0x3d40b187	0.047044303
106	0xbcbace8a	-0.022803564
107	0xbb589077	-0.0033045092
108	0x3d28de6d	0.041227747
109	0xbd032485	-0.03201725
110	0xbd6fe9db	-0.05857263
111	0xbd0e8f0f	-0.0348044
112	0x3c9b0af0	0.018926114
113	0xbd14941c	-0.03627406
114	0x3d19699a	0.037454225
115	0x3c239e1d	0.009986428
116	0xbc0f2410	-0.008736625
117	0x3d1343cc	0.035953328
118	0xbc434099	-0.011917257
119	0xbcee531c	-0.029092364
120	0xbd124436	-0.035709582
121	0xbc9e8fc9	-0.019355671
122	0xbc973d99	-0.01846199
123	0xbc41d25a	-0.011829937
124	0x3d641130	0.055680454
125	0xbcc1d2d8	-0.023660108
126	0x3c8cf0f0	0.017204732
127	0xbd839f4c	-0.06426868

4.weight f4 [64, 128]
0	0xbd1c556a	-0.038167395
1	0x3d0ae251	0.03390724
2	0x3cfb2410	0.030656844
3	0x3b8b3bbb	0.004249064
4	0xbd80dfe2	-0.06292702
5	0xbd427b8a	-0.047481097
6	0xbd95094b	-0.07277163
7	0x3c9a87db	0.018863609
8	0x3c4f34e3	0.0126468865
9	0xbd324020	-0.043518186
10	0xbd8bab1d	-0.06819747
11	0xbc9293e5	-0.017892787
12	0xbca8567e	-0.020549055
13	0xbce692f7	-0.02814625
14	0x3d842049	0.064514704
15	0xbd34a02f	-0.044098075
16	0xbd3304a4	-0.043705598
17	0x3d897339	0.0671143
18	0x3d73bfcf	0.059509095
19	0xbd0e01c6	-0.03466966
20	0xbd85a7b2	-0.06526126
21	0x3d397734	0.045279697
22	0xbd152813	-0.03641517
23	0xbb1c6107	-0.0023861544
24	0xbb03eb1b	-0.0020129147
25	0xbd587b1e	-0.05285179
26	0x3da97331	0.08273924
27	0x3cb8d114	0.022560634
28	0xbc917f93	-0.017761027
29	0x3b9cb3d2	0.0047821784
30	0x3c4290f9	0.0118753845
31	0xbd8eff22	-0.069822565
32	0xbd9758d8	-0.073899925
33	0x3b590af6	0.0033118105
34	0x3d9ca138	0.076479375
35	0xbcd968f5	-0.026539305
36	0x3d642b16	0.055705152
37	0x3dac277b	0.08405968
38	0x3da4b81e	0.0804293
39	0xbd2f6cfe	-0.042828552
40	0xbc76e6e9	-0.015069702
41	0x3aed12e0	0.001808729
42	0x3cf31767	0.029674245
43	0x3d08b4d1	0.033375565
44	0x3d0d4f1a	0.034499265
45	0x3d86fa0e	0.06590663
46	0x3daf1168	0.08548242
47	0x3d62f196	0.055406176
48	0xbd7a40cc	-0.06109695
49	0xbcf2b9d1	-0.02962962
50	0xbd8cf83d	-0.06883285
51	0xbd0e8dd5	-0.03480323
52	0x3d4d190e	0.050072722
53	0xbd4ce99b	-0.05002747
54	0xbcc5bf2a	-0.024139006
55	0x3c382ff9	0.011241906
56	0x3daae005	0.083435096
57	0x3d1ffcc4	0.039059415
58	0xbd277aa0	-0.04088843
59	0x3bc633e7	0.0060486677
60	0x3d35409b	0.044251066
61	0xbd8a18cc	-0.06743011
62	0xbcbf6752	-0.023364697
63	0xbd8c6dfa	-0.06856914
64	0x3d95b88c	0.0731059
65	0x3da396f4	0.079877764
66	0x3c903480	0.017603159
67	0x3d9298d1	0.07158054
68	0x3d2045a9	0.039128933
69	0xbcae4828	-0.021274641
70	0xbd18179d	-0.037131894
71	0x3d7238d3	0.059136223
72	0x3d3a0df8	0.045423478
73	0x3d66f2d0	0.056383908
74	0xbda69237	-0.08133357
75	0x3d92bf6c	0.07165417
76	0xbda32b8f	-0.079672925
77	0xbd57c496	-0.052677713
78	0xbdaf69e5	-0.0856512
79	0x3db09aff	0.08623313
80	0x3c881726	0.0166126
81	0xbd9b983f	-0.07597398
82	0x3a413095	0.0007369605
83	0x3b93d307	0.0045112404
84	0x3dadbd97	0.08483427
85	0x3d12f389	0.035876784
86	0x3d9e8a93	0.07741275
87	0xbd0fde8e	-0.035124354
88	0x3d3147b4	0.043281272
89	0x3cc7c0fd	0.024384016
90	0x3c39c3f4	0.011338223
91	0x3d813f4a	0.063108996
92	0x3d35f93b	0.044427138
93	0x3d6cb674	0.05779119
94	0x3d490a9a	0.049082376
95	0x3ca8bef7	0.020598872
96	0x3c8ebf01	0.017425062
97	0x3bdbabbc	0.006703822
98	0xbd487dbe	-0.048948042
99	0xbd130376	-0.035891972
100	0x3cb3c6e3	0.021945423
101	0x3d52dedc	0.051482067
102	0x3d173e53	0.03692467
103	0x3b921e23	0.004459159
104	0x3cfabaf6	0.030606728
105	0x3c8f8a18	0.017521903
106	0xbdacc88f	-0.08436691
107	0xbd605fb4	-0.05477877
108	0x3c76369d	0.015027669
109	0x3ca96686	0.02067877
110	0x3da9268f	0.082593076
111	0x3d1672e3	0.03673066
112	0xbd3d72a4	-0.046251908
113	0x3d3b0935	0.045663077
114	0x3d464cbf	0.048413035
115	0xbd8d0a2d	-0.068867065
116	0x3d4bb834	0.049736217
117	0xbd44da89	-0.048059974
118	0x3bef3ded	0.0073010833
119	0x3d4aaacb	0.049479287
120	0x3c928951	0.017887743
121	0xbd31873b	-0.043341856
122	0x3d29f784	0.041495815
123	0xbdb08748	-0.08619553
124	0xbc593501	-0.013257266
125	0x3d4c5244	0.049883142
126	0x3d522454	0.051304176
127	0x3d99737d	0.07492731
128	0x3bf04839	0.0073328284
129	0x3da17a0f	0.07884609
130	0x3c00e6c0	0.007867515
131	0xbcd27a8e	-0.025693204
132	0xbd5308ed	-0.051522184
133	0xbdac3db7	-0.08410209
134	0xbd979c63	-0.07402875
135	0x3d663c1a	0.05620966
136	0x3cbbf6b0	0.022944778
137	0xbd35e2a6	-0.044405602
138	0xbd224870	-0.039619863
139	0xbd236cc2	-0.03989864
140	0xbd94ae8a	-0.07259853
141	0xbc37cca5	-0.011218225
142	0x3cc263eb	0.023729285
143	0x3cc92179	0.024552094
144	0xbdaa1d35	-0.08306352
145	0x3d5d3a27	0.054010537
146	0x3da40020	0.08007836
147	0xbd1c1b64	-0.03811206
148	0x3cba99d9	0.022778438
149	0xbd02b238	-0.031908244
150	0xbd4cbdad	-0.049985576
151	0x3d107df4	0.03527637
152	0x3c162dfa	0.009166235
153	0x3cb0c1e2	0.021576826
154	0x3d910f86	0.07083039
155	0xbda09b5e	-0.07842134
156	0x3d744bdf	0.05964267
157	0xbd4bdd9e	-0.049771897
158	0xbaa62061	-0.0012674445
159	0x3d3b4f18	0.045729727
160	0x3b546870	0.0032410882
161	0xbda60a1c	-0.08107397
162	0x3c197b7f	0.009367823
163	0xbcd2af5c	-0.025718383
164	0xbd9d04d2	-0.07666935
165	0xbd6462a0	-0.05575812
166	0xbda6fcb8	-0.08153671
167	0xbc8e1c26	-0.017347407
168	0xbd36b5fd	-0.04460715
169	0xbcd96a65	-0.02653999
170	0xbc8a586c	-0.016887866
171	0x3c55ab8d	0.013041389
172	0x3c244fac	0.010028761
173	0xbd7da88e	-0.061928324
174	0xbd2762cd	-0.04086571
175	0xbd780ea3	-0.060560834
176	0xbd8946f7	-0.067029886
177	0xbc9e9bc4	-0.019361384
178	0x3d1622f4	0.036654428
179	0x3d2f5f3e	0.04281544
180	0x3d390996	0.045175157
181	0x3c7ea741	0.015542806
182	0x3d35f1a0	0.044419885
183	0x3d477346	0.048693918
184	0x3d9c9362	0.076452985
185	0x3b8539b4	0.0040657166
186	0x3c29d958	0.01036676
187	0x3daa0ffb	0.08303829
188	0x3cff021d	0.031128937
189	0x3c3938ae	0.011305017
190	0xbd8b0df5	-0.067897715
191	0x3d698c61	0.05701864
192	0x3c9e5c22	0.019331042
193	0x3cc5ec84	0.024160631
194	0x3bfeb817	0.00777341
195	0x3d2bbf70	0.041930616
196	0xbcf6c544	-0.03012336
197	0x3c3c1aa6	0.011480963
198	0x3d07a54e	0.03311663
199	0xbd8f3b7a	-0.06993766
200	0xbc1c903a	-0.009555871
201	0xbda32654	-0.07966295
202	0xbcf7fe7d	-0.030272717
203	0xbd4d67de	-0.050147884
204	0x3d4f8dfc	0.050672516
205	0xbd3517bb	-0.044212084
206	0x3d96664b	0.073437296
207	0xbd325da5	-0.043546338
208	0x3d083f30	0.033263385
209	0xbd305b2a	-0.04305569
210	0xbbd8dd2a	-0.0066181617
211	0xbcf1e07c	-0.029525988
212	0xbcd49be5	-0.025953243
213	0xbbf293a9	-0.0074028564
214	0xba602a24	-0.00085512013
215	0xbdaa3cfb	-0.08312412
216	0xbc5c5825	-0.01344875
217	0x3d1218a7	0.03566804
218	0x3db8fee6	0.09032993
219	0xbd6d3ada	-0.057917453
220	0x3b34b4c3	0.0027573563
221	0xbcce08e8	-0.025150731
222	0x3d243544	0.04008986
223	0x3bd052cd	0.006357527
224	0xbd5a9c52	-0.053371735
225	0xbc897a9a	-0.016782094
226	0x3d1849a4	0.037179604
227	0x3cfa564d	0.03055873
228	0xbda89ae3	-0.08232667
229	0x3dac6630	0.08417928
230	0x3c6e1c24	0.014533076
231	0x3d99ffbe	0.07519482
232	0x3d964105	0.0733662
233	0xbd1427d8	-0.03617081
234	0xbd3bfb58	-0.045893997
235	0x3d22d96e	0.03975814
236	0xbd9484ed	-0.07251916
237	0x3db6788f	0.089097135
238	0x3c984b2c	0.018590532
239	0xbd80eaf9	-0.062948175
240	0x3da92aac	0.08260092
241	0xbd84edcf	-0.06490671
242	0xbc982e09	-0.018576639
243	0x3d9b3492	0.07578386
244	0xbda4edd6	-0.08053176
245	0xbcd45cca	-0.025923152
246	0xbda40794	-0.08009258
247	0x3d8a3064	0.06747511
248	0x3d8e7b19	0.06957073
249	0x3d8c00a8	0.06836063
250	0x3dab1287	0.08353143
251	0xbd132406	-0.035923027
252	0x3c825f8b	0.015914699
253	0xbd2b7d91	-0.041867796
254	0x3cdfa815	0.027301827
255	0xbda6502b	-0.081207596

4.bias f4 [64]
0	0x3d53c1b2	0.051698394
1	0xbd7b6996	-0.06137999
2	0xbbe0bcc4	-0.00685844
3	0x3b5fe8b4	0.0034165801
4	0xbd1f0c30	-0.038829982
5	0x3da3e621	0.08002878
6	0xbd3a6f94	-0.045516565
7	0x3d855bb3	0.06511631
8	0x3c929c26	0.017896723
9	0xbd85a40a	-0.065254286
10	0xbd677d04	-0.05651571
11	0x3d2b1fe5	0.041778464
12	0x3d93b6ec	0.07212624
13	0x3cbdb78a	0.023158807
14	0xbb65de50	-0.0035075136
15	0xbce166d0	-0.027514845
16	0xbcc74789	-0.024326103
17	0xbc2877be	-0.010282455
18	0x3cc66713	0.024219071
19	0x3d4150f7	0.047196355
20	0xbdb2b0b9	-0.087251134
21	0xbc78febe	-0.015197454
22	0xb99211dc	-0.00027860596
23	0xbd3235e9	-0.043508444
24	0xbdad3824	-0.084579736
25	0x3c244612	0.010026472
26	0x3b9fb3a5	0.00487371
27	0xbd402906	-0.046914123
28	0xbd6495f3	-0.055807065
29	0xbd930a56	-0.07179706
30	0x3d3f4585	0.04669716
31	0x3d9d52d3	0.07681813
32	0xbc1c0fe1	-0.00952527
33	0x3d97104e	0.07376157
34	0xbd8668d1	-0.06562961
35	0x3d3377aa	0.043815292
36	0x3d2c568d	0.04207473
37	0x3bc3ec55	0.0059791007
38	0x3d2d983b	0.042381506
39	0xbd8a418e	-0.06750785
40	0xbd774232	-0.060365863
41	0xbd7f0895	-0.062264044
42	0xbcd65604	-0.026164062
43	0xbd80fc81	-0.06298161
44	0x3d48257e	0.04886388
45	0x3d6a4e10	0.057203352
46	0xbd9f9aa6	-0.07793169
47	0xbdaa2a14	-0.08308807
48	0xbd9117b5	-0.070846
49	0xbdb8aa76	-0.09016888
50	0xbd9174a5	-0.07102326
51	0x3d24ea9e	0.04026281
52	0xbc734405	-0.01484776
53	0x3dae2d45	0.08504728
54	0x3d962e50	0.07333052
55	0xbd83f2d3	-0.064427994
56	0x3bfbc4a8	0.0076833554
57	0x3d711b0c	0.058863685
58	0xbc954a78	-0.018223986
59	0x3ca7bdc8	0.020476237
60	0xbd8489c4	-0.06471589
61	0xbd0f5c1f	-0.034999963
62	0xbb877425	-0.0041337186
63	0x3d3f9e7b	0.046781998

6.weight f4 [3, 64]
0	0xbde403c9	-0.111335345
1	0xbdb68256	-0.08911578
2	0xbd41fa57	-0.047357883
3	0x3d2458aa	0.04012362
4	0xbd879ecf	-0.06622087
5	0x3cd07916	0.025448363
6	0xbd88cfea	-0.066802815
7	0x3d9b514e	0.07583867
8	0x3deed9ca	0.11662634
9	0x3d4678dd	0.048455108
10	0xbc77e51a	-0.015130306
11	0xbd77591f	-0.060387727
12	0xbd27a429	-0.04092804
13	0xbd8163cf	-0.06317865
14	0xbd87cdb0	-0.06631029
15	0xbbcc21e0	-0.006229624
16	0xbdfae96c	-0.12251553
17	0xbd020c80	-0.031750202
18	0x3d33ff4b	0.04394464
19	0x3db8c69a	0.09022255
20	0x3ddf1ccc	0.108941644
21	0x3de5e506	0.112253234
22	0x3d53aa37	0.051676
23	0xbcf577fa	-0.029964436
24	0xbd3ee1f2	-0.046602197
25	0xbd5b6f95	-0.05357321
26	0x3d60fb88	0.05492738
27	0xbd79f2a4	-0.061022416
28	0x3d88b481	0.066750534
29	0xbddac586	-0.10682206
30	0x3db0b5a2	0.08628394
31	0xbd7e635c	-0.062106475
32	0xbc48ea95	-0.01226296
33	0xbd473681	-0.048635963
34	0x3df58d95	0.11989895
35	0x3dcff535	0.101541914
36	0x3afa7efd	0.0019111332
37	0x3d1a8b0a	0.037730254
38	0x3db52376	0.08844654
39	0xbd879047	-0.066193156
40	0x3c75c67d	0.015000937
41	0xbde0896a	-0.1096371
42	0xbdd7a4c6	-0.10529475
43	0x3daf669d	0.08564494
44	0x3daed757	0.085371666
45	0xbda7b218	-0.081882656
46	0xbdd5e786	-0.1044455
47	0x3dc744ff	0.09729957
48	0x3da73b45	0.08165602
49	0x3cb0af6d	0.021568025
50	0xbc231391	-0.009953395
51	0x3d9fa4da	0.07795115
52	0xbd9e178e	-0.077193365
53	0xbdcec289	-0.100956984
54	0xbd76eade	-0.06028258
55	0xbddbb95e	-0.10728715
56	0x3da07d45	0.07836393
57	0x3d88064c	0.06641826
58	0x3de14575	0.10999576
59	0xbd92a7d8	-0.0716092
60	0xbdb34d6a	-0.08755
61	0xbd5914eb	-0.052998465
62	0x3b51d3dd	0.003201715
63	0xbddee265	-0.10883025
64	0x3ca6cfe6	0.020362806
65	0x3da66186	0.0812407
66	0xbc5ae266	-0.013359642
67	0xbdad648e	-0.08466445
68	0xbd4324b2	-0.047642417
69	0x3da870ec	0.08224663
70	0xbd96c341	-0.073614605
71	0xbdf9afab	-0.12191709
72	0x3dbee8ed	0.09321771
73	0x3d75e860	0.060036063
74	0xbd614c8d	-0.055004645
75	0x3d435b43	0.047694456
76	0xbce11521	-0.027475895
77	0xbd4cd17b	-0.050004464
78	0xbdbe2dda	-0.09286089
79	0x3b6d4e60	0.0036210045
80	0xbd90d0a2	-0.070710436
81	0xbd6e3ed8	-0.0581654
82	0xbdcae29e	-0.09906505
83	0x3cf04179	0.029328095
84	0x3dcc7ad1	0.09984363
85	0x3dafe4d4	0.085885674
86	0xbd810aa3	-0.06300857
87	0xbcf63d53	-0.030058539
88	0x3d067884	0.032829776
89	0xbdc54d47	-0.0963388
90	0xbddbd2fa	-0.107336
91	0x3d1f384a	0.03887204
92	0xbd5b0976	-0.05347582
93	0x3b8c7afb	0.0042871214
94	0xbdc7a522	-0.097482935
95	0x3c9706b1	0.018435808
96	0xbdb6f80b	-0.08934029
97	0xbbc449fb	-0.0059902645
98	0x3de59e22	0.11211802
99	0x3c85997e	0.016308542
100	0x3c9b89d5	0.018986622
101	0x3d57fe11	0.05273253
102	0x3d01c3dd	0.03168093
103	0xbdbea6da	-0.09309168
104	0x3c9911c1	0.018685224
105	0xbda91bc2	-0.082572475
106	0x3b2fe23a	0.0026837722
107	0x3d8ed0d0	0.069734216
108	0x3daffa54	0.08592668
109	0x3d084fa9	0.033279095
110	0xbd6a9ce5	-0.057278533
111	0x3da78f22	0.08181597
112	0x3c031855	0.008001407
113	0x3ddd9fe2	0.10821511
114	0x3c66abdb	0.0140790595
115	0x3d8ddefd	0.06927297
116	0xbddf8cde	-0.1091554
117	0xbdc85fad	-0.09783874
118	0xbd2286e6	-0.03967943
119	0xbd85af18	-0.06527537
120	0x3d42157c	0.04738377
121	0xba284ad0	-0.00064198393
122	0xbe016d1c	-0.12639278
123	0x3d841d08	0.0645085
124	0xbde5de9f	-0.11224102
125	0xbd9df21b	-0.077121936
126	0x3d8d1165	0.06888083
127	0xbdac5e7b	-0.08416458
128	0xbc9f0aae	-0.019414272
129	0x3cc810bd	0.024422044
130	0xbdd16dde	-0.10226034
131	0x3de4b00d	0.111663915
132	0xbd98633c	-0.074408025
133	0x3bd17fda	0.006393415
134	0x3d0bb88c	0.034111544
135	0xbd214c88	-0.039379627
136	0x3dc761b5	0.09735433
137	0xbdb40e03	-0.08791735
138	0x3ca94bf9	0.02066611
139	0xbcddac7f	-0.027059792
140	0x3cce0577	0.02514909
141	0x3d866ab1	0.065633185
142	0x3d3d572c	0.04622571
143	0x3a90811a	0.0011024803
144	0xbd9d4637	-0.07679408
145	0x3da36463	0.079781316
146	0xbce5e85c	-0.0280649
147	0xbd3e5ec8	-0.04647711
148	0xbcfc8620	-0.030825675
149	0x3d1bd546	0.03804519
150	0xbdfcf4a1	-0.12351347
151	0x3cc1d86a	0.023662765
152	0xbd3ba3d3	-0.04581053
153	0xbd98e5c8	-0.07465702
154	0xbd9999f8	-0.0750007
155	0x3d8e52ef	0.06949412
156	0x3dc6fc9f	0.097161524
157	0xbd85ca02	-0.065326706
158	0x3da3f8d5	0.08006445
159	0xbd0e26df	-0.03470504
160	0xbd9a4300	-0.075323105
161	0xbd917692	-0.071026936
162	0x3cf35dad	0.029707754
163	0xbcd11e52	-0.025527153
164	0xbd98e9fe	-0.074665055
165	0xbd2d6b43	-0.04233862
166	0x3de66399	0.112494655
167	0xbd150cad	-0.03638904
168	0xbd81b1d1	-0.06332744
169	0xbd419235	-0.047258575
170	0x3d5543f4	0.05206676
171	0xbd3325b1	-0.043737117
172	0xbdd26670	-0.10273445
173	0xbd180aae	-0.03711956
174	0xbd20839d	-0.039188016
175	0x3debccea	0.11513694
176	0xbc0fb058	-0.008770071
177	0xbdd00c93	-0.10158648
178	0xbdcc9aac	-0.09990439
179	0x3cf4a1b0	0.029862255
180	0x3ddb7efb	0.10717579
181	0x3d27cbb8	0.040965766
182	0xbdfa3145	-0.12216429
183	0xbdb996f5	-0.09061996
184	0x3bbafddd	0.0057065324
185	0xbddd66f8	-0.10810655
186	0x3de03f49	0.10949571
187	0x3db0da7d	0.08635423
188	0xbc8926b5	-0.01674209
189	0x3d891419	0.066932864
190	0xbdb37d7d	-0.08764169
191	0x3d930685	0.07178978

6.bias f4 [3]
0	0xbd24cda2	-0.04023517
1	0x3db576cb	0.088605486
2	0x3cfb2a1d	0.03065973
