src/training/discrete_actor.pth (torch, 201492 bytes, 8 tensors)

0.weight f4 [256, 31]
-0.16828926 -0.10891038 -0.15289496 0.115782194 -0.029473582 0.102842644 -0.05797208 0.064796075
-0.13941126 -0.09634544 0.14153104 -0.11896242 -0.13005918 0.007532963 0.17233945 -0.04603197
-0.032224115 0.049132023 0.117944 -0.0030194756 0.008832521 -0.05815333 0.115283795 0.0744315
0.14031123 0.08559574 -0.033977006 -0.032302953 -0.15372802 -0.03482037 0.092701994 -0.09003675
0.16040428 -0.14514199 -0.027396688 0.10518248 -0.15349293 0.14777283 0.044374153 -0.023119574
-0.036565144 -0.03035054 0.14588043 -0.051316828 0.11258088 0.057789173 0.07801007 -0.039422877
0.120322146 -0.009432185 -0.17351021 0.16113687 0.16796392 0.109301366 -0.014075423 0.020706533
0.109913304 -0.17847493 0.009512268 0.15086895 0.01954749 0.12131266 0.10545433 -0.09031262
-0.09442633 -0.1419056 0.1291724 0.05391509 0.059178464 0.1358436 0.11330584 0.011294809
-0.17792055 -0.04744157 -0.10571486 -0.08354328 0.003544935 -0.13540317 -0.08514892 -0.102582574
0.13139158 0.10193618 0.05672665 0.112641096 0.10012889 -0.06964639 0.16331609 -0.13505681
0.16429853 -0.007721441 0.12691657 0.045229465 -0.035882294 0.09440138 -0.04687579 -0.09195925
0.016326113 -0.012309351 -0.04841423 0.095671736 0.08108748 0.08993478 -0.07813123 0.015896166
0.05342815 0.078586824 -0.030911498 0.08164123 -0.12929405 -0.02481734 0.16565889 -0.16065247
-0.083224155 -0.06735243 0.059968743 0.14529155 -0.14947398 -0.022728445 0.05686014 0.012812886
0.087729335 0.037193183 0.17658812 0.049202334 -0.15477112 0.0692317 0.02546931 -0.08079664
0.14310922 -0.17216678 0.035527434 -0.111961916 0.08338538 0.11743496 -0.05964104 0.031179024
0.14829652 0.01054381 -0.17888865 0.02285318 -0.05019033 -0.00939577 -0.07699199 0.14683475
-0.07590017 -0.14505157 0.124289535 -0.046458915 0.058414124 -0.08159532 0.06860839 0.022629678
-0.0868682 -0.17395774 0.01817145 -0.03913302 0.023369757 0.10235987 -0.13479425 -0.013731167
0.068869255 -0.15262827 0.0155063635 0.116498165 0.058281552 0.0708916 0.008225104 0.12123108
-0.04509631 -0.15855584 0.13141212 0.14146565 0.052372158 -0.0070454027 0.03299295 -0.16013514
-0.072319455 -0.12957068 0.03432239 -0.0023953347 -0.04871736 0.17468508 0.09669722 0.08391623
0.13740475 -0.029220702 -0.037823096 -0.16978784 -0.054378234 -0.06606934 -0.08823083 -0.14396402
0.09814605 -0.031806268 0.1616466 0.022354102 0.01169932 0.07251548 0.12016286 0.07466151
0.083423935 0.1761616 0.00033402676 -0.025019342 -0.124223776 0.13535777 -0.040772095 -0.046718962
0.096136324 0.011710375 -0.028897658 -0.120963134 0.1758151 0.06357552 0.05176831 -0.16788323
-0.0751837 -0.0004206946 0.14898393 -0.0057785427 0.061829332 0.16229126 -0.012127854 -0.1700554
-0.11710661 0.02367122 0.11532938 -0.007077773 -0.050481874 -0.13892522 -0.09766228 0.026447704
-0.13098343 0.13865432 0.13348447 0.043950714 0.093043834 -0.16501445 0.12002143 -0.15802003
0.030707741 -0.1789063 0.12943366 -0.16453606 0.01816719 -0.059402674 0.090252616 -0.16548131
-0.0641408 0.038067423 -0.13363703 -0.13928744 0.03185785 -0.02007449 0.14830752 0.12911561
00000000: 0554 2cbe 680c dfbd 7f90 1cbe 371f ed3d
00000010: 9572 f1bc 2a9f d23d 2274 6dbd ceb3 843d
00000020: d3c1 0ebe c250 c5bd 83ed 103e 92a2 f3bd
00000030: 3c2e 05be 13d7 f63b c179 303e 058c 3cbd
00000040: 6ffd 03bd a93e 493d a08c f13d 65e2 45bb
00000050: 47b6 103c 3032 6ebd e919 ec3d 8b6f 983d
00000060: bfad 0f3e d24c af3d 792b 0bbd 1a50 04bd
00000070: e16a 1dbe ce9f 0ebd 8bda bd3d 3065 b8bd
00000080: 0541 243e 1aa0 14be 056f e0bc e969 d73d
00000090: 402d 1dbe c351 173e acc1 353d 4365 bdbc
000000a0: 55c5 15bd b2a1 f8bc ae61 153e 9831 52bd
000000b0: ce90 e63d 57b4 6c3d bec3 9f3d e279 21bd
000000c0: 756b f63d 7489 1abc a9ac 31be 1001 253e
000000d0: bcfe 2b3e 65d9 df3d 9a9c 66bc bfa0 a93c
000000e0: 3a1a e13d 22c2 36be 58d9 1b3c 647d 1a3e
000000f0: 0f22 a03c c672 f83d 71f8 d73d d3f5 b8bd
00000100: 9762 c1bd b44f 11be c545 043e 12d6 5c3d
00000110: 1e65 723d 961a 0b3e e40c e83d dd0d 393c
00000120: ce30 36be 1752 42bd 0881 d8bd bd18 abbd
00000130: 2452 683b 21a7 0abe 8f62 aebd d016 d2bd
00000140: 848b 063e eac3 d03d 345a 683d 60b0 e63d
00000150: 6010 cd3d c4a2 8ebd 553c 273e 554c 0abe
00000160: e03d 283e 2404 fdbb 6bf6 013e 8842 393d
00000170: 50f9 12bd 8355 c13d d400 40bd 2255 bcbd
00000180: 57be 853c 29ad 49bc 004e 46bd 8bef c33d
00000190: 3111 a63d ba2f b83d 4403 a0bd ad38 823c
000001a0: 7ad7 5a3d 21f2 a03d 1c3a fdbc 8433 a73d
000001b0: a965 04be bc4d cbbc 7ca2 293e 1582 24be
000001c0: 6d71 aabd 12f0 89bd c9a1 753d 4fc7 143e
000001d0: b50f 19be 0131 babc 2ee6 683d 24ed 513c
000001e0: 70ab b33d e157 183d 84d3 343e 6388 493d
000001f0: 527c 1ebe 59c9 8d3d 04a5 d03c b578 a5bd
00000200: 398b 123e 7d4c 30be 3785 113d 4a4c e5bd
00000210: f4c5 aa3d be81 f03d 2a4a 74bd 276b ff3c
00000220: 0bdb 173e f2bf 2c3c 962e 37be 9836 bb3c
00000230: 6094 4dbd b7f0 19bc faad 9dbd d95b 163e
00000240: 8c71 9bbd 6688 14be 838b fe3d b44b 3ebd
00000250: a643 6f3d 721b a7bd 8e82 8c3d e061 b93c
00000260: f4e7 b1bd fa21 32be 4bdc 943c f249 20bd
00000270: ef71 bf3c 0da2 d13d 8107 0abe b0f8 60bc
00000280: 530b 8d3d 964a 1cbe 670e 7e3c 9796 ee3d
00000290: a3b8 6e3d 9d2f 913d 96c2 063c 0048 f83d
000002a0: e9b6 38bd 765c 22be e690 063e 5fdc 103e
000002b0: 3084 563d 1fdd e6bb 9e23 073d 77fa 23be
000002c0: 391c 94bd 2dae 04be a295 0c3d 0cfb 1cbb
000002d0: db8b 47bd a5e0 323e 3109 c63d 46dc ab3d
000002e0: d5b3 0c3e 4160 efbc 64ec 1abd dddc 2dbe
000002f0: b6bb 5ebd 5d4f 87bd 5eb2 b4bd 4e6b 13be
00000300: cc00 c93d 4a47 02bd b086 253e f31f b73c
00000310: 81ae 3f3c ff82 943d f217 f63d 22e8 983d
00000320: 2bda aa3d b563 343e 5020 af39 5df5 ccbc
00000330: 0969 febd 3a9b 0a3e a400 27bd 625c 3fbd
00000340: 1fe3 c43d dfdc 3f3c c8ba ecbc 85bb f7bd
00000350: e008 343e e233 823d 020b 543d 95e9 2bbe
00000360: e9f9 99bd ac90 dcb9 3e8f 183e ee59 bdbb
00000370: c140 7d3d ae2f 263e e8b3 46bc 0123 2ebe
00000380: 97d5 efbd 25ea c13c cf31 ec3d aaec e7bb
00000390: 15c6 4ebd 6a42 0ebe 2903 c8bd dba8 d83c
000003a0: 8520 06be 66fb 0d3e 27b0 083e aa05 343d
000003b0: c48d be3d 8cf9 28be cccd f53d 01d0 21be
000003c0: cd8e fb3c 3733 37be 428a 043e 247c 28be
000003d0: 5cd3 943c 3850 73bd 5dd6 b83d ef73 29be
000003e0: 405c 83bd 96ec 1b3d 25d8 08be 5ea1 0ebe
000003f0: 607d 023d 4273 a4bc eddd 173e e236 043e

0.bias f4 [256]
-0.06490159 -0.05853882 -0.12209009 -0.099964604 -0.09860785 0.061725207 -0.09224404 0.011958109
0.048738755 -0.050889876 -0.094012745 -0.028110204 0.050088767 0.04304261 0.14011578 -0.022186153
0.15976126 -0.043036126 -0.14284764 -0.09543647 0.010868524 0.09955506 0.18334542 -0.14643647
0.048521113 -0.052909084 -0.03736787 -0.17325518 0.14954832 0.17634425 -0.09645894 -0.12352279
-0.11690741 -0.08203249 -0.017433623 0.010617106 -0.062720194 -0.00020903544 0.021178916 -0.0462528
-0.0057386057 0.069906145 0.1945398 0.028912753 0.03471091 0.14066432 -0.081827976 0.1543498
-0.05964121 0.012129004 -0.03943472 -0.057152666 0.19262043 0.06238147 -0.083619535 0.12676136
0.021107394 -0.039851706 -0.14067456 -0.08615959 -0.14662613 -0.11928876 0.038190357 -0.112426
-0.010425675 -0.0927378 -0.10311762 0.18216215 -0.0040335236 0.047081962 0.07068811 -0.13688901
0.028676836 -0.023805201 0.1174609 0.02973942 0.11984374 -0.010874553 0.11703427 0.037320662
0.011518739 -0.030731874 0.17469002 -0.0071263434 -0.042433154 0.1718811 0.07957432 0.05292866
-0.010280931 0.09760721 -0.08125172 0.16039112 -0.09416694 -0.030397698 -0.009555101 -0.08689394
0.18947569 -0.11800934 -0.11662976 0.063585386 0.123378396 0.15809153 0.07835542 -0.109301984
-0.111176 -0.15110551 -0.03329856 0.09136202 -0.06846416 0.15362307 -0.1644852 -0.03216685
0.122265846 0.06656815 0.15701398 0.016928032 -0.047380675 0.009771242 0.12892766 0.066546544
-0.003898374 -0.08239969 0.060645323 -0.057554085 0.046043567 0.12245879 0.096902385 -0.13994369
0.024369912 -0.15780754 -0.005405384 -0.07714616 0.031081097 0.018500736 -0.0568459 0.1655576
0.09427621 0.12595423 -0.1768619 0.1604166 -0.09834272 2.9942603e-05 -0.099709615 -0.036418963
-0.046786223 0.15921506 0.13512827 0.06057811 0.17099428 -0.15791552 -0.13740933 -0.14582513
-0.009259835 0.08616701 -0.08843678 -0.10272407 -0.05016701 -0.057698816 0.08844916 -0.021733489
-0.08235805 -0.05424459 -0.011598438 -0.10377185 0.13105927 -0.066686176 -0.06431866 0.111839846
0.14805235 0.018590262 -0.04285866 -0.13485171 -0.18269128 0.09317577 -0.12040369 0.054823816
-0.14068599 0.09301264 -0.118032485 -0.044741683 -0.13565418 -0.02885229 0.11039525 0.045303438
0.12637988 0.14180574 -0.08334091 0.119896784 0.06700212 0.11097741 -0.06381682 -0.116275094
-0.0024312832 -0.061456487 -0.10175604 -0.016666293 0.05704349 -0.028256169 -0.10371929 0.17132072
0.10966538 -0.03076307 0.06466506 -0.026856909 -0.07756483 0.017950993 0.14654166 -0.006727849
0.032860555 0.16805881 0.052032154 -0.13108392 -0.14479369 -0.072965294 0.008132578 0.00015258286
0.061326522 -0.13197234 -0.08896018 0.119083606 -0.18405302 -0.114371955 0.117952675 0.03735515
-0.07337034 0.12601745 -0.060382508 0.06950913 -0.028931694 0.024636505 -0.054327838 0.093786955
0.055144925 0.18713151 -0.18411957 0.19422084 0.039323706 0.0016423668 0.13455905 0.061178766
-0.013114816 0.12334422 -0.13853098 -0.102901414 -0.008621584 -0.04131067 0.13543199 -0.0376648
0.15555732 0.16006155 -0.000979654 -0.1587252 -0.06857231 0.022778092 -0.07466141 0.18746561
00000000: 20eb 84bd 67c6 6fbd 5e0a fabd 3eba ccbd
00000010: eaf2 c9bd 92d3 7c3d 71ea bcbd f2eb 433c
00000020: 4aa2 473d e771 50bd c189 c0bd 5f47 e6bc
00000030: e129 4d3d 734d 303d 837a 0f3e bcbf b5bc
00000040: 7598 233e a646 30bd a746 12be 3274 c3bd
00000050: e511 323c 86e3 cb3d e7be 3b3e 71f3 15be
00000060: 13be 463d 32b7 58bd 0d0f 19bd ce69 31be
00000070: 3223 193e 9693 343e 448c c5bd 84f9 fcbd
00000080: 276d efbd a600 a8bd f5d0 8ebc 5ff3 2d3c
00000090: 7273 80bd 8630 5bb9 687f ad3c 9373 3dbd
000000a0: ea0a bcbb f42a 8f3d 7135 473e 70da ec3c
000000b0: 072d 0e3d 4f0a 103e 6d95 a7bd e00d 1e3e
000000c0: 574a 74bd bbb8 463c 4d86 21bd ea18 6abd
000000d0: 4a3e 453e b683 7f3d b840 abbd bbcd 013e
000000e0: 6ae9 ac3c 8b3b 23bd fe0c 10be 7074 b0bd
000000f0: 2925 16be aa4d f4bd 7e6d 1c3d 9a3f e6bd
00000100: 73d0 2abc 51ed bdbd 552f d3bd b788 3a3e
00000110: a62b 84bb 04d9 403d eec4 903d a22c 0cbe
00000120: afeb ea3c 2003 c3bc 578f f03d 16a0 f33c
00000130: a270 f53d 2e2b 32bc aaaf ef3d 8ddd 183d
00000140: 18b9 3c3c 69c1 fbbc f1e1 323e 1a84 e9bb
00000150: 63ce 2dbd 9901 303e dcf7 a23d b9cb 583d
00000160: 5a71 28bc 4ae6 c73d 4d67 a6bd 923d 243e
00000170: 99da c0bd 9804 f9bc 008d 1cbc 73f5 b1bd
00000180: ea05 423e e1ae f1bd 95db eebd 0e39 823d
00000190: d0ad fc3d bfe2 213e ce78 a03d b8d9 dfbd
000001a0: 3eb0 e3bd 67bb 1abe 1264 08bd 031c bb3d
000001b0: f036 8cbd 5e4f 1d3e cf6e 28be 63c1 03bd
000001c0: 8466 fa3d e254 883d 46c8 203e a8ac 8a3c
000001d0: 3d12 42bd 8f17 203c 9d05 043e 8e49 883d
000001e0: dd7b 7fbb 2bc1 a8bd 3b67 783d d5bd 6bbd
000001f0: 2e98 3c3d adcb fa3d c274 c63d 664d 0fbe
00000200: 69a3 c73c 4d98 21be a61f b1bb cefe 9dbd
00000210: c99d fe3c db8e 973c 3fd7 68bd ee87 293e
00000220: e313 c13d 25fa 003e 491b 35be 4044 243e
00000230: e867 c9bd 402d fb37 8e34 ccbd 0d2c 15bd
00000240: e9a2 3fbd 4609 233e 115f 0a3e c120 783d
00000250: 2019 2f3e 9bb4 21be 08b5 0cbe 2f53 15be
00000260: 90b6 17bc 5478 b03d 581e b5bd ff60 d2bd
00000270: ec7b 4dbd 9855 6cbd d524 b53d 6e0a b2bc
00000280: 56ab a8bd 932f 5ebd 6007 3ebc 5686 d4bd
00000290: 6734 063e c392 88bd 80b9 83bd 4a0c e53d
000002a0: 099b 173e 9b4a 983c 908c 2fbd 9116 0abe
000002b0: 6c13 3bbe f0d2 be3d 3696 f6bd f08e 603d
000002c0: fd0f 10be 697d be3d 04bb f1bd 0e43 37bd
000002d0: eee8 0abe a35b ecbc e816 e23d 1990 393d
000002e0: ba69 013e 8635 113e a4ae aabd 728c f53d
000002f0: 6838 893d 2048 e33d 65b2 82bd a321 eebd
00000300: 2a56 1fbb ccb9 7bbd 7865 d0bd c087 88bc
00000310: 6fa6 693d 7b79 e7bc c76a d4bd b36e 2f3e
00000320: 3e98 e03d d502 fcbc 1d6f 843d 0503 dcbc
00000330: 4fda 9ebd f60d 933c 040f 163e 4a75 dcbb
00000340: ca98 063d 9c17 2c3e ab1f 553d dd3a 06be
00000350: cc44 14be d46e 95bd 813e 053c a6fe 1f39
00000360: 8531 7b3d c223 07be c130 b6bd 1be2 f33d
00000370: 6578 3cbe d83b eabd 2c91 f13d b701 193d
00000380: 3043 96bd b80a 013e a653 77bd ce5a 8e3d
00000390: 2902 edbc 7fd2 c93c de86 5ebd 6013 c03d
000003a0: a5df 613d 679f 3f3e d789 3cbe d4e1 463e
000003b0: e511 213d af44 d73a d9c9 093e 9696 7a3d
000003c0: 86df 56bc e59b fc3d 11db 0dbe fabd d2bd
000003d0: 8b41 0dbc 6135 29bd afae 0a3e 6846 1abd
000003e0: 6b4a 1f3e 2de7 233e bc67 80ba dc88 22be
000003f0: a46f 8cbd 1f99 ba3c 15e8 98bd fcf6 3f3e

2.weight f4 [128, 256]
-2.7134989e-05 -0.008608372 0.007186969 0.020290509 0.02127109 -0.036320828 -0.019900428 0.05395405
-0.046758827 0.049920112 -0.016082067 -0.059636347 -0.045286026 -0.020553982 -0.008974864 0.024827685
0.05226848 -0.03958469 -0.046293527 -0.03493804 -0.029858332 0.013493922 0.037901174 0.015321001
0.02368424 0.0050611305 -0.0027784829 0.044210054 0.025902636 -0.044914987 0.001491707 -0.015901918
-0.054970987 -0.0056109545 0.013983134 -0.0007369182 -0.054580443 0.046076737 0.02151893 0.03087625
0.009799794 -0.052531835 -0.016256053 0.036520574 -0.029868577 0.043368217 -0.0297305 -0.034909207
0.032600667 -0.037954897 0.0054257354 0.018137777 0.011077434 -0.048607923 -0.017367858 -0.050011642
0.015363908 0.010476556 -0.014455291 0.009946668 -0.04806995 -0.038477745 -0.028152099 -0.04852892
0.010444756 -0.052947123 0.04073734 0.05622219 -0.045414373 -0.019096214 0.008431732 -0.037083894
-0.06436266 0.032122876 0.057821047 0.031325664 -0.017551426 0.05180792 0.0058562625 0.011281482
0.021299249 -0.0324704 -0.0015721292 0.005002336 0.053184282 -0.04829276 -0.0299911 0.039146584
-0.04366189 0.012222936 0.024886023 0.031755075 -0.03218919 -0.029190382 0.028412145 0.008902755
-0.01682124 -0.045672182 -0.050249226 0.01535 -0.02992441 0.047495745 -0.0565294 -0.0099860495
-0.053382825 -0.007150054 0.04927797 -0.007216696 0.06401008 0.040524267 -0.01949666 -0.02669196
0.001214471 -0.055077944 -0.033421483 -0.023109807 -0.026477965 -0.05785492 0.029548984 0.060564134
-0.025600089 0.050688937 -0.026907315 -0.06613091 -0.03840345 -0.028845027 -0.01640071 -0.04075558
-0.03199103 0.05086191 0.0045797555 0.010710408 -0.014396682 0.049227763 -0.018760573 0.011870383
-0.013764255 0.05556118 0.01597313 0.04989002 -0.032592986 -0.056504197 0.017445095 -0.023176406
-0.029414495 -0.037479296 0.056861583 0.050248805 -0.0043238825 -0.051580124 0.013936462 -0.03745862
0.04143919 0.046961866 -0.062347893 0.015486515 0.03569582 -0.024218088 0.035591584 -0.06098534
-0.030749707 -0.0055477396 0.037276372 0.03457931 -0.03100645 -0.053290606 -0.046610527 -0.026536815
-0.048572794 -0.031891454 -0.00083701324 0.030939495 0.00021469513 0.017428728 0.043205462 -0.0022532095
-0.055830814 -0.01000005 -0.06374424 -0.00015981514 -0.049968988 0.06005334 -0.055427797 -0.009936471
-0.0059485342 0.007975828 0.044467237 0.046514597 0.060550172 0.017266652 0.015499482 0.025141282
-0.0070052478 -0.057972785 0.014797629 -0.058344245 -0.030447705 -0.036999144 0.027446013 0.011817732
-0.03929695 0.012176331 -0.01153037 -0.015596757 0.014382802 0.006067311 0.02381926 -0.009831427
-0.0033346019 0.01953342 -0.04567214 -0.03445484 0.0077075656 -0.0072623193 -0.051271517 0.040059373
0.008501425 0.03268557 -0.040008392 0.009665959 0.01826343 -0.05968356 0.023595992 0.033253845
-0.013640609 -0.008911825 -0.04770763 -0.016377807 -0.029775862 0.05662974 0.035217736 -0.010864423
0.037251014 -0.003940441 0.052779656 -0.05135896 0.031598758 0.0021596164 0.017597895 0.0019347019
-0.0059210416 0.036434818 -0.02506568 0.036302976 -0.041505475 0.014562157 0.00647996 -0.048411272
0.016442904 0.032360576 -0.028073125 0.06372506 0.018755399 -0.060480867 0.039013475 0.04168161
00000000: f29f e3b7 210a 0dbc aa80 eb3b 4838 a63c
00000010: b540 ae3c 26c5 14bd 3906 a3bc ecfe 5c3d
00000020: 2f86 3fbd 0879 4c3d 8abe 83bc 3e45 74bd
00000030: d77d 39bd d360 a8bc 4f0b 13bc 6e63 cb3c
00000040: 7917 563d 8e23 22bd 489e 3dbd 311b 0fbd
00000050: 7699 f4bc 9c15 5d3c 433e 1b3d f004 7b3c
00000060: 7405 c23c d7d7 a53b 3517 36bb 9a15 353d
00000070: c431 d43c c7f8 37bd 6285 c33a bd44 82bc
00000080: 4229 61bd 19dc b7bb 8419 653c be2d 41ba
00000090: be8f 5fbd f6ba 3c3d 7848 b03c 30f0 fc3c
000000a0: 518f 203c 9f2b 57bd 6a2b 85bc 9996 153d
000000b0: f2ae f4bc dfa2 313d 618d f3bc f5fc 0ebd
000000c0: 4788 053d 9876 1bbd 5eca b13b ad95 943c
000000d0: 207e 353c 1a19 47bd 0a47 8ebc 02d9 4cbd
000000e0: e7b8 7b3c dca5 2b3c e3d5 6cbc 59f7 223c
000000f0: ffe4 44bd d79a 1dbd 3b9f e6bc 43c6 46bd
00000100: 7b20 2b3c 15df 58bd 32dc 263d 3d49 663d
00000110: 6c04 3abd aa6f 9cbc 3f25 0a3c 48e5 17bd
00000120: 92d0 83bd 4793 033d c3d5 6c3d 574f 003d
00000130: 02c8 8fbc 8b34 543d e4e5 bf3b f7d5 383c
00000140: c37b ae3c afff 04bd e70f ceba a3ea a33b
00000150: c3d7 593d a1ce 45bd e5af f5bc 2b58 203d
00000160: cfd6 32bd b642 483c c6dd cb3c 9c11 023d
00000170: d0d8 03bd ab20 efbc 96c0 e83c dcdc 113c
00000180: b2cc 89bc c112 3bbd 22d2 4dbd 917e 7b3c
00000190: 0924 f5bc e68a 423d 5f8b 67bd 879c 23bc
000001a0: f3a7 5abd 004b eabb b2d7 493d 097a ecbb
000001b0: b817 833d c6fc 253d 76b7 9fbc 19a9 dabc
000001c0: e22e 9f3a 6999 61bd f7e4 08bd c750 bdbc
000001d0: 51e8 d8bc 48f9 6cbd b610 f23c 1912 783d
000001e0: 47b7 d1bc 349f 4f3d bb6c dcbc a46f 87bd
000001f0: f04c 1dbd 684c ecbc c85a 86bc 53ef 26bd
00000200: 0709 03bd 9454 503d c611 963b b57a 2f3c
00000210: 10e0 6bbc 0da3 493d c6af 99bc ff7b 423c
00000220: 7883 61bc 1f94 633d 15da 823c 7a59 4c3d
00000230: 3980 05bd f270 67bd 04e9 8e3c 72dc bdbc
00000240: abf6 f0bc e483 19bd b1e7 683d b1d1 4d3d
00000250: 5baf 8dbb ae45 53bd c255 643c 366e 19bd
00000260: 24bc 293d 165b 403d 8160 7fbd 27bb 7d3c
00000270: c835 123d 0365 c6bc 7bc8 113d c4cb 79bd
00000280: cfe6 fbbc d0c9 b5bb 1caf 183d 09a3 0d3d
00000290: 3d01 febc 4047 5abd aeea 3ebd bc63 d9bc
000002a0: 44f4 46bd 9da0 02bd 026b 5bba d374 fd3c
000002b0: c91f 6139 b1c6 8e3c 36f8 303d 95aa 13bb
000002c0: daae 64bd 40d7 23bc 578c 82bd 0d94 27b9
000002d0: 48ac 4cbd 7efa 753d 4208 63bd 94cc 22bc
000002e0: eceb c2bb 0cad 023c 4723 363d 1786 3e3d
000002f0: 7503 783d cb72 8d3c 8af1 7d3c 17f5 cd3c
00000300: 478c e5bb df74 6dbd c171 723c 60fa 6ebd
00000310: 776d f9bc 6a8c 17bd 76d6 e03c 299f 413c
00000320: d7f5 20bd 3c7f 473c e1e9 3cbc 8a89 7fbc
00000330: d8a5 6b3c 4bd0 c63b 9c20 c33c fe13 21bc
00000340: 5689 5abb 8d04 a03c b612 3bbd 8520 0dbd
00000350: bf8f fc3b c0f8 edbb 1502 52bd 4c15 243d
00000360: 9049 0b3c 4ee1 053d d7df 23bd f85d 1e3c
00000370: 309d 953c c076 74bd 624c c13c 2f35 083d
00000380: dc7c 5fbc e702 12bc 1369 43bd c02a 86bc
00000390: 82ec f3bc 96f4 673d 7940 103d b100 32bc
000003a0: 8594 183d d11e 81bb 7b2f 583d c65d 52bd
000003b0: b36d 013d 5a88 0d3b 7629 903c d395 fd3a
000003c0: 4c05 c2bb ad3c 153d 8a56 cdbc 6eb2 143d
000003d0: a501 2abd 1d96 6e3c d855 d43b e64a 46bd
000003e0: 45b3 863c 868c 043d 9cf9 e5bc 4982 823d
000003f0: eca4 993c c9ba 77bd 98cc 1f3d 56ba 2a3d

2.bias f4 [128]
0.041657 -0.0499184 0.060811475 0.073801324 -0.007846624 0.015840376 -0.046470556 -0.0014967179
-0.028902443 -0.027948009 -0.021360835 -0.03048248 -0.0031034714 -0.033416446 0.0113221 0.062812306
-0.060169406 0.009787574 0.031848777 -0.018081762 -0.05838789 0.024534432 0.027960578 0.047588658
-0.025133034 0.057335958 -0.01345077 0.0008759069 -0.017588245 0.07613446 0.05282227 -0.072608046
0.0018052736 -0.002648612 0.015653566 0.056865823 -0.057038527 -0.032597225 -0.037334528 -0.0072700456
0.0014804559 0.049533878 0.03346179 0.020954482 -0.015592899 -0.011049695 0.032288168 -0.018152008
0.0041306433 0.01011241 -0.035412107 -0.031690937 0.045577515 0.05230006 0.025477646 -0.013841481
0.03363682 0.06836911 0.034451954 -0.012754899 -0.011641735 0.025982548 0.04193324 0.013579986
-0.008645751 0.019246235 -0.028822144 0.026422603 0.03636514 -0.02816801 0.06317132 0.0030811923
0.031556454 0.044929925 -0.055010963 -0.045897733 0.04335479 -0.035310224 0.044904612 0.023280423
-0.013118383 -0.044596132 0.03142476 0.0021759288 -0.065570995 0.047332868 0.053339027 0.039383538
-0.021658916 -0.012957579 0.016171314 0.0023019142 -0.04877548 0.03044811 0.0709827 -0.0030651211
-0.02475028 -0.013909346 -0.07350428 -0.039673295 0.055203892 -0.025646668 0.03592978 -0.029038876
0.07270228 -0.006046808 -0.034664642 -0.00030989374 0.051293645 0.0027841213 0.027155679 0.02235689
0.023521453 -0.016137743 0.04583128 0.042074874 0.04336412 -0.0027024841 -0.05115693 -0.008291948
0.009036991 0.018680891 0.020299291 -0.022008812 -0.026315276 -0.0049919835 0.027292132 0.012192703
00000000: 88a0 2a3d 3c77 4cbd 7415 793d 2625 973d
00000010: 208f 00bc adc3 813c e957 3ebd 852d c4ba
00000020: d1c4 ecbc 39f3 e4bc ebfc aebc 65b6 f9bc
00000030: 9c63 4bbb afdf 08bd 5480 393c bda3 803d
00000040: 3274 76bd 105c 203c dd73 023d 3420 94bc
00000050: 2428 6fbd 6ffc c83c 950d e53c 53ec 423d
00000060: cbe3 cdbc 1cd9 6a3d 9e60 5cbc 1e9d 653a
00000070: 3915 90bc 62ec 9b3d 2a5c 583d 87b3 94bd
00000080: ee9e ec3a 5694 2dbb e83b 803c 23ec 683d
00000090: 3ba1 69bd ab84 05bd 17ec 18bd 9039 eebb
000000a0: db0b c23a 09e4 4a3d 3b0f 093d bca8 ab3c
000000b0: 5c79 7fbc c809 35bc 9940 043d 85b3 94bc
000000c0: 595a 873b 86ae 253c 490c 11bd 5bce 01bd
000000d0: 7daf 3a3d 9638 563d 7fb6 d03c 61c7 62bc
000000e0: c3c6 093d 1b05 8c3d 7e1d 0d3d edf9 50bc
000000f0: fabc 3ebc 5ad9 d43c 30c2 2b3d 977e 5e3c
00000100: e8a6 0dbc 48aa 9d3c 6b1c ecbc 3774 d83c
00000110: 9df3 143d 99c0 e6bc f75f 813d d4ed 493b
00000120: 5741 013d 7108 383d 2d53 61bd 43ff 3bbd
00000130: cb94 313d 74a1 10bd e6ed 373d 96b6 be3c
00000140: 7cee 56bc 6faa 36bd 40b7 003d 079a 0e3b
00000150: 164a 86bd 1ce0 413d 067a 5a3d a250 213d
00000160: 0a6e b1bc 074c 54bc b479 843c b6db 163b
00000170: ccc8 47bd 516e f93c 615f 913d 33e0 48bb
00000180: 19c1 cabc 07e4 63bc 6989 96bd 7780 22bd
00000190: 7a1d 623d f618 d2bc 1b2b 133d f0e2 edbc
000001a0: efe4 943d 4d24 c6bb 83fc 0dbd 3c79 a2b9
000001b0: 4919 523d ce75 363b 9675 de3c cc25 b73c
000001c0: 10b0 c03c 4d33 84bc 95b9 3b3d b456 2c3d
000001d0: 939e 313d 291c 31bb ee89 51bd f3da 07bc
000001e0: e30f 143c ab08 993c b34a a63c d34b b4bc
000001f0: 2293 d7bc cb93 a3bb c093 df3c e7c3 473c

4.weight f4 [64, 128]
-0.028031487 0.048005026 -0.025079055 -0.0049324646 0.106320985 0.038931623 -0.02151122 -0.0905141
0.06317322 -0.0054884823 0.061883975 0.10488969 0.07462911 -0.018798284 0.10490048 -0.04908323
-0.038381487 0.0005102515 -0.06021477 0.06576577 0.024088806 -0.036686223 -0.025535908 0.024247345
-0.028770791 0.02311664 -0.04376742 0.052849602 -0.058086317 0.039625857 -0.06626854 -0.09864473
-0.010934128 -0.023379197 0.039088894 0.021046605 -0.015648738 -0.03664073 0.060826834 0.0064596925
0.051943623 0.038475 -0.004513671 -0.058914702 0.054431856 0.0892673 -0.06623281 0.053584967
0.05890432 -0.007803505 0.09486239 -0.002437239 0.10339723 -0.007284213 -0.024347724 0.056557894
0.036369666 -0.016647775 -0.039120644 -0.06466319 -0.047225103 0.11138427 -0.028512951 0.11034856
-0.024435928 -0.006928413 8.087023e-05 0.001301521 0.0570561 0.028280454 0.034707505 -0.025421986
0.056394078 -0.027591178 -0.0843525 0.029257523 0.10031478 -0.08278343 -0.0036877084 0.04792785
-0.041141566 0.055918097 0.021104462 -0.092134014 -0.095176 -0.083175294 -0.0251465 0.08771878
0.0046699885 0.08657204 0.0040527927 -0.07933468 0.012504508 0.07432822 -0.005375192 0.07730086
-0.021007823 0.006176463 -0.08765848 -0.059456207 0.018036416 -0.00050281425 0.0424005 -0.0391508
-0.023662785 0.043263692 0.030751366 -0.0066091036 -0.020339435 0.0647917 -0.0024575929 0.045142192
0.044905677 -0.017655239 0.043590736 -0.061182372 0.022008061 -0.0064394935 0.0037263809 0.060723346
-0.016691705 0.09686256 0.03582745 -0.036837544 -0.08688413 0.020424804 -0.061800107 -0.066439606
-0.021374905 -0.055546604 -0.0029491656 -0.09495383 0.070770524 -0.05701194 -0.057792455 0.046428554
-0.034060735 0.06451761 -0.08083733 -0.043673966 -0.054780304 0.008987867 0.07268656 -0.08631589
0.0034842594 0.060202826 -0.07941721 -0.08106833 0.007193923 0.030227091 -0.033441346 0.06465172
0.04094622 -0.010712479 -0.012003274 0.03860201 -0.011733039 0.038703505 -0.023185426 0.01316479
-0.04839081 -0.06369061 -0.022185447 -0.043413933 0.04511813 -0.046808623 0.027132412 -0.05265231
0.025215968 -0.020356365 -0.021765335 0.012981068 -0.02192593 -0.036960345 -0.029196441 0.09417651
-0.0005484008 0.0067369463 0.012791067 0.04913491 0.020933472 -0.036997925 -0.0624817 0.05452651
0.03707762 -0.03646347 -0.07219638 0.0054439534 -0.048341338 0.07172634 -0.028889311 0.017134976
-0.020328006 0.026278518 0.011312717 0.020401765 0.04054615 -0.0626707 -0.098087 -0.058422886
-0.023993539 -0.06347248 -0.055671606 0.06665721 -0.09531067 -0.017214471 -0.045720976 0.06943239
-0.017498786 -0.052974116 0.07663611 0.027609818 -0.030401405 0.07022354 0.057456378 0.02264055
0.014185462 -0.09389427 -0.021129664 -0.060334202 0.0026460432 -0.04972425 -0.08254526 0.017814726
0.08346787 0.023787327 -0.0072860285 -0.05496989 0.054394886 -0.011010096 0.036488555 0.08754623
0.038694628 0.06418982 0.033791825 0.026503256 0.022317328 -0.015766954 0.0641701 0.022859436
-0.024910064 -0.04415875 0.04023306 0.05258792 0.094230905 -0.05619084 -0.027182031 -0.076493375
0.02954934 -0.05408627 -0.009244779 0.034600955 0.09598297 0.06674727 0.04784849 0.024944494
00000000: 4aa2 e5bc eba0 443d 9772 cdbc 83a0 a1bb
00000010: d1be d93d c476 1f3d 4c38 b0bc 755f b9bd
00000020: f660 813d bad8 b3bb 0d7a 7d3d 68d0 d63d
00000030: 26d7 983d dcfe 99bc 10d6 d63d 7f0b 49bd
00000040: e835 1dbd 66c2 053a c3a3 76bd 34b0 863d
00000050: e355 c53c 4b44 16bd ae30 d1bc 5ea2 c63c
00000060: b9b0 ebbc 1c5f bd3c 7745 33bd d378 583d
00000070: ebeb 6dbd b94e 223d cdb7 87bd 4006 cabd
00000080: 0f25 33bc bb85 bfbc ad1b 203d ee69 ac3c
00000090: c831 80bc 9714 16bd 8f25 793d d4ab d33b
000000a0: d6c2 543d f697 1d3d 6be7 93bb 8b50 71bd
000000b0: f0f3 5e3d c6d1 b63d 11a5 87bd e97b 5b3d
000000c0: a845 713d 8bb4 ffbb 3647 c23d 16ba 1fbb
000000d0: edc1 d33d 68b0 eebb e174 c7bc 40a9 673d
000000e0: 5cf8 143d ea60 88bc f83c 20bd 226e 84bd
000000f0: 1c6f 41bd 701d e43d fe93 e9bc 6dfe e13d
00000100: db2d c8bc be07 e3bb e098 a938 cc97 aa3a
00000110: a8b3 693d 69ac e73c 7529 0e3d c541 d0bc
00000120: 7afd 663d e506 e2bc 01c1 acbd 79ad ef3c
00000130: d671 cd3d 5c8a a9bd 7bad 71bb fe4f 443d
00000140: 0f84 28bd 600a 653d 44e3 ac3c c2b0 bcbd
00000150: a2eb c2bd cf57 aabd 0800 cebc e7a5 b33d
00000160: b406 993b af4c b13d 4acd 843b 397a a2bd
00000170: b5df 4c3c 6539 983d 6122 b0bb ea4f 9e3d
00000180: 9918 acbc ed63 ca3b 4a86 b3bd 5a88 73bd
00000190: 1bc1 933c 4bcf 03ba 26ac 2d3d 975c 20bd
000001a0: 75d8 c1bc 4535 313d 4aea fb3c 2e91 d8bb
000001b0: e39e a6bc 83b1 843d 910f 21bb 05e7 383d
000001c0: 04ef 373d b8a1 90bc 338c 323d 5e9a 7abd
000001d0: 404a b43c 6302 d3bb 4c36 743b 0bb9 783d
000001e0: 0bbd 88bc e15f c63d cebf 123d f7e2 16bd
000001f0: 4ff0 b1bd eb51 a73c 1c22 7dbd 7d11 88bd
00000200: 6d1a afbc d684 63bd ca46 41bb 2777 c2bd
00000210: 23f0 903d 5a85 69bd c8b7 6cbd de2b 3e3d
00000220: 4583 0bbd cf21 843d 0b8e a5bd 79e3 32bd
00000230: 5061 60bd d941 133c b1dc 943d 63c6 b0bd
00000240: 2c58 643b 3d97 763d 7da5 a2bd 2707 a6bd
00000250: 00bb eb3b ce9e f73c cbf9 08bd 1f68 843d
00000260: 39b7 273d 6583 2fbc 61a9 44bc 241d 1e3d
00000270: ef3b 40bc 9187 1e3d 5def bdbc 22b1 573c
00000280: 7135 46bd 3970 82bd 41be b5bc cfd2 31bd
00000290: cacd 383d 66ba 3fbd cb44 de3c f3a9 57bd
000002a0: b891 ce3c 64c2 a6bc 374d b2bc 8cae 543c
000002b0: 029e b3bc bb63 17bd 602d efbc 9ddf c03d
000002c0: 8ec2 0fba 9ac1 dc3b a091 513c b041 493d
000002d0: ac7c ab3c 238b 17bd d0ec 7fbd 3157 5f3d
000002e0: b4de 173d b85a 15bd b2db 93bd 3163 b23b
000002f0: 9101 46bd 42e5 923d 47a9 ecbc a65e 8c3c
00000300: eb86 a6bc 0c46 d73c f958 393c 9a21 a73c
00000310: b813 263d 7f59 80bd d6e1 c8bd d64c 6fbd
00000320: 198e c4bc dcfd 81bd e907 64bd 9383 883d
00000330: 3e32 c3bd 5d05 8dbc eb45 3bbd 9232 8e3d
00000340: 9d59 8fbc 63fb 58bd 65f3 9c3d fc2d e23c
00000350: 5e0c f9bc 5cd1 8f3d 6157 6b3d ad78 b93c
00000360: 246a 683c a44b c0bd 1e18 adbc ff20 77bd
00000370: 3d69 2d3b a8ab 4bbd 7d0d a9bd 30f0 913c
00000380: 34f1 aa3d a4dd c23c a3bf eebb 1b28 61bd
00000390: 2ccd 5e3d b163 34bc 0675 153d 704b b33d
000003a0: 427e 1e3d f475 833d 4c69 0a3d 5b1d d93c
000003b0: d4d2 b63c b329 81bc 9d6b 833d b643 bb3c
000003c0: 3110 ccbc cedf 34bd 6ccb 243d 6e66 573d
000003d0: 22fc c03d 5e28 66bd daac debc 8fa8 9cbd
000003e0: 7511 f23c 9189 5dbd 6a77 17bc bbb9 0d3d
000003f0: b892 c43d cbb2 883d c7fc 433d 6558 cc3c

4.bias f4 [64]
0.10407416 -0.05488781 -0.04217014 0.01858622 0.08425255 0.08916665 -0.06719998 -0.09710902
0.07895869 -0.061842613 0.026403362 -0.053939242 0.016177017 0.07599556 -0.08897704 -0.06342676
0.045526538 0.0024912802 0.08030766 0.05447019 0.0053452807 -0.034798488 0.037373062 0.031233598
-0.070815966 0.0626287 -0.010188301 0.10756876 -0.06771228 0.06239129 -0.091469444 -0.015969267
-0.013962735 0.030783894 -0.03130228 -0.0419519 -0.0074986736 -0.060468238 -0.06045384 -0.026152305
0.074829146 -0.02665661 0.0012658858 -0.026004912 -0.08907015 -0.061437365 0.016630093 0.07061089
-0.008756826 0.07050234 0.05523039 0.018799521 0.0187388 -0.017306246 0.07707247 0.04715107
0.01522375 0.057818435 -0.0023605241 0.10950609 -0.034415636 0.00482666 0.023944763 -0.06612071
00000000: d524 d53d 0ad2 60bd 99ba 2cbd 2142 983c
00000010: 9a8c ac3d 019d b63d 25a0 89bd 18e1 c6bd
00000020: 18b5 a13d ae4e 7dbd dd4b d83c 65ef 5cbd
00000030: aa85 843c 8fa3 9b3d 9839 b6bd e4e5 81bd
00000040: 097a 3a3d bf44 233b 5878 a43d 221c 5f3d
00000050: 7727 af3b dc88 0ebd 7f14 193d 9add ff3c
00000060: f607 91bd 7a43 803d d5ec 26bc 034d dc3d
00000070: bcac 8abd 028e 7f3d 5554 bbbd fbd1 82bc
00000080: f5c3 64bc 812e fc3c d236 00bd c1d5 2bbd
00000090: 6fb7 f5bb 8bad 77bd 729e 77bd 5c3d d6bc
000000a0: 0640 993d f75e dabc 14ec a53a 4108 d5bc
000000b0: 696a b6bd bfa5 7bbd d53b 883c 719c 903d
000000c0: ca78 0fbc 8863 903d 4339 623d 7401 9a3c
000000d0: 1d82 993c d4c5 8dbc 2cd8 9d3d 7b21 413d
000000e0: 096d 793c 06d3 6c3d 06b3 1abb bb44 e03d
000000f0: 69f7 0cbd f528 9e3b cf27 c43c 4b6a 87bd

6.weight f4 [3, 64]
0.09160165 -0.07596042 0.06833695 0.114892416 -0.0598633 0.11672161 0.011366863 -0.12829307
0.01842796 0.050968565 -0.07980558 0.021867359 -0.0035107683 0.062072504 -0.10513957 -0.081223816
-0.09336335 0.029333815 0.031501472 0.09002134 -0.07447779 -0.013913399 -0.02816079 -0.043710817
-0.087330915 0.05614095 0.08410407 0.14533469 0.0142475935 -0.10095078 -0.10073741 0.036620807
-0.018012319 -0.082646266 0.043573916 0.09809874 -0.080427356 -0.04860256 -0.1236886 0.10150542
-0.015447531 -0.09579634 0.12341989 -0.012290645 -0.064645216 -0.078251876 0.0032288318 0.08329908
-0.09900764 0.07271897 0.024814071 -0.06152352 -0.032475777 -0.11090953 -0.023997275 -0.10732074
-0.14169493 0.08374813 0.105753936 0.13485359 -0.0037234807 0.10257094 -0.022592882 -0.11651504
0.018435271 0.13458589 0.052336738 0.030425167 -0.0486503 0.01176201 0.039597567 0.103524916
0.10728677 -0.10945982 -0.041813586 -0.032452945 -0.008610197 -0.09656304 0.05513925 -0.085439086
-0.109213784 0.012754896 0.07192557 -0.005837536 -0.1038293 0.03170564 -0.053267006 0.014458418
0.12224961 0.071112044 0.105938636 -0.052624922 -0.089702964 -0.0044523044 -0.08160614 0.008704417
0.0016460145 -0.08608797 0.004878884 0.10955301 -0.002765081 0.029028673 0.0134459855 0.012443665
0.067684874 0.10501397 0.040660996 -0.09447478 -0.06529814 0.11175576 0.11906301 -0.031582452
-0.039899718 -0.06580492 -0.11163117 0.060280457 -0.085865825 -0.016461644 -0.08784556 0.08126883
-0.014320997 0.053881917 0.0614691 -0.011254339 0.0929468 0.07033251 0.09553509 -0.043864388
-0.0069448734 0.014581506 0.01765746 -0.119944945 0.040522486 0.019712426 0.1008948 0.12802427
0.012925263 0.1297542 0.018015837 0.067956954 -0.070937775 -0.06920836 -0.037697054 0.07533827
-0.0050249402 -0.0077148997 -0.102226935 0.054846972 -0.07681977 -0.07807743 -0.040102895 -0.10776506
0.07888415 0.103221476 0.119826905 -0.11468891 -0.039672952 -0.05081609 0.08239347 0.05826113
0.0021945552 -0.11135601 -0.022801653 0.06299667 -0.0044552786 -0.01338665 0.025207028 -0.019946683
0.01720488 0.028016869 0.118739806 -0.093458824 0.032173827 -0.0076278923 0.09308104 -0.0074447296
-0.07494508 0.0018430429 -0.12549414 0.0077613653 0.1095119 -0.11255298 0.013655206 0.048033338
0.0940456 -0.031468663 -0.05673793 -0.053727556 0.06246579 -0.027072469 -0.09797432 -0.08464251
00000000: a599 bb3d 2391 9bbd 3ef4 8b3d b74c eb3d
00000010: 3833 75bd bd0b ef3d 143c 3a3c 425f 03be
00000020: 3cf6 963c 6ac4 503d 1c71 a3bd 2d23 b33c
00000030: eb14 66bb bd3f 7e3d 6a53 d7bd ac58 a6bd
00000040: 4935 bfbd 784d f03c b007 013d 1c5d b83d
00000050: d087 98bd 06f5 63bc 75b1 e6bc 1d0a 33bd
00000060: 8dda b2bd 0ef4 653d c13e ac3d 9ed2 143e
00000070: bd6e 693c 48bf cebd 6a4f cebd b3ff 153d
00000080: 928e 93bc 7242 a9bd 907a 323d fee7 c83d
00000090: 19b7 a4bd 7a13 47bd 7350 fdbd 13e2 cf3d
000000a0: a417 7dbc df30 c4bd 91c3 fc3d b45e 49bc
000000b0: b664 84bd 8542 a0bd cf9a 533b b598 aa3d
000000c0: 84c4 cabd afed 943d e146 cb3c 1600 7cbd
000000d0: 5205 05bd 8924 e3bd ef95 c4bc faca dbbd
000000e0: 7a18 11be 2484 ab3d 8595 d83d 0f17 0a3e
000000f0: a405 74bb b710 d23d b514 b9bc 709f eebd
00000100: 9105 973c e2d0 093e 0c5f 563d 333e f93c
00000110: 8945 47bd 72b5 403c 0f31 223d df04 d43d
00000120: 2bb9 db3d 782c e0bd b944 2bbd 61ed 04bd
00000130: c911 0dbc d8c2 c5bd b2d9 613d b0fa aebd
00000140: 7aab dfbd e9f9 503c b74d 933d cd48 bfbb
00000150: 75a4 d4bd c6dd 013d 812e 5abd 00e3 6c3c
00000160: 015e fa3d 31a3 913d 5bf6 d83d 3b8d 57bd
00000170: 30b6 b7bd a3e4 91bb 1f21 a7bd f99c 0e3c
00000180: 15bf d73a e44e b0bd 0cdf 9f3b 545d e03d
00000190: 5c36 35bb 8acd ed3c 8d4c 5c3c 84e0 4b3c
000001a0: 5e9e 8a3d 9011 d73d 258c 263d fe7b c1bd
000001b0: 08bb 85bd 34e0 e43d 4fd7 f33d 9a5c 01bd
000001c0: e36d 23bd bbc4 86bd e29e e4bd a4e8 763d
000001d0: 6cda afbd 92da 86bc 5fe8 b3bd 4670 a63d
000001e0: 9da2 6abc 49b3 5c3d 06c7 7b3d 1e64 38bc
000001f0: e45a be3d 7e0a 903d e7a7 c33d 25ab 33bd
00000200: d291 e3bb 45e7 6e3c 61a6 903c b2a5 f5bd
00000210: e8fa 253d f47b a13c efa1 ce3d cb18 033e
00000220: 7bc4 533c 49de 043e f395 933c 042d 8b3d
00000230: d347 91bd 1dbd 8dbd 3a68 1abd f34a 9a3d
00000240: 41a8 a4bb 45cd fcbb 5b5c d1bd 38a7 603d
00000250: af53 9dbd 0fe7 9fbd ef42 24bd eeb3 dcbd
00000260: 038e a13d c865 d33d cf67 f53d 05e2 eabd
00000270: 1b80 22bd 8824 50bd e8bd a83d 39a3 6e3d
00000280: 87d2 0f3b 9f0e e4bd 88ca babc 6604 813d
00000290: 96fd 91bb ae53 5bbc f87e ce3c 3a67 a3bc
000002a0: 40f1 8c3c a283 e53c db2d f33d 5767 bfbd
000002b0: b4c8 033d 66f3 f9bb 46a1 be3d ebf2 f3bb
000002c0: ce7c 99bd 4292 f13a 8981 00be 0d53 fe3b
000002d0: c647 e03d 2d82 e6bd 16ba 5f3c 9bbe 443d
000002e0: fb9a c03d 49e5 00bd 0866 68bd 6d11 5cbd
000002f0: 21dc 7f3d 15c7 ddbc c3a6 c8bd 0d59 adbd

6.bias f4 [3]
-0.058291834 0.04832229 -0.046511624
00000000: 6bc3 6ebd 98ed 453d f982 3ebd
