src/training/discrete_actor.pth (torch, 201492 bytes, 8 tensors)

0.weight f4 [256, 31]
-0.17109853 -0.17853457 -0.0762721 0.09285553 -0.076179676 -0.16520473 -0.09036355 0.15223522
-0.028082963 0.01638056 -0.038239133 -0.13140912 0.12603706 0.081068315 -0.12043515 0.12080568
-0.13101786 -0.1562285 -0.10582435 -0.17661865 0.102921404 -0.06694417 0.15548457 -0.065036304
0.06786017 0.04624388 -0.13072023 -0.17721444 -0.15083306 -0.123647064 0.12980436 0.099752896
-0.08610666 0.04006482 -0.003772851 0.043411426 0.09180161 0.005276669 -0.116430975 -0.096727274
0.008404461 0.11625218 -0.011759077 -0.11532575 -0.110136494 0.062639706 -0.068512015 -0.14547075
-0.036164135 0.13404717 0.029995551 -0.0905194 -0.104975164 0.0067408555 0.09058094 0.017767325
-0.10406311 0.11960951 -0.02761938 0.027193202 -0.13269287 0.09237976 0.011948912 0.12566462
-0.08643055 0.07562424 -0.14897266 -0.07118719 0.13705672 0.11402121 0.15284586 0.059364073
-0.104158215 0.049329877 0.0063692057 -0.0992299 0.08802399 0.11120784 0.049972117 0.12130915
0.058460142 0.09125337 -0.1791064 -0.052475315 0.038621143 -0.00016136226 0.0048082476 -0.08395556
0.017141556 -0.17490181 0.02239112 -0.16413473 0.096541 -0.08532646 0.091814116 -0.030640488
0.113119096 0.07394644 -0.17437345 -0.1734622 0.06959788 0.14793253 -0.113315925 -0.06557039
-0.05403499 0.08414745 -0.16358656 0.08266397 0.011055149 0.054312006 0.16008231 -0.0099811135
0.072925024 0.07749928 0.069974735 -0.11985811 0.018385064 -0.0615863 -0.11026786 -0.09150803
0.0300166 0.11308632 -0.1475277 -0.15553947 0.0020333307 0.11895426 0.028820632 0.12516144
-0.09763444 0.01772703 -0.17779887 0.13409387 0.016354995 -0.110153854 0.101724364 -0.109404914
-0.16865459 0.15352488 0.13868049 -0.12988801 -0.004500603 0.17554846 -0.13541017 -0.038065877
-0.15851317 0.16864468 -0.009602513 0.14697348 -0.06500119 -0.012913666 -0.03769556 0.123229235
0.14037077 -0.11315901 -0.1565371 0.020741358 0.16301878 0.06286814 0.06731276 0.044616908
-0.031580236 -0.037937887 0.14535886 -0.05828909 0.021237923 -0.05654515 0.1463355 -0.042393804
0.07595548 -0.08134817 -0.15275972 -0.1463309 0.032418467 0.15484673 0.1116897 -0.066816576
0.18142122 0.082004346 -0.12464693 -0.14494191 0.058807887 -0.155441 0.17547108 0.076886505
-0.10248065 0.09573646 -0.017093277 -0.17108211 0.06079195 -0.04087172 -0.030113095 0.11457964
0.10990117 -0.08708691 -0.11219369 0.084637426 -0.094595484 0.0510596 0.11672834 0.05911361
0.07651818 -0.124250405 -0.08839579 -0.14594051 -0.012240904 -0.16168201 0.11982368 0.15203847
-0.13147832 0.013560777 -0.06724821 0.0837355 -0.022203948 0.09134916 -0.03972394 -0.019801999
-0.0013744548 0.03359427 0.008388439 0.16966558 -0.070873395 -0.17025717 0.08126039 -0.16438343
0.1287242 -0.09298157 0.1601514 0.09876096 0.123774074 -0.010044794 0.042731766 0.047746114
-0.108881064 0.04164053 0.17183495 -0.07099797 0.085680276 -0.07223561 0.17187582 -0.16369784
0.012552134 0.04513511 -0.065776765 0.006737023 -0.14936745 -0.14126955 0.12862922 -0.049482472
0.1310962 0.026914638 0.13706465 0.023301007 -0.032862242 0.14848907 0.0070500677 -0.12978531
00000000: 7434 2fbe c4d1 36be 8c34 9cbd 0a2b be3d
00000010: 1704 9cbd 6e2b 29be 8610 b9bd 8de3 1b3e
00000020: 3e0e e6bc 8630 863c a3a0 1cbd 1d90 06be
00000030: dc0f 013e 2507 a63d b4a6 f6bd f868 f73d
00000040: 8c29 06be 5dfa 1fbe 70ba d8bd 85db 34be
00000050: 75c8 d23d 061a 89bd 5937 1f3e c131 85bd
00000060: 46fa 8a3d 396a 3d3d 86db 05be b477 35be
00000070: fb73 1abe ac3a fdbd 6feb 043e 3f4b cc3d
00000080: b058 b0bd 021b 243d f041 77bb 2ed0 313d
00000090: 7c02 bc3d e8e7 ac3b 5d73 eebd f318 c6bd
000000a0: ddb2 093c 9f15 ee3d 25a9 40bc e82f ecbd
000000b0: 3e8f e1bd 3f49 803d 0750 8cbd 49f6 14be
000000c0: d820 14bd a943 093e 3bb9 f53c 3c62 b9bd
000000d0: 38fd d6bd 65e2 dc3b 8082 b93d c88c 913c
000000e0: 0a1f d5bd d5f5 f43d 0a42 e2bc 47c4 de3c
000000f0: a4e0 07be 9a31 bd3d 5fc5 433c 3aae 003e
00000100: 8002 b1bd e2e0 9a3d 4a8c 18be 97ca 91bd
00000110: 9958 0c3e f483 e93d a083 1c3e be27 733d
00000120: e750 d5bd 200e 4a3d c5b4 d03b 0c39 cbbd
00000130: ec45 b43d f0c0 e33d 90af 4c3d ee70 f83d
00000140: e773 6f3d 0ce3 ba3d ab67 37be 5bf0 56bd
00000150: 3431 1e3d 5a33 29b9 818e 9d3b e5f0 abbd
00000160: 736c 8c3c 7619 33be 956d b73c ef12 28be
00000170: 4ab7 c53d a4bf aebd 0a09 bc3d c301 fbbc
00000180: fcaa e73d 3b71 973d f48e 32be 13a0 31be
00000190: 5589 8e3d a07b 173e 2e12 e8bd c549 86bd
000001a0: cb53 5dbd 8055 ac3d 3c83 27be ba4b a93d
000001b0: a820 353c 4476 5e3d 9eec 233e d387 23bc
000001c0: b759 953d f1b7 9e3d ea4e 8f3d 2b78 f5bd
000001d0: 469c 963c eb41 7cbd 1ed4 e1bd 9068 bbbd
000001e0: 5fe5 f53c cd99 e73d 8011 17be bd45 1fbe
000001f0: a141 053b 4b9e f33d 3f19 ec3c 522a 003e
00000200: 91f4 c7bd 4738 913c e810 36be e74f 093e
00000210: e9fa 853c 5898 e1bd dd54 d03d af0f e0bd
00000220: cab3 2cbe a035 1d3e 4202 0e3e 5d01 05be
00000230: cb79 93bb fac2 333e f7a8 0abe f7ea 1bbd
00000240: 4751 22be 31b1 2c3e dc53 1dbc 3780 163e
00000250: 581f 85bd d793 53bc a966 1abd 9c5f fc3d
00000260: 5bbd 0f3e e9bf e7bd 434b 20be c8e9 a93c
00000270: 65ee 263e 03c1 803d 46db 893d 38c0 363d
00000280: 475a 01bd c264 1bbd f4d8 143e 8ac0 6ebd
00000290: 27fb ad3c e39b 67bd f9d8 153e 20a5 2dbd
000002a0: 8c8e 9b3d df99 a6bd 0b6d 1cbe c4d7 15be
000002b0: 3ac9 043d 2490 1e3e 92bd e43d 21d7 88bd
000002c0: 7cc6 393e e5f1 a73d e446 ffbd a76b 14be
000002d0: 8ae0 703d ed2b 1fbe b1ae 333e ac76 9d3d
000002e0: 60e1 d1bd 7a11 c43d 3307 8cbc 2630 2fbe
000002f0: fb00 793d 1b69 27bd bdaf f6bc bba8 ea3d
00000300: dd13 e13d 9f5a b2bd cec5 e5bd 6356 ad3d
00000310: 47bb c1bd df23 513d 450f ef3d 1d21 723d
00000320: 90b5 9c3d ff76 febd da08 b5bd 6e71 15be
00000330: 138e 48bc f88f 25be 1e66 f53d f9af 1b3e
00000340: 41a2 06be 052e 5e3c 6eb9 89bd 857d ab3d
00000350: 0ee5 b5bc 4515 bb3d 92b5 22bd cd37 a2bc
00000360: 0d27 b4ba 259a 093d aa6f 093c d0bc 2d3e
00000370: 1226 91bd e557 2ebe d96b a63d 2154 28be
00000380: 47d0 033e 1f6d bebd bbfe 233e 3043 ca3d
00000390: 437d fd3d eb92 24bc 8107 2f3d 6e91 433d
000003a0: 09fd debd 438f 2a3d 80f5 2f3e 6267 91bd
000003b0: 2479 af3d 43f0 93bd 3700 303e 68a0 27be
000003c0: 77a7 4d3c 98df 383d f8b5 86bd 3fc2 dc3b
000003d0: c8f3 18be f7a8 10be 61b7 033e 22ae 4abd
000003e0: 153e 063e 167c dc3c ad5a 0c3e c1e1 be3c
000003f0: 8f9a 06bd 850d 183e 4104 e73b 71e6 04be

0.bias f4 [256]
-0.16295403 0.129807 0.012181564 -0.14057104 0.039580155 0.13823654 0.0302958 -0.04392074
0.09158161 0.11015478 0.02468741 -0.027825827 0.10712498 -0.028528962 0.001728324 -0.14902163
-0.091406964 0.010286923 -0.068709165 0.07251762 -0.045736272 0.015498323 -0.0074086864 0.037050366
-0.028233962 -0.0714301 -0.040672127 0.017149478 -0.1833176 -0.020243801 0.10617006 0.09927073
-0.09756549 0.07141512 -0.014260222 0.028388694 0.17197783 0.15726809 0.05913824 0.16931455
-0.052383065 -0.041103613 -0.048152063 -0.15318945 -0.017964486 0.14841886 -0.14565267 0.17147596
0.091582514 -0.014260225 -0.023490198 -0.09567358 0.03176641 -0.04869534 -0.06253393 0.13045178
-0.14058706 -0.16877687 -0.039792065 0.12533353 0.006894854 -0.15090469 0.023812115 -0.022780016
-0.05164931 0.007299839 0.056444496 -0.072413504 -0.16130483 -0.021148765 0.107859485 -0.07842087
0.06889169 0.08443171 0.09927538 -0.16759084 0.101985425 -0.10716605 0.09194185 0.06034518
-0.042941567 0.022480456 0.1414363 0.16762249 0.013042418 -0.06950393 -0.055047277 -0.15142745
0.056655273 0.07327524 0.027743146 0.055275068 -0.015156967 0.105088286 0.14171134 -0.12516741
0.08927453 0.047901507 -0.14184336 0.16972709 -0.13872546 0.1427458 -0.071500815 0.16640197
-0.0083130915 -0.11518287 0.15804102 0.14495684 0.02757979 0.14168307 0.08778876 -0.0483459
-0.092185415 -0.14234537 -0.1678807 -0.05268971 0.12936746 0.081607506 0.052603688 0.012274314
0.09729304 0.12149175 -0.15423556 0.04017509 -0.1459751 0.11564214 0.10585109 -0.050593935
0.08840827 0.12959658 -0.120460734 -0.074020386 -0.047654137 -0.06330615 0.011244893 -0.019848611
-0.13013284 -0.1897072 -0.01087216 -0.13518915 0.055607352 0.13604411 -0.1172246 0.10447078
-0.17149633 -0.13180663 0.09853028 0.15247385 -0.15694368 -0.0812947 -0.105321705 0.08807291
0.14742549 -0.048324537 0.10437512 -0.11387655 -0.12443645 -0.112616405 -0.117649525 -0.08423971
0.038895585 0.11762502 -0.048823148 -0.1628969 -0.06325618 -0.1398417 -0.10581735 0.026403146
-0.06444719 0.07205454 -0.1571023 -0.13329837 0.1041464 0.025045184 -0.08692214 -0.040968426
-0.05177469 0.15306942 0.13632835 -0.12295497 -0.1195554 0.080086775 -0.037318274 0.0559984
0.17497425 0.061071966 -0.058526564 -0.0058366503 0.14463903 -0.030230185 -0.03472373 0.09444543
-0.13682494 -0.02444472 -0.01267309 0.15173051 0.12936288 0.17072833 -0.13808969 -0.0041019125
0.16520983 0.03612477 0.13828945 0.16844037 -0.11599402 0.1599421 -0.09144153 -0.14925101
-0.11248507 -0.16685764 0.07839761 -0.13775374 -0.17276874 -0.1541218 0.032246772 0.16738144
-0.17295115 -0.10660431 0.09805731 -0.06220268 0.1521073 0.18189275 -0.04679958 0.010205506
0.07721937 0.08747041 -0.031997025 -0.0269865 0.18712859 0.009273766 -0.18073456 -0.009073795
-0.1356452 0.16917965 -0.10334099 0.15187769 -0.10973363 -0.036676284 0.020004626 0.049541213
-0.105569154 0.18461697 -0.11270836 -0.019221045 0.10734591 0.14332765 0.07806981 -0.046092637
0.00041606146 0.13495117 0.1702923 0.16033047 -0.034656093 0.1618608 -0.18244432 0.03434275
00000000: 6cdd 26be 20ec 043e 2f95 473c dbf1 0fbe
00000010: cd1e 223d e18d 0d3e e62e f83c 3ce6 33bd
00000020: 248f bb3d d498 e13d 403d ca3c fdf2 e3bc
00000030: 5764 db3d 92b5 e9bc ee88 e23a 2099 18be
00000040: 9333 bbbd 7b8a 283c 64b7 8cbd 1e84 943d
00000050: f555 3bbd aeec 7d3c 91c4 f2bb 20c2 173d
00000060: e94a e7bc f249 92bd d197 26bd 107d 8c3c
00000070: 9cb7 3bbe 54d6 a5bc b06f d93d 744e cb3d
00000080: 6ad0 c7bd 1742 923d b5a3 69bc 688f e83c
00000090: f51a 303e e30a 213e f03a 723d cb60 2d3e
000000a0: a08f 56bd 435c 28bd 193b 45bd b2dd 1cbe
000000b0: 422a 93bc 1dfb 173e f925 15be 6597 2f3e
000000c0: 9d8f bb3d b8a3 69bc 846e c0bc 83f0 c3bd
000000d0: 7f1d 023d c474 47bd ca11 80bd 2795 053e
000000e0: 0ef6 0fbe d8d3 2cbe 01fd 22bd 6f57 003e
000000f0: 3aee e13b c286 1abe a011 c33c 289d babc
00000100: 3a8e 53bd 7d33 ef3b 5832 673d 884d 94bd
00000110: 182d 25be 2d40 adbc 6fe5 dc3d 1f9b a0bd
00000120: 1617 8d3d 88ea ac3d e450 cb3d ef9c 2bbe
00000130: bcdd d03d e079 dbbd 024c bc3d 822c 773d
00000140: 7fe3 2fbd ef28 b83c add4 103e 3ba5 2b3e
00000150: deaf 553c 1458 8ebd 4179 61bd cc0f 1bbe
00000160: 5c0f 683d 5411 963d 9845 e33c 1c68 623d
00000170: ed54 78bc 8738 d73d c71c 113e e32b 00be
00000180: 91d5 b63d 5f34 443d 633f 11be f0cc 2d3e
00000190: 0c0e 0ebe f42b 123e 056f 92bd 4765 2a3e
000001a0: a233 08bc ffe4 ebbd 81d5 213e 916f 143e
000001b0: 03ef e13c 5e15 113e 98ca b33d 5a06 46bd
000001c0: b5cb bcbd fcc2 11be ebe8 2bbe 2ad1 57bd
000001d0: e778 043e d621 a73d f776 573d 341a 493c
000001e0: 9341 c73d abd0 f83d edef 1dbe a38e 243d
000001f0: 7f7a 15be c9d5 ec3d 75c8 d83d 963b 4fbd
00000200: 650f b53d f7b4 043e 1eb4 f6bd 0098 97bd
00000210: fc30 43bd a8a6 81bd 803c 383c 8e99 a2bc
00000220: 8b41 05be 9b42 42be 2521 32bc 066f 0abe
00000230: 89c4 633d 264f 0b3e 7313 f0bd c7f4 d53d
00000240: bc9c 2fbe 51f8 06be 3eca c93d 1b22 1c3e
00000250: d8b5 20be d67d a6bd e8b2 d7bd 925f b43d
00000260: b5f6 163e f3ef 45bd 9fc2 d53d 1c38 e9bd
00000270: 8ad8 febd 6ea3 e6bd 3cf2 f0bd de85 acbd
00000280: fa50 1f3d 63e5 f03d c8fa 47bd 72ce 26be
00000290: 758c 81bd aa32 0fbe c4b6 d8bd 694b d83c
000002a0: e3fc 83bd 5591 933d 6ddf 20be 5e7f 08be
000002b0: b54a d53d 8f2b cd3c 3c04 b2bd 82ce 27bd
000002c0: b311 54bd 3bbe 1c3e a999 0b3e d1cf fbbd
000002d0: 76d9 f4bd 8904 a43d 0cdb 18bd 945e 653d
000002e0: 732c 333e 9926 7a3d 8db9 6fbd 5f41 bfbb
000002f0: 411c 143e 4ba5 f7bc 783a 0ebd 9b6c c13d
00000300: d61b 0cbe 4b40 c8bc cba2 4fbc 3e5f 1b3e
00000310: b477 043e 68d3 2e3e 6267 0dbe 5669 86bb
00000320: c42c 293e 91f7 133d c09b 0d3e a27b 2c3e
00000330: 468e edbd ddc7 233e b245 bbbd 42d5 18be
00000340: 935e e6bd bbdc 2abe ed8e a03d 510f 0dbe
00000350: 4aea 30be 1bd2 1dbe 3115 043d 0a66 2b3e
00000360: 1b1a 31be 5c53 dabd 45d2 c83d 3dc8 7ebd
00000370: 04c2 1b3e 1842 3a3e ebb0 3fbd ff34 273c
00000380: 3025 9e3d b023 b33d 500f 03bd cb12 ddbc
00000390: a39e 3f3e fef0 173c 7b12 39be 41aa 14bc
000003a0: 93e6 0abe 6e3d 2d3e 71a4 d3bd d385 1b3e
000003b0: 07bc e0bd df39 16bd bee0 a33c baeb 4a3d
000003c0: a434 d8bd 3b0c 3d3e a4d3 e6bd 7475 9dbc
000003d0: 2cd8 db3d 7cc4 123e 11e3 9f3d a2cb 3cbd
000003e0: d322 da39 a430 0a3e 1b61 2e3e ac2d 243e
000003f0: 8cf3 0dbd d6be 253e afd2 3abe fcaa 0c3d

2.weight f4 [128, 256]
-0.048756827 -0.039249927 0.057743713 0.04886269 -0.059533536 0.03560017 -0.037352376 0.008959703
-0.045692507 -0.030429436 0.025522336 -0.056698423 -0.04940857 0.0031353734 0.012891498 -0.024693625
0.023304952 -0.05913771 0.030656332 -0.011020246 -0.049725257 -0.0038612562 -0.05404058 0.012787312
-0.039028082 -0.02138535 -0.026394816 0.019971527 0.05064658 -0.054419603 0.030774496 0.045456376
-0.041356474 0.028447771 0.023342164 0.027810633 0.04150433 0.029539915 0.00021577008 0.043960184
-0.01091679 -0.043580964 0.037516605 -0.023537697 -0.0473444 0.0025728347 0.048986606 0.01038986
-0.04780239 0.016024448 -0.02503555 -0.005204027 0.012935692 -0.018078614 0.0039246813 0.002237237
-0.0046000937 0.019344684 0.00013736723 0.05124849 0.025477441 0.00948346 0.009783329 -0.045088276
-0.0022012352 -0.039866805 0.01238878 0.03191715 -0.024544796 0.047288407 0.031704266 0.04229767
-0.011434888 -0.052122056 0.039018918 0.061808705 -0.03911529 -0.024905292 0.029356414 -0.040934257
-0.0032143083 -0.04305399 -0.019222748 -0.035978924 0.034672488 -0.004257749 0.02320451 -0.021126214
0.035713986 0.003524897 -0.05266722 -0.004703836 0.0296825 -0.054660548 -0.018893812 0.05433367
-0.0010263226 -0.01853766 0.020622525 0.039969314 0.04941948 -0.02903831 0.0010507435 -0.026388645
-0.024195902 0.05312766 -0.055377625 -0.058320194 -0.0041891932 0.02947689 -0.050174803 0.05733059
0.018513402 -0.002590839 -0.006949723 -0.01736091 0.01802938 -0.015482021 0.055612694 0.04351124
-0.047147658 0.00014926077 0.03856016 0.042175587 0.0450396 0.010697008 0.059084613 0.036995355
-0.014241133 0.029460918 0.017206246 0.011092391 0.04829482 -0.027007984 0.046810035 -0.062179323
-0.062084943 -0.02829133 0.0035833085 -0.028356012 0.0149292955 -0.055071395 0.048497565 -0.05163926
0.053915843 -0.027703142 -0.029813616 -0.015380347 -0.057325408 0.040141255 -0.03819223 -0.041766983
-0.0144631155 -0.059543453 -0.05290738 0.0093623735 0.019833235 0.045169663 -0.042071693 0.061943483
-0.0216906 -0.049443536 -0.03894465 0.055308208 -0.00064412726 -0.054327596 -0.021852985 -0.054836936
-0.03524678 -0.025476327 -0.010524754 0.03230879 -0.007910577 0.029244334 0.021343224 -0.059156004
0.017143743 -0.0036863214 0.007222433 -0.027707927 -0.024067907 -0.044767067 -0.02268412 -0.014086279
0.005492503 0.008476861 -0.0026678375 -0.053889714 -0.04531359 0.0233488 0.048601955 -0.059363045
-0.007600169 -0.04011423 0.0018327789 0.029534308 0.00846776 0.026664134 -0.05229347 0.056129728
-0.02135823 -0.044706028 -0.028859604 0.040491484 0.05879347 -0.02350393 0.019385744 0.004449417
-0.007395466 -0.0572464 -0.019370565 -0.0022195305 0.057739537 -0.02521348 -0.040322106 0.04214743
-0.0013324877 -0.024456056 -0.027464956 0.061971173 0.0034419068 -0.0055418313 0.043205414 -0.05431511
0.048114832 0.014622909 0.034576535 0.004263804 -0.035261195 -0.020185554 0.035891954 0.01331396
0.0073906095 -0.02485188 0.053386353 0.055000935 0.046914987 -0.042657252 0.04595168 -0.05286693
-0.04082036 -0.024014257 0.057928666 0.043584697 0.00675202 0.023225982 0.05274113 0.011076127
-0.0072806044 0.051361915 -0.015827479 -0.03843512 -0.03609334 -0.020536015 -0.02862758 -0.04175419
00000000: 3db5 47bd 88c4 20bd ac84 6c3d 3e24 483d
00000010: 70d9 73bd 7cd1 113d cefe 18bd b8cb 123c
00000020: 1128 3bbd 2747 f9bc 3814 d13c 9b3c 68bd
00000030: a460 4abd d67a 4d3b dd36 533c 494a cabc
00000040: 07ea be3c 623a 72bd fd22 fb3c 438e 34bc
00000050: b6ac 4bbd 210d 7dbb a859 5dbd e081 513c
00000060: e9db 1fbd 5430 afbc f139 d8bc 549b a33c
00000070: ca72 4f3d 17e7 5ebd cc1a fc3c 7730 3a3d
00000080: 6865 29bd 4d0b e93c 1138 bf3c 20d3 e33c
00000090: 7200 2a3d b1fd f13c 5740 6239 980f 343d
000000a0: 56dc 32bc f481 32bd 03ab 193d 21d2 c0bc
000000b0: 34ec 41bd 019d 283b 2ea6 483d 3b3a 2a3c
000000c0: 70cc 43bd b445 833c 5b17 cdbc 8b86 aabb
000000d0: 3af0 533c 9a19 94bc 9d9a 803b 9c9e 123b
000000e0: 62bc 96bb be78 9e3c 3c0a 1039 f0e9 513d
000000f0: 11b6 d03c 8460 1b3c 424a 203c 7cae 38bd
00000100: 9942 10bb 604b 23bd 4ffa 4a3c 8fbb 023d
00000110: 2b12 c9bc 7db1 413d 55dc 013d 5240 2d3d
00000120: 6559 3bbc f07d 55bd 4dd2 1f3d 202b 7d3d
00000130: 5b37 20bd 2f06 ccbc dd7c f03c aeaa 27bd
00000140: 25a7 52bb 6159 30bd 0679 9dbc a35e 13bd
00000150: bd04 0e3d 9684 8bbb 6217 be3c e210 adbc
00000160: d448 123d f501 673b 95b9 57bd a322 9abb
00000170: b728 f33c bde3 5fbd 32c7 9abc fb8c 5e3d
00000180: ac85 86ba 4adc 97bc 92f0 a83c ddb6 233d
00000190: 156c 4a3d c0e1 edbc 1ab9 893a 002d d8bc
000001a0: 7c36 c6bc 649c 593d a6d3 62bd 28e1 6ebd
000001b0: 8045 89bb 8579 f13c 1884 4dbd 7bd3 6a3d
000001c0: 6ba9 973c 11cb 29bb 81ba e3bb 7838 8ebc
000001d0: 5ab2 933c 4da8 7dbc 23ca 633d d838 323d
000001e0: e71d 41bd e282 1c39 42f1 1d3d 4fc0 2c3d
000001f0: 727b 383d 8142 2f3c b502 723d 7188 173d
00000200: a453 69bc 0658 f13c 1df4 8c3c dcbc 353c
00000210: cad0 453d d93f ddbc e1bb 3f3d bfaf 7ebd
00000220: c84c 7ebd 38c3 e7bc f1d5 6a3b de4a e8bc
00000230: 019a 743c 8b92 61bd 62a5 463d b083 53bd
00000240: dcd6 5c3d b3f1 e2bc af3b f4bc dafd 7bbc
00000250: 0cce 6abd 286b 243d 756f 1cbd db13 2bbd
00000260: b4f6 6cbc d6e3 73bd 69b5 58bd a464 193c
00000270: 4f79 a23c d303 393d 5e53 2cbd 73b8 7d3d
00000280: 7cb0 b1bc 4e85 4abd 6d84 1fbd dc8a 623d
00000290: a6da 28ba 9d86 5ebd 0805 b3bc b29c 60bd
000002a0: ed5e 10bd bbb3 d0bc 0570 2cbc 3956 043d
000002b0: 5d9b 01bc d091 ef3c fcd7 ae3c 914d 72bd
000002c0: 0971 8c3c 3696 71bb 29aa ec3b bcfb e2bc
000002d0: 0f2a c5bc ac5d 37bd 0cd4 b9bc 23ca 66bc
000002e0: 74fa b33b 88e2 0a3c e3d6 2ebb 76bb 5cbd
000002f0: be9a 39bd fc45 bf3c d812 473d aa26 73bd
00000300: d70a f9bb d24e 24bd db39 f03a eff1 f13c
00000310: 5cbc 0a3c be6e da3c ad31 56bd 49e8 653d
00000320: 74f7 aebc ab1d 37bd fa6a ecbc 66da 253d
00000330: 6cd1 703d 508b c0bc dace 9e3c 6acc 913b
00000340: aa55 f2bb 337b 6abd 05af 9ebc 8b75 11bb
00000350: 4b80 6c3d 808c cebc cb28 25bd c9a2 2c3d
00000360: dea6 aeba 1158 c8bc 30fe e0bc 7cd5 7d3d
00000370: 9d91 613b 4098 b5bb 29f8 303d 8579 5ebd
00000380: 0f14 453d ed94 6f3c 20a0 0d3d 61b7 8b3b
00000390: 0b6e 10bd 2d5c a5bc 7103 133d cc22 5a3c
000003a0: ed2c f23b 2b96 cbbc a6ab 5a3d a948 613d
000003b0: ee29 403d 5fb9 2ebd d437 3c3d fe8a 58bd
000003c0: 4033 27bd 8cb9 c4bc 9c46 6d3d de85 323d
000003d0: 0d40 dd3b 6a44 be3c 1507 583d a578 353c
000003e0: 2392 eebb df60 523d a1a8 81bc 256e 1dbd
000003f0: 9cd6 13bd 253b a8bc 6384 eabc 7106 2bbd

2.bias f4 [128]
0.052051373 0.03966613 0.064275116 -0.036378816 0.0006167916 -0.057749677 0.0582525 0.043086343
0.020450896 0.022951154 0.011747329 0.034932077 0.04333589 -0.041917775 -0.054584835 -0.034854013
-0.023816455 -0.04432064 0.008952451 0.018515121 0.0013914915 -0.037621975 -0.060338758 -0.03162135
0.05701032 -0.036251206 0.00011100628 -0.017075323 0.056783833 0.03207969 0.041643567 0.004174609
0.002116706 -0.009832229 -0.045307573 0.054744046 0.008180434 -0.03976841 0.01947387 -0.028058585
0.012828014 -0.036116976 0.015950426 -0.03481818 -0.0050943606 0.032840878 -0.035603035 -0.007741344
0.03023761 0.024193754 0.008906551 0.060564093 -0.044398364 0.066577256 0.023045054 -0.065825015
0.055894926 -0.0019124541 0.05737467 0.021583848 0.05906909 0.047088306 -0.023551125 0.061797276
-0.03317744 -0.023401046 -0.013327436 0.060273714 0.054322872 0.06533104 -0.015114724 0.0042780275
0.04873144 0.009029897 -0.05310808 -0.040827826 -0.04778562 -0.027535938 -0.0459539 -0.033880617
0.024607223 0.024719337 0.00062122656 0.051517483 0.057687543 -0.027673505 0.00021532732 -0.01607682
-0.03405012 0.00083863025 -0.009445376 -0.029331006 -0.022599682 -0.016845241 0.018514842 -0.02986699
0.017197272 0.061399963 -0.025213972 -0.021212908 -0.027055597 0.041730963 0.007969175 -0.04907142
0.06968674 -0.0066779274 -0.02185996 -0.035106 -0.021471698 -0.008406353 -0.024834404 -0.029184656
-0.04330893 0.04324137 -0.0065619983 0.0023654785 0.02793493 0.054633405 -0.02135341 -0.024647804
-0.026612772 0.041546296 -0.022909615 -0.049472973 0.04248672 -0.050093513 -0.04397738 0.001487943
00000000: d233 553d f478 223d aca2 833d f401 15bd
00000010: 2fb0 213a ed8a 6cbd 2c9a 6e3d 4e7b 303d
00000020: a388 a73c 0f04 bc3c de77 403c f014 0f3d
00000030: f980 313d f9b1 2bbd 5994 5fbd 15c3 0ebd
00000040: ba1a c3bc 8f89 35bd 4dad 123c 06ad 973c
00000050: b562 b63a 8019 1abd c625 77bd 6485 01bd
00000060: a783 693d 257c 14bd 0bcc e838 8ce1 8bbc
00000070: 2a96 683d fe65 033d 7292 2a3d 29cb 883b
00000080: 6fb8 0a3b 5c17 21bc 6f94 39bd 4b3b 603d
00000090: 3a07 063c 33e4 22bd aa87 9f3c 1edb e5bc
000000a0: 972c 523c 65ef 13bd 78aa 823c 829d 0ebd
000000b0: 98ee a6bb 2884 063d 7dd4 11bd 1aab fdbb
000000c0: ddb4 f73c fb31 c63c c8ec 113c 0e12 783d
000000d0: 0fdb 35bd a859 883d fbc8 bc3c 44cf 86bd
000000e0: 14f2 643d 50ab faba b401 6b3d 9cd0 b03c
000000f0: 6ef2 713d abdf 403d 4aee c0bc 241f 7d3d
00000100: 11e5 07bd 8db3 bfbc 515b 5abc 92e1 763d
00000110: a981 5e3d 48cc 853d bfa3 77bc b22e 8c3b
00000120: 9e9a 473d 22f2 133c dc87 59bd 143b 27bd
00000130: dbba 43bd 0c93 e1bc 283a 3cbd 67c6 0abd
00000140: 1695 c93c 3580 ca3c cfd9 223a ff03 533d
00000150: c649 6c3d 8cb3 e2bc 7dc9 6139 89b3 83bc
00000160: 2378 0bbd 86d7 5b3a c7c0 1abc 9447 f0bc
00000170: f822 b9bc 08ff 89bc 70ac 973c 9eab f4bc
00000180: 4be1 8c3c 877e 7b3d 888d cebc b1c6 adbc
00000190: b3a3 ddbc 16ee 2a3d 2591 023c 1dff 48bd
000001a0: ecb7 8e3d 84d2 dabb a913 b3bc 4fcb 0fbd
000001b0: 6ae5 afbc cdba 09bc 8571 cbbc a914 efbc
000001c0: b464 31bd dd1d 313d 0806 d7bb 2506 1b3b
000001d0: cbd7 e43c 47c7 5f3d 59ed aebc 31ea c9bc
000001e0: 0703 dabc 732c 2a3d f2ac bbbc 2ca4 4abd
000001f0: 8e06 2e3d db2e 4dbd a021 34bd 1507 c33a

4.weight f4 [64, 128]
-0.0019130904 -0.04806585 -0.00991539 -0.034846973 -0.021723691 0.044485148 -0.023205 -0.020243471
-0.07586272 -0.035450675 -0.053074013 -0.057561778 0.014697155 0.02925693 0.025992079 -0.07284366
-0.01950111 -0.008574625 -0.0761088 -0.083463475 -0.07986 -0.014691693 0.0008358963 0.02805328
-0.09055346 -0.06983489 0.0804759 -0.007686654 0.051655106 -0.04883121 -0.016496772 -0.08080415
-0.012202712 0.07295456 0.046436384 -0.0798894 -0.06798917 -0.013584008 -0.02915946 0.005624056
0.052892204 -0.027450621 -0.022068603 0.0034975212 -0.01217208 -0.07828042 0.08057193 -0.06145257
0.011850419 -0.05627737 -0.00951189 -0.01081648 -0.041545015 0.03062849 -0.002037588 -0.005587247
-0.08085841 0.04450647 -0.03731628 0.022291448 0.03327682 -0.049880005 0.08077877 0.055674337
-0.06238339 0.060479723 0.023740847 0.049605094 0.0008440479 0.031597722 -0.07982299 0.014661505
0.04724973 -0.038886413 -0.052779 -0.004145577 -0.024544887 0.01654735 0.043300256 0.08817195
-0.044517003 -0.039365016 -0.06878017 0.037171166 -0.06840232 0.014234248 0.05561058 0.05762114
0.044902403 -0.054269493 -0.044617046 -0.018494915 0.016059728 -0.017543238 0.044885274 -0.07178375
-0.0015583566 -0.06283006 -0.056842923 -0.05005412 0.09058591 -0.06634058 -0.048187807 0.002206388
0.048334748 -0.0032754452 0.08416001 0.05507961 0.005656824 -0.07717701 0.018982686 0.025470182
-0.041393135 -0.03544299 -0.008491947 -0.09200885 0.012012982 0.01746997 -0.067435466 0.026185231
-0.056792237 -0.0025361618 0.055823293 -0.06940838 -0.018574547 0.0077389744 -0.039115008 -0.021486932
-0.029088818 -0.05378809 -0.036968227 0.06791242 0.04852905 -0.013183465 0.0695228 -0.08006595
-0.08458862 -0.038583588 0.074489705 -0.0046673496 -0.06494922 -0.046608392 -0.011465635 0.059722677
0.028025083 0.057527874 0.084402636 -0.06401139 0.06562449 -0.067474276 0.07251606 0.06095401
0.01282473 -0.015246082 0.0035399916 0.033155564 -0.0892685 -0.054280497 0.05098368 0.019064201
-0.083942875 -0.0640918 0.000294915 -0.079425365 -0.05722689 -0.074814774 0.010327048 -0.026859818
-0.055502117 -0.08125956 -0.038915876 -0.08371262 -0.05968284 0.022863936 -0.05405542 0.026510155
0.05899128 -0.01757788 -0.07953138 -0.075229645 0.053381506 -0.006420285 -0.075214334 -0.07904233
-0.08344632 0.025972469 0.0057091853 0.023005476 -0.058525715 -0.09402645 0.013900386 0.04429422
0.033156496 0.07223043 -0.009040538 -0.005388392 0.026315315 0.0064050034 0.0570727 -0.02024671
-0.075367466 0.00922977 0.0679402 0.009077884 0.07513901 -0.07622865 -0.08653535 0.0027312369
-0.011536936 0.015799368 -0.012301451 -0.013737749 -0.03181912 -0.007895095 -0.082727075 -0.047313217
-0.050427124 0.04237181 0.0025328577 0.077896304 0.039081458 0.088014446 -0.041298874 0.03850387
-0.053378176 -0.040713903 -0.023848696 0.05075599 -0.02142492 -0.028186465 -0.06675205 -0.046116397
-0.065463915 -0.086800285 -0.066455945 -0.033020783 -0.045211855 -0.01254863 -0.06366016 -0.013660353
-0.05491892 -0.056934316 0.0060530384 0.060189158 -0.08036534 -0.04268356 -0.05518742 -0.0774102
0.08531842 -0.08966316 0.025448427 0.0058473786 0.06763998 0.006229547 0.042431645 0.048096236
00000000: a9c0 faba b2e0 44bd 2974 22bc b3bb 0ebd
00000010: e2f5 b1bc 0f36 363d 6a18 bebc a3d5 a5bc
00000020: ea5d 9bbd ba34 11bd 2364 59bd e6c5 6bbd
00000030: 56cc 703c 3bac ef3c 57ed d43c 0f2f 95bd
00000040: cbc0 9fbc 957c 0cbc eede 9bbd e6ee aabd
00000050: a48d a3bd 6db5 70bc 0d20 5b3a fecf e53c
00000060: 1874 b9bd 9805 8fbd 8cd0 a43d 54e0 fbbb
00000070: 4e94 533d 3c03 48bd 3d24 87bc a57c a5bd
00000080: e2ed 47bc 3369 953d 1434 3e3d 0e9d a3bd
00000090: e83d 8bbd 768f 5ebc d2df eebc 004a b83b
000000a0: 7fa5 583d 20e0 e0bc 37c9 b4bc ab36 653b
000000b0: 676d 47bc 7c51 a0bd e502 a53d b1b5 7bbd
000000c0: 4328 423c 1983 66bd c2d7 1bbc 9b37 31bc
000000d0: 1b2b 2abd 99e8 fa3c 0e89 05bb 3a15 b7bb
000000e0: 1899 a5bd 6b4c 363d f5d8 18bd 8e9c b63c
000000f0: 464d 083d fa4e 4cbd 576f a53d c60a 643d
00000100: ba85 7fbd 96b9 773d 2a7c c23c b62e 4b3d
00000110: 1943 5d3a 9d6c 013d 3c7a a3bd cf36 703c
00000120: ef88 413d 5c47 1fbd cb2e 58bd 9fd7 87bb
00000130: 5c12 c9bc 4f8e 873c 9c5b 313d 7f93 b43d
00000140: 7657 36bd 363d 21bd 9edc 8cbd cb40 183d
00000150: 8416 8cbd c336 693c ebc7 633d 2504 6c3d
00000160: 95eb 373d b049 5ebd 5dc0 36bd a682 97bc
00000170: b18f 833c d6b6 8fbc 9fd9 373d 5c03 93bd
00000180: c541 ccba 0cad 80bd 20d4 68bd 8d05 4dbd
00000190: 1b85 b93d 92dd 87bd 9460 45bd 0c99 103b
000001a0: a8fa 453d daa8 56bb 155c ac3d 289b 613d
000001b0: e15c b93b fb0e 9ebd 9481 9b3c d8a6 d03c
000001c0: d98b 29bd ab2c 11bd cf21 0bbc 236f bcbd
000001d0: 19d2 443c 2f1d 8f3c 9b1b 8abd 6982 d63c
000001e0: fa9e 68bd bc35 26bb f7a6 643d fb25 8ebd
000001f0: a629 98bc 3997 fd3b 0f37 20bd 5d05 b0bc
00000200: ac4b eebc e650 5cbd ff6b 17bd ab15 8b3d
00000210: 66c6 463d 76ff 57bc f861 8e3d 9ef9 a3bd
00000220: cc3c adbd d309 1ebd 0f8e 983d 91f0 98bb
00000230: 1904 85bd 71e8 3ebd 5cda 3bbc c49f 743d
00000240: dc94 e53c 59a2 6b3d 4adb ac3d 6718 83bd
00000250: 2266 863d f42f 8abd 4d83 943d e9aa 793d
00000260: d11e 523c b4ca 79bc 34ff 673b 21ce 073d
00000270: 67d2 b6bd 3a55 5ebd 43d4 503d 872c 9c3c
00000280: 3eea abbd 9042 83bd d29e 9a39 c4a9 a2bd
00000290: be66 6abd 7d38 99bd c732 293c 1f09 dcbc
000002a0: 3056 63bd 6a6b a6bd 4166 1fbd 8671 abbd
000002b0: fe75 74bd 264d bb3c 3769 5dbd d32b d93c
000002c0: d7a0 713d 7cff 8fbc 59e1 a2bd 0012 9abd
000002d0: 91a6 5a3d 4161 d2bb f909 9abd f2e0 a1bd
000002e0: e7e5 aabd 37c4 d43c 1e14 bb3b fb75 bc3c
000002f0: a9b8 6fbd f090 c0bd 72be 633c db6d 353d
00000300: 1bcf 073d 8ced 933d c41e 14bc 1c91 b0bb
00000310: 3793 d73c 10e1 d13b 10c5 693d 6edc a5bc
00000320: 425a 9abd 7638 173c 3b24 8b3d 68bb 143c
00000330: 7be2 993d c41d 9cbd 7239 b1bd 8dfe 323b
00000340: 6b05 3dbc ad6d 813c 068c 49bc 4c14 61bc
00000350: c454 02bd 6e5a 01bc d06c a9bd 81cb 41bd
00000360: ac8c 4ebd 108e 2d3d 4dfe 253b 1988 9f3d
00000370: e113 203d eb40 b43d 0229 29bd 3cb6 1d3d
00000380: 13a3 5abd 9fc3 26bd 575e c3bc 83e5 4f3d
00000390: 5083 afbc 4de7 e6bc 4cb5 88bd 8ce4 3cbd
000003a0: f211 86bd 59c4 b1bd 0e1a 88bd cd40 07bd
000003b0: 1130 39bd c598 4dbc 4260 82bd accf 5fbc
000003c0: a9f2 60bd f533 69bd 9158 c63b e888 763d
000003d0: 9596 a4bd f5d4 2ebd 340c 62bd 3d89 9ebd
000003e0: 6cbb ae3d 52a1 b7bd 3879 d03c 5e9b bf3b
000003f0: d486 8a3d 3a21 cc3b cecc 2d3d 8f00 453d

4.bias f4 [64]
0.0233186 -0.033000827 0.008541243 0.080712095 -0.017769445 0.03555927 -0.070508085 0.073623314
-0.020812301 0.03865597 0.01929446 0.083717674 0.03873062 0.068252936 0.010248022 0.031461984
0.04811915 0.058466095 -0.02063079 0.030437075 -0.047784507 -0.039125178 -0.0048972913 -0.06078242
0.040078104 0.077377245 0.02077385 0.011077932 -0.057225306 0.053523615 -0.047810927 0.07134626
-0.08879951 -0.04002969 0.005796251 -0.084885605 -0.061185766 0.013796214 -0.04996874 -0.02493974
-0.041244943 -0.044718735 -0.044739645 -0.07269931 -0.036099218 -0.03142912 0.032394845 -0.0570299
-0.06866414 -0.06209415 -0.07889814 0.06824009 0.0014295536 0.031381916 0.03893504 0.04383647
0.05041162 -0.058684435 0.06747086 0.07059608 0.040273298 -0.027180137 -0.0093039945 0.044290144
00000000: a606 bf3c e02b 07bd 92f0 0b3c 624c a53d
00000010: 3a91 91bc 99a6 113d 8b66 90bd d2c7 963d
00000020: 8f7e aabc b955 1e3d 6a0f 9e3c 2c74 ab3d
00000030: 00a4 1e3d 32c8 8b3d 52e7 273c 48de 003d
00000040: 9618 453d 257a 6f3d e701 a9bc 2c57 f93c
00000050: b0b9 43bd b941 20bd 7579 a0bb fdf6 78bd
00000060: f028 243d f677 9e3d ec2d aa3c 3780 353c
00000070: 1565 6abd 943b 5b3d 64d5 43bd fd1d 923d
00000080: 84dc b5bd 2cf6 23bd 7aee bd3b 81d8 adbd
00000090: ed9d 7abd 8409 623c 06ac 4cbd 6d4e ccbc
000000a0: 75f0 28bd fe2a 37bd eb40 37bd 60e3 94bd
000000b0: c6dc 13bd d2bb 00bd 75b0 043d 2f98 69bd
000000c0: c99f 8cbd 6f56 7ebd 5995 a1bd 76c1 8b3d
000000d0: dc5f bb3a 538a 003d 597a 1f3d df8d 333d
000000e0: 6a7c 4e3d 175f 70bd 2a2e 8a3d ad94 903d
000000f0: 9df5 243d e1a8 debc c86f 18bc 9569 353d

6.weight f4 [3, 64]
0.091151915 -0.010012985 0.0064765844 -0.11833985 -0.019993989 0.118737005 0.08662736 0.0006682777
0.050993275 -0.10663871 0.12387543 -0.017261306 -0.055744313 -0.07785743 -0.11207447 -0.045974042
0.10736477 -0.066103496 -0.090266675 0.026075562 0.010415177 0.043466326 0.015335466 -0.011179576
0.0018992946 -0.057270616 0.07303477 -0.09219486 -0.094699346 0.08126572 0.07173314 0.018156521
-0.03290644 0.118606836 0.12172168 0.049583353 -0.112225555 0.10295715 0.0097479895 -0.067536786
-0.10646129 0.0064094584 0.01849378 -0.06444405 -0.114746876 0.087153874 -0.016218804 -0.019053888
0.0334531 -0.020425323 -0.03008532 0.095294245 -0.13059978 0.07642615 0.0055773505 0.061960336
-0.091039486 -0.081639454 0.03488051 -0.07708296 0.01205919 0.12044357 0.08023417 -0.0043780943
-0.07904065 -0.076695055 -0.0064828033 -0.005437526 -0.108611755 0.046909653 -0.056998517 0.11521168
-0.05805229 0.054457158 0.070785224 0.007978895 -0.113994904 -0.10623904 0.1063336 -0.073018394
-0.11975885 0.060997773 -0.06867972 -0.07159069 -0.024774604 -0.06809206 -0.024005624 -0.08374201
-0.100445636 0.12197666 0.019119132 0.037634943 -0.038324706 0.043137293 -0.1172038 0.08395055
-0.10215152 -0.11647271 0.0163082 0.036845353 0.05448521 -0.071232095 -0.050094567 -0.100672044
0.03973666 0.04337626 -0.10833472 0.04400224 -0.12877339 0.09773533 0.08613264 0.06377094
0.026141847 -0.035001643 -0.039736565 0.095514745 0.05829641 0.09532569 0.13088965 -0.05940825
-0.10029893 -0.08288178 0.0647779 0.024658231 0.063735336 -0.09131108 0.02197022 -0.07895433
-0.09658282 -0.05782786 0.049901374 0.07780702 -0.10300458 0.10980028 0.0329698 0.06741913
-0.024910614 -0.09874844 -0.096884854 -0.054525495 -0.120161675 0.10206133 0.058388196 -0.065106004
0.08587423 0.05334882 -0.07980993 0.016260052 0.023436328 0.09681315 0.06867209 -0.054670267
-0.034000166 -0.03638217 0.09544196 -0.015140094 0.10961337 0.065745056 -0.08689737 -0.0794822
0.08880867 -0.011148266 0.06936022 -0.07494861 0.059081107 -0.024092862 0.06994028 0.114263825
0.04906049 0.10890394 0.100875005 0.027526306 0.09314499 -0.07034527 -0.018216252 -0.120338745
-0.082311444 -0.032670133 0.001518471 -0.050711934 0.023027549 -0.10501373 0.067345046 -0.04553045
0.010225689 0.09809863 0.098810695 0.081083715 -0.09906177 0.07121934 0.025459843 -0.05202813
00000000: dbad ba3d 810d 24bc 8739 d43b 2a5c f2bd
00000010: 6fca a3bc 632c f33d af69 b13d 5b2f 2f3a
00000020: 53de 503d 6565 dabd 67b2 fd3d 9567 8dbc
00000030: 2654 64bd b773 9fbd 4d87 e5bd 474f 3cbd
00000040: 0fe2 db3d 4561 87bd bcdd b8bd 6b9c d53c
00000050: 6ba4 2a3c bf09 323d 9b41 7b3c 8a2a 37bc
00000060: c0f1 f83a 9894 6abd 4193 953d a9d0 bcbd
00000070: bbf1 c1bd a46e a63d d3e8 923d fcbc 943c
00000080: e7c8 06bd 24e8 f23d 3749 f93d ea17 4b3d
00000090: 83d6 e5bd 33db d23d 08b6 1f3c ba50 8abd
000000a0: 6008 dabd 6f06 d23b 4580 973c 3efb 83bd
000000b0: 6900 ebbd bb7d b23d 4cdd 84bc e616 9cbc
000000c0: 1e06 093d 0253 a7bc 7d75 f6bc a129 c33d
000000d0: f3bb 05be 5085 9c3d 35c2 b63b 1fca 7d3d
000000e0: e972 babd 9632 a7bd dede 0e3d acdd 9dbd
000000f0: e993 453c 1eab f63d d051 a43d 1e76 8fbb
00000100: 10e0 a1bd 4c12 9dbd b26d d4bb 462d b2bb
00000110: d76f debd 5624 403d 4777 69bd 1af4 eb3d
00000120: 3dc8 6dbd 780e 5f3d d8f7 903d e9b9 023c
00000130: 2976 e9bd db93 d9bd 6ec5 d93d ab8a 95bd
00000140: 2144 f5bd cdd8 793d f4a7 8cbd 249e 92bd
00000150: 1cf4 cabc da73 8bbd 71a7 c4bc ee80 abbd
00000160: 71b6 cdbd e6ce f93d ba9f 9c3c 1927 1a3d
00000170: 5efa 1cbd bbb0 303d 8c08 f0bd 44ee ab3d
00000180: d134 d1bd 3f89 eebd c698 853c 27eb 163d
00000190: e22b 5f3d 22e2 91bd f62f 4dbd 252d cebd
000001a0: e8c2 223d 4eab 313d 98de ddbd b13b 343d
000001b0: 2cdd 03be 7629 c83d 4f66 b03d 579a 823d
000001c0: 6d27 d63c e25d 0fbd cfc2 22bd 3c9d c33d
000001d0: 37c8 6e3d 1e3a c33d f007 063e 1156 73bd
000001e0: 8769 cdbd ecbd a9bd 47aa 843d 0f00 ca3c
000001f0: ac87 823d 4e01 bbbd e4fa b33c cfb2 a1bd
00000200: 37cd c5bd e8dc 6cbd 6265 4c3d 4959 9f3d
00000210: 11f4 d2bd f8de e03d 570b 073d 0a13 8a3d
00000220: 5811 ccbc 9f3c cabd 916b c6bd 2056 5fbd
00000230: 5317 f6bd 8805 d13d 7628 6f3d 4c56 85bd
00000240: d4de af3d 4b84 5a3d 6373 a3bd cd33 853c
00000250: 8bfd bf3c f945 c63d f4a3 8c3d eeed 5fbd
00000260: c243 0bbd 7805 15bd 1377 c33d 280e 78bc
00000270: f97c e03d 58a5 863d 40f7 b1bd 90c7 a2bd
00000280: 52e1 b53d 37a7 36bc bb0c 8e3d a87e 99bd
00000290: 08ff 713d 655e c5bc d93c 8f3d 2703 ea3d
000002a0: a7f3 483d 0709 df3d 8e97 ce3d d97e e13c
000002b0: cdc2 be3d 2e11 90bd 403a 95bc 2974 f6bd
000002c0: e792 a8bd 1ed1 05bd 6f07 c73a 51b7 4fbd
000002d0: 45a4 bc3c 7011 d7bd 33ec 893d 237e 3abd
000002e0: a689 273c efe7 c83d 435d ca3d 380f a63d
000002f0: e6e0 cabd 72db 913d 2991 d03c 731b 55bd

6.bias f4 [3]
-0.083395354 0.033674493 0.02957101
00000000: 2fcb aabd 44ee 093d e73e f23c
