src/training/discrete_actor.pth (torch, 201492 bytes, 8 tensors)

0.weight f4 [256, 31]
000000 cd e6 2a be ed 36 d8 bd 1a db 20 be 37 1f ed 3d
       -0.16689606 -0.10557351 -0.1570858 0.115782194
000010 95 72 f1 bc 2a 9f d2 3d 22 74 6d bd ce b3 84 3d
       -0.029473582 0.102842644 -0.05797208 0.064796075
000020 d3 c1 0e be c2 50 c5 bd 83 ed 10 3e 92 a2 f3 bd
       -0.13941126 -0.09634544 0.14153104 -0.11896242
000030 94 0a 1a be 13 d7 f6 3b c1 79 30 3e a2 f0 54 bd
       -0.15043098 0.007532963 0.17233945 -0.051987298
000040 e0 59 1e bd 02 1a 30 3d 75 af dc 3d 65 e2 45 bb
       -0.03865993 0.042993553 0.10775653 -0.0030194756
000050 4b 7f 0c bc 43 1d a2 bd e9 19 ec 3d 34 e2 9c 3d
       -0.008575271 -0.079157375 0.115283795 0.07660332
000060 bf ad 0f 3e d2 4c af 3d 79 2b 0b bd 1a 50 04 bd
       0.14031123 0.08559574 -0.033977006 -0.032302953
000070 e1 6a 1d be ce 9f 0e bd 8b da bd 3d dd 86 b3 bd
       -0.15372802 -0.03482037 0.092701994 -0.087659575
000080 c2 85 26 3e eb ff 12 be 05 6f e0 bc e9 69 d7 3d
       0.16261962 -0.14355437 -0.027396688 0.10518248
000090 40 2d 1d be c3 51 17 3e ac c1 35 3d 43 65 bd bc
       -0.15349293 0.14777283 0.044374153 -0.023119574
0000a0 55 c5 15 bd b2 a1 f8 bc ae 61 15 3e a9 a8 4b bd
       -0.036565144 -0.03035054 0.14588043 -0.049721394
0000b0 ce 90 e6 3d 57 b4 6c 3d 72 f3 a3 3d 03 65 22 bd
       0.11258088 0.057789173 0.08005418 -0.039647114
0000c0 51 06 fd 3d 13 6e 00 bc a9 ac 31 be 3d a3 26 3e
       0.123547204 -0.007838744 -0.17351021 0.16273208
0000d0 03 a1 2d 3e 65 d9 df 3d c6 3c 80 bc bf a0 a9 3c
       0.16955952 0.109301366 -0.015653979 0.020706533
0000e0 3a 1a e1 3d 22 c2 36 be 58 d9 1b 3c 64 7d 1a 3e
       0.109913304 -0.17847493 0.009512268 0.15086895
0000f0 0f 22 a0 3c c6 72 f8 3d a0 74 dc 3d 88 87 b4 bd
       0.01954749 0.12131266 0.10764432 -0.08814913
000100 75 b4 bd bd b4 4f 11 be c5 45 04 3e 12 d6 5c 3d
       -0.09262935 -0.1419056 0.1291724 0.05391509
000110 1e 65 72 3d 96 1a 0b 3e e4 0c e8 3d dd 0d 39 3c
       0.059178464 0.1358436 0.11330584 0.011294809
000120 ce 30 36 be 17 52 42 bd a8 cd d4 bd bd 18 ab bd
       -0.17792055 -0.04744157 -0.10390788 -0.08354328
000130 24 52 68 3b 1b 09 08 be 24 28 ae bd 62 a3 ca bd
       0.003544935 -0.13284723 -0.0850375 -0.09894444
000140 86 64 08 3e ea c3 d0 3d 87 c0 6f 3d ce 63 ea 3d
       0.13319597 0.10193618 0.058533218 0.114448175
000150 60 10 cd 3d c7 4a 92 bd 55 3c 27 3e 55 4c 0a be
       0.10012889 -0.07143169 0.16331609 -0.13505681
000160 e0 3d 28 3e 24 04 fd bb 6b f6 01 3e 88 42 39 3d
       0.16429853 -0.007721441 0.12691657 0.045229465
000170 50 f9 12 bd f7 8c c7 3d bb e3 39 bd 7a c3 b5 bd
       -0.035882294 0.09743684 -0.045383196 -0.08875175
000180 57 be 85 3c 29 ad 49 bc 00 4e 46 bd 8b ef c3 3d
       0.016326113 -0.012309351 -0.04841423 0.095671736
000190 31 11 a6 3d ba 2f b8 3d 44 03 a0 bd ad 38 82 3c
       0.08108748 0.08993478 -0.07813123 0.015896166
0001a0 7a d7 5a 3d e6 8d a7 3d 1c 3a fd bc 84 33 a7 3d
       0.05342815 0.08181362 -0.030911498 0.08164123
0001b0 c1 2e 00 be f4 30 bf bc 16 ff 2e 3e 8e 35 21 be
       -0.12517835 -0.023338772 0.17089495 -0.15743086
0001c0 6d 71 aa bd c0 54 83 bd b8 6c 81 3d 4f c7 14 3e
       -0.083224155 -0.06412649 0.063195646 0.14529155
0001d0 9a 52 1c be 01 31 ba bc 2e e6 68 3d 24 ed 51 3c
       -0.15265885 -0.022728445 0.05686014 0.012812886
0001e0 70 ab b3 3d e1 57 18 3d 84 d3 34 3e 63 88 49 3d
       0.087729335 0.037193183 0.17658812 0.049202334
0001f0 d6 4d 20 be 0a 9f 88 3d d5 97 b9 3c b5 78 a5 bd
       -0.15654692 0.06670959 0.022655407 -0.08079664
000200 39 8b 12 3e 7d 4c 30 be 37 85 11 3d 4a 4c e5 bd
       0.14310922 -0.17216678 0.035527434 -0.111961916
000210 f4 c5 aa 3d be 81 f0 3d 2a 4a 74 bd 27 6b ff 3c
       0.08338538 0.11743496 -0.05964104 0.031179024
000220 6c 2e 13 3e f2 bf 2c 3c 96 2e 37 be 1d 5b 9f 3c
       0.14373177 0.01054381 -0.17888865 0.019452626
000230 d6 b7 54 bd 93 3c 63 bc e2 ba a5 bd d9 5b 16 3e
       -0.051933132 -0.0138694225 -0.08092286 0.14683475
000240 4a 8c a4 bd 71 3a 19 be 83 8b fe 3d ac 54 36 bd
       -0.080345705 -0.149637 0.124289535 -0.044514343
000250 a6 43 6f 3d 72 1b a7 bd 8e 82 8c 3d e0 61 b9 3c
       0.058414124 -0.08159532 0.06860839 0.022629678
000260 f4 e7 b1 bd fa 21 32 be 4b dc 94 3c c7 3b 28 bd
       -0.0868682 -0.17395774 0.01817145 -0.041072633
000270 6b 38 b5 3c 86 1e cd 3d 81 07 0a be b0 f8 60 bc
       0.022121629 0.100155875 -0.13479425 -0.013731167
000280 53 0b 8d 3d 96 4a 1c be 67 0e 7e 3c 97 96 ee 3d
       0.068869255 -0.15262827 0.0155063635 0.116498165
000290 a3 b8 6e 3d 9d 2f 91 3d 96 c2 06 3c 21 c2 ef 3d
       0.058281552 0.0708916 0.008225104 0.11706949
0002a0 e9 b6 38 bd 76 5c 22 be 21 16 03 3e e5 5e 0f 3e
       -0.04509631 -0.15855584 0.1280141 0.14001043
0002b0 52 75 46 3d ba c6 2a bc 9e 23 07 3d 6e 14 28 be
       0.04845173 -0.010423357 0.03299295 -0.16414043
0002c0 ae b0 9c bd 2d ae 04 be 36 6c 12 3d 0c fb 1c bb
       -0.076508865 -0.12957068 0.03574773 -0.0023953347
0002d0 db 8b 47 bd a5 e0 32 3e 31 09 c6 3d 46 dc ab 3d
       -0.04871736 0.17468508 0.09669722 0.08391623
0002e0 d5 b3 0c 3e 41 60 ef bc 36 ba 21 bd ae 9b 2e be
       0.13740475 -0.029220702 -0.039484225 -0.17051575
0002f0 b9 7b 6a bd 5d 4f 87 bd 5e b2 b4 bd 4e 6b 13 be
       -0.057246897 -0.06606934 -0.08823083 -0.14396402
000300 cc 00 c9 3d 4a 47 02 bd b0 86 25 3e f3 1f b7 3c
       0.09814605 -0.031806268 0.1616466 0.022354102
000310 81 ae 3f 3c ff 82 94 3d 38 d9 ea 3d 22 e8 98 3d
       0.01169932 0.07251548 0.114672124 0.07466151
000320 2b da aa 3d 57 6e 30 3e 77 45 f6 ba 70 ec f1 bc
       0.083423935 0.17229591 -0.0018789013 -0.029531687
000330 9d bd 03 be 3a 9b 0a 3e c1 9e 3c bd a1 01 56 bd
       -0.128653 0.13535777 -0.046049837 -0.052247647
000340 1f e3 c4 3d cb 2c 5e 3c c8 ba ec bc 85 bb f7 bd
       0.096136324 0.013560484 -0.028897658 -0.120963134
000350 e0 08 34 3e e2 33 82 3d 02 0b 54 3d 95 e9 2b be
       0.1758151 0.06357552 0.05176831 -0.16788323
000360 e9 f9 99 bd 20 d3 0b 3b 5c b3 1a 3e 6e 5b e8 ba
       -0.0751837 0.0021335557 0.15107483 -0.0017727443
000370 c1 40 7d 3d ae 2f 26 3e e8 b3 46 bc 01 23 2e be
       0.061829332 0.16229126 -0.012127854 -0.1700554
000380 97 d5 ef bd 25 ea c1 3c cf 31 ec 3d aa ec e7 bb
       -0.11710661 0.02367122 0.11532938 -0.007077773
000390 15 c6 4e bd 8f 20 0a be 29 03 c8 bd db a8 d8 3c
       -0.050481874 -0.13488983 -0.09766228 0.026447704
0003a0 76 8b 01 be d8 f7 0f 3e 4a 90 0e 3e 2b 85 44 3d
       -0.12650856 0.14059389 0.1392223 0.04797856
0003b0 c4 8d be 3d 00 d8 24 be a9 11 fe 3d 01 d0 21 be
       0.093043834 -0.16098022 0.12405712 -0.15802003
0003c0 fa 05 db 3c 37 33 37 be 42 8a 04 3e 24 7c 28 be
       0.026736248 -0.1789063 0.12943366 -0.16453606
0003d0 5c d3 94 3c 38 50 73 bd 5d d6 b8 3d ef 73 29 be
       0.01816719 -0.059402674 0.090252616 -0.16548131
0003e0 2e 27 7f bd 87 6b 26 3d 45 51 06 be 5e a1 0e be
       -0.062293224 0.04062989 -0.1311694 -0.13928744
0003f0 60 7d 02 3d 42 73 a4 bc ed dd 17 3e e2 36 04 3e
       0.03185785 -0.02007449 0.14830752 0.12911561

0.bias f4 [256]
000000 e0 a3 ae bd 78 3d 69 bd f9 56 f6 bd 7b 1e c6 bd
       -0.085273504 -0.056943387 -0.120283075 -0.096737824
000010 1a 4c d3 bd d8 c7 6b 3d 2c 29 c8 bd e4 04 83 3c
       -0.103172496 0.057563633 -0.09773478 0.015993543
000020 a2 cc 51 3d 4a 1c 5a bd 2b 7f c9 bd 51 c4 d4 bc
       0.051220544 -0.053249635 -0.098387085 -0.025972517
000030 e9 b5 41 3d 3d 3f 37 3d 20 fb 10 3e 3f 5d 93 bc
       0.047292624 0.044738043 0.14158297 -0.0179888
000040 33 fc 26 3e cd 64 11 bd 32 e9 0a be 52 f2 be bd
       0.16307144 -0.03549652 -0.1356552 -0.09323563
000050 cb 2c 7f 3c ab 85 c7 3d be 93 3e 3e 43 4b 1a be
       0.015574644 0.09742292 0.18611047 -0.15067773
000060 05 8c 4f 3d 18 6e 66 bd a8 c8 2a bd 06 81 37 be
       0.050670642 -0.056257337 -0.041695267 -0.17920312
000070 d4 b1 1b 3e 72 25 39 3e e3 a2 c1 bd a7 19 f9 bd
       0.15204555 0.1808069 -0.09454896 -0.12163096
000080 1a 69 ea bd bb ff 9f bd 39 55 a6 bc c9 b8 61 3c
       -0.11445828 -0.078124486 -0.02030431 0.013776966
000090 3a 53 73 bd 11 cd 0d 3b bd 07 dd 3c c9 72 3e bd
       -0.059405543 0.0021637122 0.026981229 -0.046496186
0000a0 65 4f 15 bb f4 1f 8c 3d 48 e2 49 3e 9a 85 05 3d
       -0.0022782919 0.06842032 0.19715226 0.032598116
0000b0 d3 53 08 3d 1c 1e 15 3e d4 39 a3 bd 80 b2 19 3e
       0.033283066 0.14562267 -0.07970014 0.15009499
0000c0 a2 86 69 bd 76 15 5d 3c 1b 1d 16 bd ee 48 7a bd
       -0.05701316 0.013493886 -0.03664885 -0.061104707
0000d0 3e ca 47 3e 96 91 84 3d 13 c7 b1 bd 80 95 04 3e
       0.19510743 0.06473081 -0.086805485 0.12947655
0000e0 f5 99 99 3c 67 52 19 bd 6f 22 0d be 8a 73 aa bd
       0.01875017 -0.0374321 -0.13782667 -0.083228186
0000f0 fd ba 12 be 4d 0f e6 bd a9 e8 09 3d 62 db ec bd
       -0.14329143 -0.11233387 0.033669148 -0.115652815
000100 97 e1 69 bc f7 1d c4 bd d1 20 e1 bd f5 d7 3c 3e
       -0.014274976 -0.09576028 -0.10992587 0.18441756
000110 b8 2e d0 bb ba 0f 35 3d 4c 3e 9a 3d bd 49 0a be
       -0.0063532256 0.04420445 0.075314134 -0.13504691
000120 1d 06 09 3d ec 3c b8 bc fe 44 d3 3d 06 3b d8 3c
       0.033453096 -0.022489987 0.103158936 0.026395332
000130 81 3e ef 3d 42 71 dd bb 08 d1 ff 3d b2 6c 1e 3d
       0.116818435 -0.006757886 0.124910414 0.03867788
000140 c6 95 61 3c 32 16 0c bd 10 ce 35 3e a1 9c 8d bb
       0.013768619 -0.034200855 0.17754388 -0.00432165
000150 c5 05 20 bd 8d 54 32 3e c2 8f 8d 3d 62 da 5f 3d
       -0.039068002 0.17415066 0.06912185 0.054651625
000160 34 69 09 bc 4e a9 cd 3d c4 d4 9f bd de 7b 2a 3e
       -0.008386899 0.10042058 -0.07804254 0.16648814
000170 81 3e bb bd a1 28 e9 bc 88 d9 e1 bb 0c 8c b9 bd
       -0.09142781 -0.028461756 -0.006892387 -0.09059915
000180 24 ad 3b 3e 5a 3e e8 bd 82 25 fe bd a1 56 86 3d
       0.18327767 -0.113400176 -0.12409498 0.06559492
000190 8b e5 00 3e 74 39 1e 3e b1 6d a6 3d 0e 38 e5 bd
       0.12587564 0.15451604 0.08126391 -0.11192332
0001a0 76 b6 d5 bd 74 a4 17 be 8d 61 0a bd 45 30 b6 3d
       -0.10435192 -0.14808828 -0.033784438 0.088959254
0001b0 8a 15 91 bd 69 a8 20 3e 23 4b 2a be 37 99 f0 bc
       -0.070841864 0.15689243 -0.16630225 -0.029369934
0001c0 65 23 00 3e 73 cd 8c 3d 14 f3 1b 3e 65 6e 75 3c
       0.12513502 0.06875124 0.15229446 0.014979933
0001d0 29 5f 4d bd 36 73 4a 3c e4 ca 08 3e 89 54 82 3d
       -0.05013958 0.01235657 0.13358647 0.0636378
0001e0 ae 1f 8a ba df 10 a6 bd 88 81 4d 3d 94 e2 62 bd
       -0.0010538006 -0.08108687 0.05017236 -0.055391863
0001f0 b3 14 45 3d 9d 94 f6 3d b9 76 be 3d 5a f9 0a be
       0.048115443 0.120400645 0.09299988 -0.13571683
000200 b7 c8 ab 3c cf f5 1e be 22 15 0c bc 2e b4 ca bd
       0.020969732 -0.15523456 -0.00854996 -0.09897648
000210 0b 3a ea 3c 12 57 74 3c e5 3d 61 bd df 29 2c 3e
       0.02859213 0.014913337 -0.054990668 0.16812848
000220 c6 18 c7 3d da ec f7 3d 29 02 3d be dd 78 23 3e
       0.09721522 0.12105723 -0.18457855 0.15964074
000230 4a 54 c1 bd fe 28 1d 3b 5e fa dd bd e7 52 06 bd
       -0.09439905 0.0023980732 -0.108387694 -0.032793906
000240 1a 9f 30 bd 4b 09 27 3e de cb 0c 3e 4e 68 6d 3d
       -0.04312048 0.16312139 0.13749644 0.0579608
000250 eb 0e 2c 3e 00 b5 1f be 81 8f 11 be 69 a2 18 be
       0.16802566 -0.1559639 -0.14214899 -0.14905705
000260 d3 36 af bb 84 c4 ac 3d a7 01 ae bd 21 d6 c6 bd
       -0.0053471117 0.0843592 -0.08496409 -0.097088106
000270 d6 b6 33 bd a8 0f 79 bd f4 c5 b0 3d 6f 52 9f bc
       -0.043875538 -0.060805947 0.086315066 -0.019448487
000280 09 e9 9a bd cf 67 72 bd d9 ae 17 bc c8 b1 cc bd
       -0.07563979 -0.05918103 -0.0092579955 -0.099948466
000290 c2 f2 08 3e 71 ab 96 bd bc 31 8e bd df f8 e0 3d
       0.13373855 -0.073569186 -0.0694308 0.109849684
0002a0 24 f2 12 3e 02 40 74 3c 6c bb 3d bd f1 e7 0c be
       0.14350182 0.014907839 -0.046321318 -0.13760354
0002b0 54 4a 3b be 72 12 ba 3d 12 71 f5 bd df 56 49 3d
       -0.18290073 0.090855494 -0.11984457 0.049155112
0002c0 7b 17 09 be 15 5c bb 3d f2 69 eb bd ab ee 34 bd
       -0.13387863 0.09148423 -0.11494817 -0.044172924
0002d0 96 d3 07 be 68 9d fe bc f4 e5 e7 3d 26 16 48 3d
       -0.13264307 -0.031080917 0.11323157 0.048849247
0002e0 eb 4e 03 3e 3f fe 17 3e ee 39 9a bd 36 13 e8 3d
       0.12823074 0.14843081 -0.075305805 0.11331789
0002f0 69 1c 81 3d b9 09 f0 3d 10 89 7c bd 5d 1b f4 bd
       0.06304247 0.117206044 -0.06165415 -0.11919282
000300 b2 7a 06 3a db 07 83 bd 4d 11 dc bd 01 89 5a bc
       0.00051299774 -0.06397983 -0.10745487 -0.013338328
000310 02 44 8b 3d 3b 31 00 bd 32 c5 d9 bd d1 6e 30 3e
       0.06800081 -0.03129695 -0.10633315 0.17229773
000320 14 08 e4 3d 45 88 e3 bc da 1e 90 3d 41 a3 7f bc
       0.11134353 -0.02777494 0.070371345 -0.015602888
000330 0f 74 ab bd ee c1 a5 3c 1c 96 19 3e c0 9e 8c bb
       -0.08371746 0.020234074 0.14998668 -0.0042913854
000340 b1 55 15 3d 8a 13 25 3e 5f 25 5f 3d 5a 47 09 be
       0.036458675 0.16120735 0.054479 -0.13406125
000350 1d b7 16 be 7a af 9c bd 14 9c a9 3b 8f cb 0c 3c
       -0.1471829 -0.07650657 0.0051760767 0.008593454
000360 91 c5 82 3d 4b ed ff bd 43 e2 ae bd f9 ba f7 3d
       0.06385339 -0.12496432 -0.0853925 0.12096209
000370 d7 15 3f be f1 7f e3 bd 1c 54 e4 3d 09 94 2e 3d
       -0.18660675 -0.11108387 0.11148855 0.042621646
000380 77 16 9b bd 4f 94 04 3e c0 7a 6b bd d9 cf 92 3d
       -0.07572644 0.129472 -0.05749011 0.0716855
000390 11 af 16 bd 7b 5f b1 3c f9 b0 54 bd 1f 04 c7 3d
       -0.03678805 0.021651974 -0.051926587 0.09717583
0003a0 94 0d 6b 3d 7f 35 42 3e 1a 00 3f be 79 b7 48 3e
       0.057385996 0.1896572 -0.18652382 0.1960124
0003b0 49 73 10 3d 58 db a9 ba 48 bd 0e 3e 8e 3c 81 3d
       0.035266194 -0.0012959046 0.13939393 0.06310378
0003c0 cb 57 0c bc ba c9 f3 3d f2 6e 0a be 75 33 d8 bd
       -0.008565853 0.11903711 -0.13518885 -0.1055669
0003d0 84 6f 89 bc 1c cc 21 bd 46 35 07 3e 01 36 0e bd
       -0.016776808 -0.039501294 0.13203916 -0.03471947
0003e0 6e 1a 22 3e 15 e1 20 3e 5a ef 8b bb 61 be 25 be
       0.15830395 0.15710862 -0.0042704763 -0.16185905
0003f0 94 76 99 bd 17 e0 38 3d f8 47 8c bd e3 00 43 3e
       -0.0749332 0.045135584 -0.068496644 0.19043307

2.weight f4 [128, 256]
000000 a0 85 d4 3a e4 f5 5b bc c2 77 04 3b ce c4 75 3c
       0.001621414 -0.013425324 0.0020212983 0.015000535
000010 d0 65 bc 3c 7c 6e 11 bd b8 cb 99 bc 7d 7d 47 3d
       0.022997767 -0.035505757 -0.018773898 0.04870366
000020 12 e9 53 bd 4a 5d 52 3d 2b 73 72 bc 13 e0 83 bd
       -0.051735945 0.0513585 -0.014797966 -0.06439223
000030 68 d2 34 bd 5f 73 d3 bc f6 fd 5e bc 3f f3 a4 3c
       -0.04414597 -0.02581185 -0.013610354 0.02013552
000040 c0 02 43 3d c5 5b 37 bd 8f 85 60 bd 39 8b 22 bd
       0.047610044 -0.044765253 -0.05481487 -0.039683554
000050 0f be 0d bd f7 b1 77 3c 67 77 08 3d a5 62 90 3c
       -0.034605082 0.015118114 0.033316996 0.017625162
000060 64 6d 92 3c 4d 81 c9 3b 36 37 97 ba 75 74 3d 3d
       0.017874427 0.006149447 -0.001153684 0.04625364
000070 a5 04 ae 3c e8 38 5c bd 1a e6 7e bb b2 ba a9 bc
       0.021242449 -0.053765208 -0.0038894475 -0.020718906
000080 ea 72 75 bd 5a b2 52 bc c1 8a 77 3c 5b af c1 bb
       -0.059924044 -0.012859905 0.015108765 -0.0059107966
000090 fe 69 79 bd a2 02 27 3d ab c4 61 3c cc ae fb 3c
       -0.060892098 0.040773995 0.013779799 0.030722998
0000a0 32 68 a5 3b 68 b7 55 bd d7 61 ab bc f1 aa 01 3d
       0.0050478214 -0.052176863 -0.020920677 0.031657163
0000b0 f1 d7 ea bc 22 71 1a 3d 68 b6 0e bd 07 78 0a bd
       -0.028667422 0.037705548 -0.034841925 -0.033805873
0000c0 95 2e e4 3c 4f 15 2e bd a3 e2 5c 3a a6 33 a4 3c
       0.027854243 -0.04250079 0.00084261055 0.02004416
0000d0 7c 2b c5 3b 4c 0f 5a bd 34 38 82 bc e4 8b 5f bd
       0.0060171466 -0.053237244 -0.01589594 -0.05457677
0000e0 b0 90 8a 3c 52 cf ba 3b 61 d9 a2 bc ff d5 a5 3b
       0.016914696 0.005700984 -0.019879045 0.0050609107
0000f0 d6 34 59 bd 76 7f 32 bd b1 f6 d7 bc 2d 44 3e bd
       -0.053028904 -0.043578587 -0.026362749 -0.046451736
000100 55 63 48 3c 50 78 53 bd 7f 96 2c 3d e9 1c 53 3d
       0.012230714 -0.05162841 0.04213571 0.051541243
000110 d9 49 31 bd c0 de 9e bc eb 77 a5 3a 00 6f 16 bd
       -0.043283317 -0.019393325 0.0012624239 -0.03672695
000120 4e 2d 8d bd 55 49 d8 3c 4b 2c 6e 3d 67 00 06 3d
       -0.06893407 0.026402155 0.05814771 0.032715227
000130 df 1e 85 bc 1d 98 39 3d d6 0a 10 bb 4f c5 d7 3b
       -0.016250072 0.045311082 -0.0021979115 0.0065848003
000140 7c 63 89 3c f5 f7 fa bc 03 10 da bb 86 e8 fa 39
       0.01677107 -0.030635813 -0.006654741 0.0004785696
000150 f9 aa 45 3d a6 02 5a bd cd 15 ef bc 79 b0 0d 3d
       0.048258755 -0.053225182 -0.0291852 0.034592126
000160 eb 9c 48 bd 86 c5 fb 3b 7e 76 a4 3c 95 16 d4 3c
       -0.048977774 0.0076834587 0.020076033 0.025889674
000170 52 5e 18 bd 7a c6 0d bd 3e 25 c2 3c 0c 50 2e 3c
       -0.037199326 -0.03461311 0.0236994 0.010639202
000180 29 56 7f bc 80 c3 4e bd 48 8a 45 bd 7f 97 2d 3c
       -0.015584507 -0.050479412 -0.04822758 0.0105952015
000190 e0 37 0d bd bc fa 47 3d 28 8c 80 bd 4d 19 03 bc
       -0.034477115 0.048823103 -0.06276733 -0.008001638
0001a0 63 42 6f bd 9a 1d 44 bc 1f 52 54 3d eb 51 b2 bb
       -0.05841292 -0.011969948 0.05183613 -0.0054418943
0001b0 99 4e 87 3d f7 87 12 3d dd 97 8e bc c3 dc 00 bd
       0.06606788 0.035774197 -0.017406398 -0.031460535
0001c0 64 a3 5f bb 70 32 74 bd c3 80 02 bd 07 49 ae bc
       -0.0034124488 -0.059618413 -0.031861078 -0.021275057
0001d0 33 1f cf bc 62 1d 80 bd 85 62 c1 3c 81 ed 7e 3d
       -0.025283432 -0.06255604 0.023606548 0.06223822
0001e0 2c f1 f8 bc 77 00 3b 3d 40 69 d6 bc ba ec 90 bd
       -0.030388437 0.04565474 -0.026173234 -0.07076402
0001f0 98 f5 31 bd 07 ff e2 bc f6 a3 79 bc e6 95 3b bd
       -0.043447107 -0.027709497 -0.015236845 -0.04579725
000200 f4 27 f9 bc 5a 2c 3c 3d 43 3b cd 3b ce cc 4b 3c
       -0.030414559 0.045940734 0.006263168 0.012438966
000210 43 c8 4a bc 46 47 52 3d fd c0 c0 bc b3 05 ef 3b
       -0.012376848 0.051337503 -0.023529524 0.0072943806
000220 79 bd 97 bc 90 fc 69 3d 25 e5 8b 3c ce 1c 4e 3d
       -0.018522965 0.057125628 0.017077038 0.05032044
000230 18 7b 1d bd 64 fe 7a bd b4 1c 93 3c bf af e4 bc
       -0.03844747 -0.061277762 0.017958023 -0.027915834
000240 4c 2b 0d bd c0 54 2e bd 94 0a 54 3d 50 ee 53 3d
       -0.03446512 -0.042561293 0.0517679 0.051740944
000250 4c 40 66 bb 8a 07 67 bd 29 c4 85 3c 33 97 12 bd
       -0.0035133539 -0.056403674 0.016328888 -0.035788726
000260 8e 82 16 3d 58 ab 47 3d 61 61 89 bd 6e 28 c9 3b
       0.0367456 0.04874739 -0.06708027 0.006138853
000270 59 e6 f9 3c 43 4a ba bc 80 69 1a 3d 53 4d 86 bd
       0.030505346 -0.022740489 0.03769827 -0.06557717
000280 f6 2c 13 bd 7e 82 87 bb e2 74 05 3d f4 57 f2 3c
       -0.03593155 -0.004135429 0.03258217 0.029582955
000290 d0 3b 12 bd 3f 7d 51 bd 82 47 3a bd 13 a8 d0 bc
       -0.035701573 -0.051144835 -0.04547835 -0.025470769
0002a0 d9 d9 40 bd 4e 74 fe bc 3a b8 65 3a 63 b1 06 3d
       -0.047082756 -0.031061318 0.00087631086 0.032884013
0002b0 b0 3f 28 3a 78 cf 98 3c ac cb 31 3d ed 8d e7 b9
       0.00064181816 0.018653616 0.043407127 -0.00044165496
0002c0 9c 49 78 bd 1d 7e 0d bc 71 d3 8c bd 40 39 20 3a
       -0.060617074 -0.008636025 -0.06876267 0.00061120465
0002d0 43 23 61 bd 66 bf 7d 3d 5c 88 76 bd 21 35 74 bc
       -0.05496527 0.06195011 -0.060188636 -0.014905245
0002e0 55 3c 36 bc 5e b4 1c 3b 94 e1 12 3d a4 e7 44 3d
       -0.011122783 0.0023911218 0.03585966 0.048072472
0002f0 ee dc 7c 3d 7d a2 fa 3b 23 bd 2e 3c 44 99 df 3c
       0.061734132 0.0076487646 0.010665211 0.027294762
000300 70 66 49 bc dc 21 67 bd 57 a0 80 3c 44 d6 81 bd
       -0.012292489 -0.056428775 0.015701456 -0.06339696
000310 cd cb 10 bd ec c3 11 bd f4 07 f0 3c d8 0e eb 3b
       -0.03535061 -0.035587236 0.029300667 0.0071734004
000320 92 af 34 bd e8 5d f7 3b 9b 23 84 bc b7 91 a7 bc
       -0.04411275 0.0075490363 -0.01613026 -0.020455224
000330 f0 ae 7f 3c 03 66 63 3a b5 e2 9a 3c b1 df 6c bc
       0.015605673 0.0008674564 0.01890693 -0.014457629
000340 63 f3 05 bc e3 57 ad 3c 20 d8 4e bd 1b c6 06 bd
       -0.008175704 0.021160072 -0.05049908 -0.03290377
000350 38 cb 1c 3c 79 1e b2 bb 7c 6c 4d bd 9e b1 10 3d
       0.0095699355 -0.0054357615 -0.050152287 0.03532564
000360 e0 99 76 3b 9d 35 da 3c 07 59 38 bd 6e 95 87 3b
       0.0037628338 0.026636893 -0.045006778 0.0041376865
000370 8b f6 9d 3c 62 ec 83 bd b7 fb c3 3c 42 74 ea 3c
       0.0192826 -0.06441571 0.023923738 0.02861989
000380 27 08 3e bc 18 5a 5d bc 30 27 58 bd 1d d4 b3 bc
       -0.011598623 -0.01351025 -0.052771747 -0.02195173
000390 0b 6f e6 bc 63 52 70 3d 47 5e f7 3c 0a 93 7c bc
       -0.028129121 0.05867232 0.030196322 -0.015415916
0003a0 53 cb 02 3d 88 9a 0c bc 97 46 60 3d e3 70 65 bd
       0.031932186 -0.008581765 0.05475482 -0.05601586
0003b0 a5 99 08 3d 3a 13 73 3b 1a 85 55 3c f4 26 2e bb
       0.03334965 0.0037090317 0.013032222 -0.002657351
0003c0 49 a1 58 bc 27 97 1b 3d 27 aa f4 bc 27 78 19 3d
       -0.013222047 0.037985947 -0.029866291 0.0374681
0003d0 0d 31 26 bd ec d9 19 3c e4 8d 01 3c a7 aa 5b bd
       -0.040574122 0.0093903355 0.0079073645 -0.053629544
0003e0 59 4a 42 3c 83 20 06 3d 53 6a d8 bc 65 6e 87 3d
       0.011858546 0.03274585 -0.026417887 0.06612853
0003f0 d7 aa a7 3c 8f a2 85 bd f2 02 0c 3d 92 6a 17 3d
       0.020467205 -0.06525146 0.034182496 0.036966868

2.bias f4 [128]
000000 05 ad 18 3d 78 d2 48 bd c1 30 83 3d e7 30 99 3d
       0.03727438 -0.049028844 0.064057834 0.074800305
000010 5e 91 2e bc 3f 9e 88 3c f2 34 4b bd 03 94 ff ba
       -0.010654775 0.01667702 -0.04961104 -0.0019499067
000020 12 ff e7 bc 65 59 f1 bc 84 74 af bc 18 93 02 bd
       -0.02831987 -0.029461572 -0.021417864 -0.03187856
000030 9e d8 86 ba d2 81 08 bd 03 9e aa 3c 8a 9d 85 3d
       -0.0010287946 -0.03332693 0.020827299 0.06524189
000040 f3 43 6f bd cc 8b 2b 3c 7a 7b 0c 3d ad e1 81 bc
       -0.05841441 0.010470342 0.034297444 -0.01585468
000050 0c 2b 74 bd ac 8b d1 3c 76 f8 02 3d 61 bf 59 3d
       -0.059611365 0.025579296 0.031975232 0.05316103
000060 37 8e ca bc b7 5d 60 3d 16 16 82 bc 1a 5c ad bb
       -0.024726016 0.054776873 -0.015879672 -0.0052905204
000070 e7 6f 55 bc 65 50 9e 3d 3c 8d 5a 3d a8 82 8d bd
       -0.013027168 0.07730178 0.053357348 -0.06909686
000080 8c 02 4b 39 ff 2a 18 ba 97 30 8f 3c c2 63 62 3d
       0.00019360537 -0.0005804747 0.017479224 0.055270918
000090 2f 0f 67 bd 31 48 e1 bc eb 8e 19 bd 54 34 06 bc
       -0.056410965 -0.027500244 -0.037489813 -0.008191187
0000a0 ae a4 a3 3a 3c a8 44 3d 64 80 14 3d 33 c6 c2 3c
       0.0012484991 0.048012003 0.036255255 0.02377615
0000b0 a3 16 7d bc bd 91 0a bc 94 38 08 3d e5 9b 82 bc
       -0.015447292 -0.008457598 0.033257082 -0.015943477
0000c0 51 2b 10 3c c9 50 8b 3b b3 63 0d bd 85 a9 02 bd
       0.00879939 0.0042515737 -0.03451891 -0.031899948
0000d0 f2 37 33 3d 92 98 60 3d cf 7a b7 3c 26 ca 44 bc
       0.043754525 0.054833002 0.022397427 -0.012011087
0000e0 d3 a9 fa 3c 72 ed 8d 3d 69 b9 0e 3d 35 ee 45 bc
       0.030598557 0.06930055 0.03484479 -0.012080719
0000f0 75 77 39 bc 71 c2 ce 3c d8 d3 26 3d fc c1 4f 3c
       -0.011319985 0.025239201 0.040729374 0.012680527
000100 9e d3 f3 bb 10 87 a9 3c e0 8d eb bc 3f 42 cb 3c
       -0.007440998 0.020694286 -0.028754175 0.024811862
000110 8a 76 1a 3d 40 49 e1 bc 7d fa 80 3d da b5 f3 3b
       0.037710704 -0.027500749 0.06297777 0.00743745
000120 68 15 08 3d 26 2f 34 3d dc 7f 5e bd e1 2b 3c bd
       0.03322354 0.043990277 -0.054321155 -0.045940284
000130 9e 9d 36 3d 1a dc 09 bd a0 0c 41 3d 4b d8 c3 3c
       0.04458391 -0.03365717 0.04713118 0.023906847
000140 b6 1a 24 bc b4 1f 2c bd 9f 7c 07 3d d1 d9 b1 3a
       -0.010016134 -0.042022422 0.033077832 0.0013568943
000150 14 db 88 bd 5d 57 46 3d e9 54 61 3d ae 7e 35 3d
       -0.06682411 0.04842316 0.055012617 0.044310264
000160 ca 56 c1 bc 37 14 45 bc e8 84 83 3c 9d 3b 5b 3b
       -0.023600955 -0.012028745 0.016054586 0.003345228
000170 1e b2 4a bd 3f 86 f4 3c 62 5e 93 3d 8d 25 76 bb
       -0.049486272 0.02984917 0.071957365 -0.0037559003
000180 1d 28 e4 bc 35 89 68 bc 7e da 92 bd 15 73 1d bd
       -0.027851159 -0.014192869 -0.0717058 -0.03843983
000190 fd 20 3c 3d d8 54 da bc c5 92 24 3d e2 da ec bc
       0.045929898 -0.026651785 0.040179033 -0.028912965
0001a0 7c d1 9f 3d c1 62 64 ba da b3 14 bd 94 b9 11 3b
       0.07803628 -0.0008712225 -0.036304332 0.0022235857
0001b0 91 56 64 3d e9 39 cf 3b ac c2 e9 3c 29 a5 81 3c
       0.05574662 0.006324042 0.02853521 0.015825825
0001c0 7e a6 c8 3c c5 b6 97 bc 42 78 41 3d 72 7e 30 3d
       0.024493452 -0.018519768 0.047233827 0.043089338
0001d0 0b 23 2f 3d 5a 72 ee 39 6d 30 45 bd 2d df 0b bc
       0.04275803 0.00045480096 -0.048141886 -0.008537096
0001e0 84 fb 27 3c ea 27 9f 3c d9 11 a8 3c 2b 72 a2 bc
       0.010252837 0.019428212 0.020516323 -0.01982983
0001f0 9b db ea bc 6c 0d ae bb f3 d8 ef 3c a6 29 7d 3c
       -0.02866917 -0.0053116586 0.029278254 0.015451824

4.weight f4 [64, 128]
000000 42 01 01 bd 3b f3 32 3d d2 3d bf bc 09 e0 8b bb
       -0.03149534 0.043688994 -0.023344908 -0.0042686504
000010 a9 a8 db 3d 49 4c 21 3d 5f b2 19 bd c5 7d ba bd
       0.10725529 0.03937939 -0.037523624 -0.0910602
000020 d5 24 8a 3d 51 05 e3 bb c7 ae 68 3d 9c b0 dc 3d
       0.067453064 -0.006928124 0.056807306 0.10775873
000030 e3 98 9d 3d 5b 44 b3 bc 9e e7 de 3d 54 97 46 bd
       0.076951765 -0.02188318 0.10884021 -0.04848416
000040 8b a2 09 bd ad 84 5b 3b 72 41 6f bd 8e f4 8a 3d
       -0.03360228 0.003349583 -0.058412023 0.06784926
000050 44 15 9f 3c ef 08 13 bd 5c 7a bb bc 1f b3 da 3c
       0.01941932 -0.03589719 -0.022885494 0.02669674
000060 6d 06 df bc c8 6c 29 3c 94 17 3d bd 13 d5 59 3d
       -0.027224744 0.010340877 -0.046165064 0.05318172
000070 67 34 6a bd 8d 2e 28 3d 42 4f 88 bd fb 4c cb bd
       -0.05717888 0.04106002 -0.06655742 -0.09926792
000080 2d 49 76 bc 63 d6 dd bc 95 68 27 3d 44 f3 57 3c
       -0.015032095 -0.027079767 0.04087122 0.013180558
000090 43 ae 88 bc c2 68 47 bd 24 d8 6a 3d 2f f4 e4 3b
       -0.016684657 -0.04868389 0.057335034 0.0069871168
0000a0 a2 34 56 3d 8d 2d 1f 3d 30 03 18 bc 8b 23 6a bd
       0.05229629 0.0388618 -0.009278104 -0.057162803
0000b0 c0 83 61 3d b4 98 b7 3d c7 cf 7e bd 2e 74 51 3d
       0.055057287 0.08964673 -0.06220987 0.05113619
0000c0 f8 7e 6e 3d ad 39 2d bc 24 37 c4 3d 56 37 a6 ba
       0.058226556 -0.010572833 0.0958083 -0.0012681286
0000d0 a1 cf d4 3d 33 87 e2 bb c1 31 cf bc 87 ec 62 3d
       0.103911646 -0.0069130897 -0.02529228 0.05540135
0000e0 d6 57 cd 3c 83 66 82 bc 09 83 22 bd af 89 86 bd
       0.025066298 -0.015918022 -0.039675746 -0.0656923
0000f0 d4 67 31 bd a4 fb e4 3d 17 a8 0a bd 57 36 e3 3d
       -0.04331191 0.11180809 -0.03385171 0.11094349
000100 7b a8 d9 bc 90 a6 27 bc 46 31 98 3a ef a9 c3 ba
       -0.026569596 -0.010232583 0.0011611364 -0.0014927963
000110 84 3b 66 3d ec b0 da 3c 70 22 15 3d e2 d6 b1 bc
       0.056209102 0.026695691 0.036409795 -0.02170891
000120 27 15 56 3d b5 d8 d2 bc 22 09 ae bd 60 43 bd 3c
       0.052266266 -0.0257381 -0.08497836 0.023103416
000130 a6 50 ce 3d 3f 12 ab bd 3a 44 a8 bb 2c 0e 30 3d
       0.10073976 -0.083530895 -0.0051350864 0.042982265
000140 42 f0 23 bd 5e af 6d 3d b3 83 d6 3c b8 f5 bd bd
       -0.04002405 0.05802857 0.026185846 -0.09275383
000150 98 1d c4 bd d4 f4 a0 bd 5c 62 c5 bc af 55 bb 3d
       -0.09575957 -0.07859197 -0.024094753 0.09147202
000160 9b 55 c2 bb cb c4 b1 3d 31 89 5b b8 e7 47 a4 bd
       -0.005930615 0.086801134 -5.234144e-05 -0.08021527
000170 83 41 77 3c 80 fe 8d 3d 45 43 8c bb c8 59 9e 3d
       0.015091303 0.06933308 -0.00428048 0.07731968
000180 70 b2 b4 bc 14 69 2e 3c e1 44 b4 bd 7e e7 6d bd
       -0.022057742 0.01064517 -0.088022 -0.058082096
000190 bf c9 9b 3c 41 27 11 3b 5a d4 45 3d 76 ff 21 bd
       0.019017098 0.0022148641 0.048298217 -0.039550267
0001a0 6e 0a ba bc 47 d9 46 3d b8 97 c4 3c 2f 7e d4 bb
       -0.022710051 0.048547056 0.023998126 -0.006484769
0001b0 c9 68 94 bc 83 6a 87 3d 6e 9d 11 3b aa 76 2b 3d
       -0.018116372 0.066121124 0.002221908 0.041861214
0001c0 6d 1d 3f 3d ab 30 fb bc e5 02 36 3d 1d 9d 72 bd
       0.046658922 -0.030662855 0.044436354 -0.059231866
0001d0 2f a1 a1 3c 01 fc a4 bc 7e 3f a5 3b c9 ff 80 3d
       0.019730179 -0.020139696 0.0050429692 0.06298787
0001e0 29 27 8c bc 6a 46 c4 3d b0 31 e9 3c c3 13 28 bd
       -0.017108517 0.09583743 0.028466076 -0.04103447
0001f0 72 4b b3 bd d6 70 c6 3c 87 70 70 bd 29 6a 8d bd
       -0.087546244 0.024223726 -0.058701064 -0.06905014
000200 79 9e c7 bc 0f eb 5e bd 39 42 ee 3a 19 1e b8 bd
       -0.024367558 -0.054423388 0.0018177695 -0.08990116
000210 39 8f 9a 3d 88 f7 80 bd e1 a9 56 bd b1 ba 29 3d
       0.07546849 -0.06297213 -0.052408103 0.04143781
000220 67 6a 04 bd 98 bf 8a 3d 68 51 a8 bd 67 2b 27 bd
       -0.032328036 0.06774825 -0.08218652 -0.040812876
000230 68 89 57 bd f4 77 58 3c ec d9 96 3d 5d 07 a6 bd
       -0.052621275 0.013212193 0.07365784 -0.08106873
000240 aa 4b 3a bb ce 42 69 3d 72 2b ab bd 4c 34 9f bd
       -0.0028426447 0.056948476 -0.08357896 -0.07773647
000250 b5 bc 52 3c a5 48 10 3d 19 58 f0 bc fb f1 8d 3d
       0.012862374 0.03522553 -0.029338883 0.0693092
000260 13 02 3a 3d 49 bc af bb a9 0f 7e bc 0b 10 0b 3d
       0.045412134 -0.0053630215 -0.015506663 0.033950847
000270 e2 a7 d9 bb ce 6b 30 3d 38 79 d1 bc 93 84 0b 3c
       -0.0066423276 0.04307156 -0.025570497 0.008515495
000280 64 58 4b bd 00 ea 86 bd b1 67 93 bc b8 aa 06 bd
       -0.049644843 -0.06587601 -0.01799378 -0.032877654
000290 4c 5a 26 3d ef a4 1a bd 6e 1a d5 3c fc 8b 42 bd
       0.040613458 -0.03775495 0.02601358 -0.04749678
0002a0 73 9c f9 3c 21 03 76 bc 86 87 c6 bc ef 17 8a 3c
       0.030470109 -0.015015394 -0.024234544 0.016857116
0002b0 fa df 89 bc ca 1e 01 bd e9 0c 06 bd b4 a2 ba 3d
       -0.016830433 -0.031523503 -0.032727156 0.091130644
0002c0 6e 11 ab bb b8 a0 3b 3c c9 f1 90 3c 75 58 5c 3d
       -0.0052205836 0.011451893 0.017693417 0.053795297
0002d0 a6 c6 d5 3c 98 02 14 bd f0 78 69 bd 55 2f 4d 3d
       0.0260957 -0.036135286 -0.0570001 0.050093967
0002e0 c1 31 3f 3d 11 b4 fe bc d5 b1 98 bd 47 bf 66 3a
       0.04667831 -0.031091722 -0.07455794 0.0008802306
0002f0 24 21 5a bd a0 64 9d 3d 84 a8 fa bc 9f a4 b6 3c
       -0.05325426 0.07685208 -0.030597933 0.022295294
000300 f0 29 c3 bc 18 0f cf 3c 91 b8 85 3c 3f 38 8e 3c
       -0.023823708 0.025275752 0.01632336 0.017360805
000310 71 11 13 3d cb 15 88 bd 51 4e c1 bd 1c fd 80 bd
       0.035905305 -0.06644782 -0.09438766 -0.06298277
000320 3c 76 b1 bc 2e d8 87 bd 82 7a 77 bd a6 86 86 3d
       -0.021662824 -0.0663303 -0.060419567 0.06568651
000330 23 7f b8 bd f5 f6 b2 bc 4d 0e 42 bd 57 49 8e 3d
       -0.090086244 -0.021846274 -0.04737692 0.06947582
000340 c2 08 4f bc 09 d3 46 bd c9 46 94 3d 51 88 ba 3c
       -0.012636365 -0.048541103 0.07240064 0.022770079
000350 d4 12 10 bd 91 c0 87 3d 25 ff 7e 3d 07 4b d6 3c
       -0.035174206 0.06628526 0.062255044 0.026158823
000360 6c 8e d0 3c d8 52 b5 bd 13 2f b4 bc 4e 01 85 bd
       0.025458537 -0.08853692 -0.021995103 -0.064943895
000370 90 e0 10 bb fc fa 33 bd 59 46 9f bd a2 7c 94 3c
       -0.0022106506 -0.04394053 -0.077770896 0.018125836
000380 8d 58 a1 3d fe 07 cc 3c 44 8b 48 bc d7 c3 4e bd
       0.07878218 0.024906155 -0.012240235 -0.050479736
000390 2c db 4b 3d 2d 08 0a bc ae 31 00 3d 7a 2c a9 3d
       0.049769565 -0.008424801 0.03129738 0.08260436
0003a0 27 30 35 3d f2 fa 88 3d 82 aa 22 3d 6d a8 bd 3c
       0.044235375 0.06688489 0.03971339 0.0231516
0003b0 2f 5a 94 3c 26 c7 35 bc ed 36 6f 3d a9 f0 a1 3c
       0.01810941 -0.011094844 0.05840199 0.019768076
0003c0 24 fd aa bc 01 69 18 bd e8 61 39 3d 8b 06 68 3d
       -0.02087266 -0.037209515 0.045259386 0.056646865
0003d0 9e 67 bc 3d 0d fd 3e bd 5f 4e df bc 5b a1 94 bd
       0.09199451 -0.046628047 -0.02725905 -0.072573386
0003e0 a1 82 c9 3c ec 22 64 bd e6 b0 07 3a 1d 16 0e 3d
       0.024598422 -0.055697367 0.0005176201 0.034689058
0003f0 ef b6 ba 3d 22 ee 81 3d ee 8a 34 3d 02 88 c2 3c
       0.09116923 0.06344248 0.044077806 0.023746494

4.bias f4 [64]
000000 b7 c5 d2 3d 89 02 47 bd 3c 79 34 bd 4a 9d ad 3c
       0.10291617 -0.048586402 -0.04406093 0.021193165
000010 84 fc a4 3d 3f 4f af 3d 59 d4 8b bd 21 f2 bf bd
       0.08055976 0.08560037 -0.068276115 -0.09372354
000020 e7 d5 af 3d 47 b9 88 bd 8c 52 bc 3c 5e 6f 82 bd
       0.085857205 -0.06675964 0.02298858 -0.06368898
000030 13 f3 c9 3c 52 cb 8f 3d 8d 92 a9 bd 6c ba 92 bd
       0.02465204 0.07021202 -0.082799055 -0.071644634
000040 62 0e 20 3d 3b 54 14 3b 69 04 b5 3d a5 ac 27 3d
       0.039076217 0.0022633213 0.08838732 0.04093613
000050 9a f4 74 3b a4 10 0f bd f8 ea 13 3d d4 d2 27 3d
       0.003737724 -0.03492798 0.036112756 0.040972546
000060 6e 58 87 bd d8 f4 81 3d ed 8a 62 bc 66 78 d7 3d
       -0.066086635 0.06345528 -0.013827068 0.10521011
000070 6d 5f 99 bd 11 22 86 3d fc 82 c9 bd 54 1e b4 bc
       -0.07488904 0.065494664 -0.098394364 -0.021987118
000080 61 25 70 bc ae 4f 09 3d f7 e3 f9 bc 18 2b fd bc
       -0.014657349 0.033523254 -0.03050421 -0.030904338
000090 c1 a9 98 bb a2 47 63 bd 60 ff 6a bd e5 8d e1 bc
       -0.004658908 -0.055488236 -0.05737245 -0.02753348
0000a0 84 f8 a3 3d aa 00 ad bc e5 0b f2 bb 41 ef ec bc
       0.08006385 -0.02111848 -0.007386672 -0.028922679
0000b0 4a 4a c8 bd 0c 57 61 bd 72 d6 ab 3c e7 8f 8f 3d
       -0.097797945 -0.055014655 0.020976279 0.07009869
0000c0 92 3d 1d bb 8c 47 82 3d 8c c9 55 3d 5c 03 c2 3c
       -0.0023992998 0.06361303 0.052194163 0.023683242
0000d0 96 66 b6 3c 7c 38 2c bc 11 b5 93 3d aa 81 52 3d
       0.022265714 -0.010511514 0.0721227 0.05139319
0000e0 04 89 79 3c ba b2 80 3d 38 eb 5e ba 35 aa db 3d
       0.015230421 0.062840894 -0.0008503678 0.10725824
0000f0 6a ed f3 bc 9c 3d 22 3c 81 9c f0 3c 23 77 79 bd
       -0.029776294 0.009902384 0.029371502 -0.060904633

6.weight f4 [3, 64]
000000 77 05 b8 3d f8 cf 99 bd 84 50 96 3d 2f a3 e7 3d
       0.08985417 -0.0751037 0.07339576 0.11310422
000010 2e 9e 85 bd 2b f6 eb 3d e5 c3 23 3c 03 19 02 be
       -0.06524311 0.11521562 0.009995435 -0.12704854
000020 e4 b9 80 3c d8 6d 65 3d 54 d5 a0 bd 2e e1 9a 3c
       0.01571364 0.05601296 -0.07853189 0.018906202
000030 f8 81 9f bb a1 3d 8b 3d 3b b3 d5 bd 80 cf a4 bd
       -0.0048677884 0.06798864 -0.10434576 -0.0804739
000040 6e 56 c2 bd b7 8a 3b 3d 5e 0b 0b 3d 10 79 d1 3d
       -0.094891414 0.045786586 0.033946387 0.10228169
000050 50 3f 99 bd eb f9 00 bd d6 9e e4 bc 67 ef 3e bd
       -0.07482779 -0.03148834 -0.02790777 -0.04661503
000060 0a cc b3 bd 4c 46 43 3d fd 04 ab 3d aa d4 12 3e
       -0.08779152 0.047674462 0.08350561 0.14338937
000070 23 21 a5 3c dc f7 cd bd 70 ad c9 bd fc 4f 1a 3d
       0.020157402 -0.10057041 -0.09847534 0.037673935
000080 12 30 a5 bc e9 d1 a7 bd e1 ef 4c 3d 0a ce ca 3d
       -0.020164523 -0.08194334 0.050033454 0.0990258
000090 03 74 a3 bd ac f1 50 bd 40 e6 f9 bd e4 99 cc 3d
       -0.07981112 -0.051011726 -0.1220212 0.0999029
0000a0 1e 29 95 bc 41 17 c0 bd ff 38 fa 3d 5d 82 59 bc
       -0.018208083 -0.09379435 0.122179024 -0.01327571
0000b0 e5 21 7e bd 4c ce a0 bd 86 e8 7e 3b 66 27 b6 3d
       -0.062044043 -0.07851848 0.003889592 0.088942334
0000c0 ff 30 cd bd d2 80 a5 3d d6 4a c1 3c 5f 9e a3 bd
       -0.10019111 0.08081211 0.023595255 -0.07989191
0000d0 3d 62 db bc 2f dd e4 bd 65 1f 84 bc 69 1f d8 bd
       -0.026780242 -0.11175 -0.016128251 -0.10552866
0000e0 7d 75 0f be 4e f1 aa 3d 44 17 e2 3d 4f 5c 08 3e
       -0.14009662 0.083468065 0.11039594 0.13316463
0000f0 73 ac 97 bb 7e 4e cf 3d a2 f1 b2 bc 1e b7 ec bd
       -0.004628712 0.10122393 -0.021843735 -0.11558364
000100 0b 6d cf 3c 95 b8 03 3e 96 6d 36 3d d5 bc 1c 3d
       0.02532055 0.12863381 0.044538103 0.03826602
000110 a0 5f 3d bd 04 87 97 3c 70 f2 0b 3d ee ee c5 3d
       -0.046233773 0.018496998 0.034166753 0.09664713
000120 ac 69 d7 3d e0 35 f8 bd 83 37 48 bd c7 4e 29 bd
       0.10518202 -0.12119651 -0.048881065 -0.041334894
000130 50 17 98 b9 bd 4b d8 bd 83 a0 49 3d 4d 45 be bd
       -0.00029009068 -0.10561321 0.04922534 -0.09290562
000140 48 7f d7 bd b4 59 e8 ba cd 5e 85 3d 0a f4 a7 bc
       -0.10522324 -0.0017726929 0.065122224 -0.02050211
000150 d2 e9 db bd b3 84 2a 3d d0 25 44 bd 66 44 bb 3c
       -0.10737957 0.041630458 -0.047887623 0.022859763
000160 af 9d ed 3d a6 dd 9f 3d 54 73 c8 3d 35 26 3a bd
       0.116023414 0.07805948 0.09787622 -0.045446593
000170 f0 70 c8 bd 29 42 9c ba 81 04 b7 bd 48 e8 3f 3c
       -0.09787166 -0.0011921573 -0.08936406 0.011713095
000180 48 2c 01 bb 84 ef b9 bd f5 b6 a3 bb 2e 02 e8 3d
       -0.0019710232 -0.09078887 -0.0049961754 0.11328541
000190 ea 1f 15 bc d9 9b c9 3c 96 4c cd 3b be 83 9e 3c
       -0.009101847 0.024610447 0.0062652333 0.019349929
0001a0 f9 5e 81 3d aa 19 c8 3d b9 c5 2d 3d fe 1c b4 bd
       0.06316943 0.0977052 0.04242489 -0.08794592
0001b0 52 1d 96 bd 0f a1 da 3d fe 31 e7 3d e7 8c 24 bd
       -0.07329811 0.10675251 0.11288832 -0.040173437
0001c0 90 f4 39 bd 43 d9 9b bd 93 1f d7 bd 7b 57 89 3d
       -0.04539925 -0.07609799 -0.10504069 0.06706139
0001d0 7d a0 c0 bd 0e 5b ad bc 44 e3 ce bd 76 4d 94 3d
       -0.09405611 -0.021161582 -0.10101941 0.07241337
0001e0 50 88 ae bc e2 f0 7c 3d 4f 54 5e 3d 40 61 8f bb
       -0.021305233 0.06175316 0.05427962 -0.004375607
0001f0 f6 fc c6 3d 12 86 9f 3d 20 35 c7 3d 41 16 4b bd
       0.09716217 0.07789244 0.0972693 -0.04958177
000200 80 00 86 bc 2f f1 c4 3c 44 94 bf 3c b9 ef 05 be
       -0.01635766 0.024040787 0.023386128 -0.13079728
000210 cd f3 49 3d ca 5d 25 3c 43 03 e8 3d 4d 96 0d 3e
       0.049304772 0.010093162 0.11328747 0.13826866
000220 58 d9 b1 3c 33 26 10 3e 22 2c e9 3c 31 11 ab 3d
       0.021710083 0.14077072 0.028463427 0.083528884
000230 e7 42 aa bd 1f 08 81 bd a6 4c e7 bc f5 84 b2 3d
       -0.08313542 -0.06300377 -0.028234791 0.08716766
000240 d8 c4 ef bb d3 a8 66 bc 9a 01 c1 bd b0 49 68 3d
       -0.007317167 -0.014078337 -0.094241336 0.0567109
000250 a9 fc 8b bd fc 91 8f bd e7 9e 4e bd f0 d3 f0 bd
       -0.068353005 -0.07010266 -0.05044451 -0.11759174
000260 51 07 ba 3d 08 3e dd 3d e9 2b 0a 3e 4c 88 fe bd
       0.09083427 0.10802847 0.13493313 -0.1242834
000270 13 f5 0d bd cd d2 6e bd 2d 15 bd 3d 2a 69 55 3d
       -0.03465755 -0.058306504 0.092325546 0.052102245
000280 74 96 51 3c 0f ba d4 bd 01 76 86 bc c7 62 5c 3d
       0.0127922185 -0.1038705 -0.01641369 0.05380514
000290 05 c7 c2 3b 84 94 81 ba e1 4a 10 3d 7f c1 f2 bc
       0.005944135 -0.000988618 0.03522766 -0.029633282
0002a0 cb 7e f8 3c 10 61 1a 3d 8c c7 f8 3d 9e 1e d4 bd
       0.030333897 0.037690222 0.121474355 -0.10357402
0002b0 6f d0 2b 3d 05 6e 10 3b 22 68 d3 3d d7 5c 2e ba
       0.041946825 0.0022038233 0.10322596 -0.00066514075
0002c0 9c 35 81 bd 04 ce ce 3b 26 97 0a be 15 f3 a8 3c
       -0.06309053 0.00631118 -0.13534221 0.020623723
0002d0 e8 c9 ef 3d 50 7f d1 bd da 29 b8 3c 0c 95 74 3d
       0.117084324 -0.10229361 0.022480894 0.059712455
0002e0 1f af d4 3d a6 5f 37 bd 12 a0 52 bd 54 89 81 bd
       0.10384964 -0.04476895 -0.051422186 -0.063250214
0002f0 b4 9a 64 3d 24 2e 1c bd 8b 64 d4 bd 36 09 9b bd
       0.0558116 -0.03812994 -0.103707395 -0.07570116

6.bias f4 [3]
000000 9a 6d 80 bd 79 07 67 3d 42 9d 5b bd
       -0.06270905 0.05640361 -0.05361677
