src/training/discrete_actor.pth (torch, 201492 bytes, 8 tensors)

0.weight f4 [256, 31]
00000000: 1644 24be 4c79 e0bd 3f6e 1ebe 371f ed3d
00000010: 9572 f1bc 2a9f d23d 2274 6dbd ceb3 843d
00000020: d3c1 0ebe c250 c5bd 83ed 103e 92a2 f3bd
00000030: 4b66 0bbe 13d7 f63b c179 303e e1d1 43bd
00000040: dc93 0fbd 6b48 3b3d 05b8 e93d 65e2 45bb
00000050: 3a5a 573b 47bc 83bd e919 ec3d c279 9a3d
00000060: bfad 0f3e d24c af3d 792b 0bbd 1a50 04bd
00000070: e16a 1dbe ce9f 0ebd 8bda bd3d da70 c5bd
00000080: df61 293e ebf5 06be 056f e0bc e969 d73d
00000090: 402d 1dbe c351 173e acc1 353d 4365 bdbc
000000a0: 55c5 15bd b2a1 f8bc ae61 153e 6358 1bbd
000000b0: ce90 e63d 57b4 6c3d 9939 b93d d5fa d5bc
000000c0: 957a 093e cb54 813b a9ac 31be ddb6 323e
000000d0: 0db5 393e 65d9 df3d b32e e0bc bfa0 a93c
000000e0: 3a1a e13d 22c2 36be 58d9 1b3c 647d 1a3e
000000f0: 0f22 a03c c672 f83d 4d88 ca3d 3fb2 afbd
00000100: 2a18 a5bd b44f 11be c545 043e 12d6 5c3d
00000110: 1e65 723d 961a 0b3e e40c e83d dd0d 393c
00000120: ce30 36be 1752 42bd ad19 bcbd bd18 abbd
00000130: 2452 683b d524 fbbd 9fc4 91bd 3490 b4bd
00000140: 68bb 143e eac3 d03d 2b93 903d ed8b 013e
00000150: 6010 cd3d 6fcb aabd 553c 273e 554c 0abe
00000160: e03d 283e 2404 fdbb 6bf6 013e 8842 393d
00000170: 50f9 12bd d048 b23d 2ea8 2ebd 385d a2bd
00000180: 57be 853c 29ad 49bc 004e 46bd 8bef c33d
00000190: 3111 a63d ba2f b83d 4403 a0bd ad38 823c
000001a0: 7ad7 5a3d 1f0a bb3d 1c3a fdbc 8433 a73d
000001b0: 3a19 f1bd 8dc3 46bc 495e 373e 377a 17be
000001c0: 6d71 aabd 9db2 5fbd 24e9 943d 4fc7 143e
000001d0: ddf8 25be 0131 babc 2ee6 683d 24ed 513c
000001e0: 70ab b33d e157 183d 84d3 343e 6388 493d
000001f0: d44f 18be 2024 853d 9764 8a3c b578 a5bd
00000200: 398b 123e 7d4c 30be 3785 113d 4a4c e5bd
00000210: f4c5 aa3d be81 f03d 2a4a 74bd 276b ff3c
00000220: d7cf 0a3e f2bf 2c3c 962e 37be 5afa 5b3c
00000230: 9905 77bd c3ab a4bc 88ea b4bd d95b 163e
00000240: 6605 b5bd cd9e 21be 838b fe3d fcf3 24bd
00000250: a643 6f3d 721b a7bd 8e82 8c3d e061 b93c
00000260: f4e7 b1bd fa21 32be 4bdc 943c ad31 08bd
00000270: 7d76 a33c eb8b c33d 8107 0abe b0f8 60bc
00000280: 530b 8d3d 964a 1cbe 670e 7e3c 9796 ee3d
00000290: a3b8 6e3d 9d2f 913d 96c2 063c f5c6 de3d
000002a0: e9b6 38bd 765c 22be 28bf fc3d dbeb 073e
000002b0: c969 303d ec62 8ebc 9e23 073d ec51 30be
000002c0: 18c2 adbd 2dae 04be c901 1f3d 0cfb 1cbb
000002d0: db8b 47bd a5e0 323e 3109 c63d 46dc ab3d
000002e0: d5b3 0c3e 4160 efbc 5bbe 03bd 029d 31be
000002f0: a455 7bbd 5d4f 87bd 5eb2 b4bd 4e6b 13be
00000300: cc00 c93d 4a47 02bd b086 253e f31f b73c
00000310: 81ae 3f3c ff82 943d 8469 dc3d 22e8 983d
00000320: 2bda aa3d 9ef4 2b3e 7334 0abc cdfd 0cbd
00000330: 89e7 09be 3a9b 0a3e f4c0 58bd d700 73bd
00000340: 1fe3 c43d 0e68 853c c8ba ecbc 85bb f7bd
00000350: e008 343e e233 823d 020b 543d 95e9 2bbe
00000360: e9f9 99bd 8d64 f9bb b3db 1c3e 258a f33b
00000370: c140 7d3d ae2f 263e e8b3 46bc 0123 2ebe
00000380: 97d5 efbd 25ea c13c cf31 ec3d aaec e7bb
00000390: 15c6 4ebd 1fa9 00be 2903 c8bd dba8 d83c
000003a0: 5766 f3bd b293 1b3e a6e8 163e 3d58 6a3d
000003b0: c48d be3d 0461 1bbe 4b80 083e 01d0 21be
000003c0: 8bff 8f3c 3733 37be 428a 043e 247c 28be
000003d0: 5cd3 943c 3850 73bd 5dd6 b83d ef73 29be
000003e0: e3e5 90bd 4b0d 2f3d 1991 f6bd 5ea1 0ebe
000003f0: 607d 023d 4273 a4bc eddd 173e e236 043e
-0.16041598 -0.109606355 -0.15471743 0.115782194 -0.029473582 0.102842644 -0.05797208 0.064796075
-0.13941126 -0.09634544 0.14153104 -0.11896242 -0.1361324 0.007532963 0.17233945 -0.047807578
-0.03505312 0.04572336 0.11412052 -0.0030194756 0.0032860176 -0.064323954 0.115283795 0.07542755
0.14031123 0.08559574 -0.033977006 -0.032302953 -0.15372802 -0.03482037 0.092701994 -0.09640665
0.16541241 -0.13179748 -0.027396688 0.10518248 -0.15349293 0.14777283 0.044374153 -0.023119574
-0.036565144 -0.03035054 0.14588043 -0.03792609 0.11258088 0.057789173 0.09044189 -0.026120583
0.13425668 0.0039468757 -0.17351021 0.1745257 0.18135472 0.109301366 -0.027366018 0.020706533
0.109913304 -0.17847493 0.009512268 0.15086895 0.01954749 0.12131266 0.098892786 -0.085789196
-0.080612496 -0.1419056 0.1291724 0.05391509 0.059178464 0.1358436 0.11330584 0.011294809
-0.17792055 -0.04744157 -0.09184585 -0.08354328 0.003544935 -0.122628845 -0.071175806 -0.08816567
0.14524615 0.10193618 0.0705932 0.12651034 0.10012889 -0.08339583 0.16331609 -0.13505681
0.16429853 -0.007721441 0.12691657 0.045229465 -0.035882294 0.08705294 -0.042640857 -0.07927936
0.016326113 -0.012309351 -0.04841423 0.095671736 0.08108748 0.08993478 -0.07813123 0.015896166
0.05342815 0.0913279 -0.030911498 0.08164123 -0.1177239 -0.012131584 0.1790706 -0.14792715
-0.083224155 -0.0546137 0.072710305 0.14529155 -0.16208215 -0.022728445 0.05686014 0.012812886
0.087729335 0.037193183 0.17658812 0.049202334 -0.14874202 0.06501031 0.016893668 -0.08079664
0.14310922 -0.17216678 0.035527434 -0.111961916 0.08338538 0.11743496 -0.05964104 0.031179024
0.13555847 0.01054381 -0.17888865 0.013426388 -0.060308073 -0.020101434 -0.08833796 0.14683475
-0.0883892 -0.15783234 0.124289535 -0.040271744 0.058414124 -0.08159532 0.06860839 0.022629678
-0.0868682 -0.17395774 0.01817145 -0.0332505 0.01995396 0.095481716 -0.13479425 -0.013731167
0.068869255 -0.15262827 0.0155063635 0.116498165 0.058281552 0.0708916 0.008225104 0.10877792
-0.04509631 -0.15855584 0.12341148 0.13273565 0.043069635 -0.017381154 0.03299295 -0.1721875
-0.08484286 -0.12957068 0.03882006 -0.0023953347 -0.04871736 0.17468508 0.09669722 0.08391623
0.13740475 -0.029220702 -0.03216396 -0.1734505 -0.06136097 -0.06606934 -0.08823083 -0.14396402
0.09814605 -0.031806268 0.1616466 0.022354102 0.01169932 0.07251548 0.10762313 0.07466151
0.083423935 0.16792533 -0.008435356 -0.03442173 -0.1346723 0.13535777 -0.05291839 -0.059326973
0.096136324 0.016284969 -0.028897658 -0.120963134 0.1758151 0.06357552 0.05176831 -0.16788323
-0.0751837 -0.0076108635 0.15318184 0.0074322396 0.061829332 0.16229126 -0.012127854 -0.1700554
-0.11710661 0.02367122 0.11532938 -0.007077773 -0.050481874 -0.12564515 -0.09766228 0.026447704
-0.11884754 0.1519306 0.14737186 0.057213057 0.093043834 -0.15173727 0.1333019 -0.15802003
0.017577907 -0.1789063 0.12943366 -0.16453606 0.01816719 -0.059402674 0.090252616 -0.16548131
-0.070750974 0.042737287 -0.12039394 -0.13928744 0.03185785 -0.02007449 0.14830752 0.12911561

0.bias f4 [256]
00000000: 235b 91bd 34ed 38bd 06a3 ddbd 40a2 b2bd
00000010: 3f09 e4bd 20d1 493d e098 d6bd d9bf ce3c
00000020: 0a18 7e3d 3a1c 83bd 1702 dabd 5cfe 75bc
00000030: 9d14 1b3d 50c3 683d 6530 1d3e 40c2 17bc
00000040: 4764 313e a560 01bd cc9d 05be 5618 a8bd
00000050: d672 c03c c889 b13d a3ed 483e 6a93 22be
00000060: ece1 7b3d 2a11 87bd 53ed 53bd dba4 3ebe
00000070: 366b 253e ebde 413e f920 a9bd d7f3 e3bd
00000080: 9103 d4bd 27dd 8dbd 5971 fdbc dc87 c13c
00000090: a8b9 4abd ea69 553c 69b4 063d 8e27 45bd
000000a0: 6213 e53b 1993 783d 58d7 543e 8f1b 2c3d
000000b0: a226 c53c a00b 1b3e 5ef5 8abd 3b63 113e
000000c0: f6d7 3ebd cc22 d13c 76bc d4bc b9af 8fbd
000000d0: df9c 523e 49ea 983d 7b62 c3bd d869 0f3e
000000e0: 32c8 023c b045 d5bc 4ebe 02be 1f2d 95bd
000000f0: 09c9 08be 3dcc dbbd 3606 d23c d789 ffbd
00000100: 78c8 b8bc 2fa7 d9bd 7441 f0bd bd85 473e
00000110: de6d 88bc db2a 313d e125 ac3d e416 19be
00000120: 8950 2a3d c9e2 2abc 9d8f de3d af27 8c3c
00000130: d47e da3d b63c 913a b869 063e a117 4f3d
00000140: ae90 c53c 7f66 36bd b862 403e 87ea 9d3b
00000150: 0535 f4bc 08bf 3d3e de5d 8d3d ab11 863d
00000160: a502 3e3b c2b9 e23d 8e09 8bbd a3e4 2e3e
00000170: ad22 a8bd d121 8bbc b834 603b a979 cabd
00000180: 004b 343e 34ee d7bd b515 02be ca15 9e3d
00000190: cad4 0b3e 5aa1 143e 4170 ba3d a2c0 f9bd
000001a0: 8398 cabd ab53 0ebe 5bc2 09bd 2642 a23d
000001b0: 84ca a6bd 1b60 2b3e bf48 35be 4485 9abc
000001c0: fb3e 0b3e a4a7 a23d e19c 133e 3fd5 7f3b
000001d0: 7934 77bd a155 c13c 4767 113e e9ed 5f3d
000001e0: 7683 1e3c e4d1 8cbd db8d 4c3d 52e5 37bd
000001f0: fdf2 733d 48cb e03d 1508 aa3d 6b1f 02be
00000200: 719f 3d3c a63a 14be 8afd 90bc 9e6a b9bd
00000210: 743a 953c 2ecd ba3b cb48 32bd de8d 373e
00000220: f9a3 da3d c153 e83d 1d40 42be 2596 173e
00000230: d37f aebd efd6 613c caa9 dcbd f43e c9bc
00000240: 9585 08bd d0ac 2e3e e494 173e bb36 403d
00000250: 5180 213e 0af6 13be ae62 19be 263b 23be
00000260: a890 733b 952e 953d 98db 9bbd 0a00 b8bd
00000270: e8e2 20bd 001c 93bd b993 9a3d 3f47 01bc
00000280: 00a0 8dbd 932e 8bbd e2e3 bd3a 6ce5 bbbd
00000290: 6fbe 133e 7d6d 9fbd c91d 9dbd 2340 cb3d
000002a0: dbc3 0a3e 8c31 d33b 2c0b 60bd acf5 17be
000002b0: bd6b 47be 7bc0 a33d c503 07be 33b4 2b3d
000002c0: b55e 04be 1cb1 a33d 38f5 d7bd 1458 64bd
000002d0: 106e fbbd b25e 2abd 1e81 fc3d ffe1 6a3d
000002e0: 05df 0e3e 34da 1d3e 5777 a6bd 1962 dc3d
000002f0: 55b3 5b3d f17d 003e 2968 4fbd 9691 04be
00000300: c7cb 2e3c 6051 99bd 6861 e7bd 6834 5dbb
00000310: 1f8a 8d3d 33ce 25bd 90da efbd 967a 3c3e
00000320: f119 fc3d 0632 8ebc 24bf 9e3d d6de 74bc
00000330: d094 b5bd 7938 003d 7cc9 233e 84d0 bc3b
00000340: 1aaf 3e3d ebc1 1f3e b8ed 843d 28fa 12be
00000350: 7f72 21be 8e18 b2bd 92fd 6ebb 11ad 4a3c
00000360: cfb4 973d ef3b f1bd 250c 9fbd 61e7 063e
00000370: 8b47 49be d37d d1bd 2665 d83d 70bc 4f3d
00000380: a827 b1bd 8b3b 0e3e 0455 43bd cf76 a83d
00000390: cc13 25bd 1636 403c 911d 27bd 582a da3d
000003a0: e66d 8b3d b60f 4d3e bc26 4abe cfde 533e
000003b0: 2bbd d73c d381 3bbc 64b9 163e b15d 953d
000003c0: b9ce 7439 1be1 e23d 38a3 01be f3f0 ebbd
000003d0: a01f a5bc 2c08 dfbc 3995 fb3d 89c2 c6bc
000003e0: 7a9e 2c3e ea7b 173e 1781 56bc 5976 30be
000003f0: bde5 a7bd 6cf0 fe3c a4ea 75bd 110f 4d3e
-0.07097461 -0.04514809 -0.1082211 -0.08722353 -0.11134576 0.049271703 -0.10478377 0.025237964
0.062034644 -0.06401868 -0.1064493 -0.015014257 0.037861455 0.05682689 0.15350492 -0.009262621
0.17323409 -0.031586308 -0.13048476 -0.08207767 0.023492258 0.08668858 0.19621901 -0.15876547
0.061494753 -0.06595071 -0.051740002 -0.18617575 0.16154179 0.18932693 -0.08258242 -0.11130493
-0.10352243 -0.06926947 -0.030937837 0.023624353 -0.04949346 0.01302574 0.032886896 -0.048133425
0.006990836 0.06068716 0.20785272 0.04201847 0.024066273 0.15141153 -0.06785081 0.1419801
-0.046592675 0.025529288 -0.025968771 -0.07015938 0.20567654 0.07466561 -0.09540268 0.1400522
0.007982301 -0.026034206 -0.12767908 -0.07283997 -0.13357939 -0.10732315 0.025637727 -0.12477463
-0.022556528 -0.10627591 -0.11731234 0.19484611 -0.016653951 0.04325376 0.08405662 -0.14950138
0.04158071 -0.010430046 0.10867236 0.017108766 0.10668722 0.0011080715 0.13126266 0.050559644
0.02411684 -0.04453134 0.18787658 0.0048192176 -0.029810438 0.18529904 0.06902669 0.06546339
0.0028993275 0.11070587 -0.06788932 0.17079405 -0.08209739 -0.016983898 0.003421111 -0.09886486
0.17606735 -0.105434805 -0.12703593 0.07719 0.13655391 0.14514676 0.09103442 -0.12194945
-0.098923706 -0.13899104 -0.033632617 0.07922773 -0.081440955 0.1673588 -0.17703532 -0.018862374
0.13598244 0.07942131 0.14415313 0.0039037017 -0.060352776 0.023600401 0.14199553 0.05467025
0.009674897 -0.06875971 0.04993997 -0.04489643 0.059557904 0.10976273 0.08302323 -0.12707298
0.011573658 -0.14475498 -0.017699022 -0.09053539 0.01821635 0.005700729 -0.043526452 0.17925212
0.106758066 0.113441 -0.1896977 0.1480337 -0.08520474 0.013784154 -0.10774572 -0.024566151
-0.03333052 0.1705811 0.14802891 0.046927195 0.15771605 -0.14449325 -0.1497905 -0.15940532
0.003716508 0.072842754 -0.076102436 -0.089843825 -0.039278895 -0.07183075 0.07547707 -0.007890522
-0.06915283 -0.06795993 0.001448747 -0.09174618 0.14428113 -0.07784555 -0.07671697 0.099243425
0.13551275 0.0064451154 -0.054698154 -0.1483981 -0.19474693 0.07995697 -0.13185032 0.0419199
-0.12926753 0.07992765 -0.10544819 -0.05574806 -0.12276852 -0.041594215 0.12329315 0.057344433
0.13952263 0.15415269 -0.08128231 0.10760898 0.05363782 0.12548043 -0.050636444 -0.12946162
0.0106687015 -0.07486224 -0.11297876 -0.003375316 0.0691111 -0.04047985 -0.11711609 0.18406138
0.123096354 -0.017357837 0.07751301 -0.014945706 -0.08866274 0.031303857 0.15994829 0.0057621617
0.04655371 0.15601318 0.06490654 -0.1435324 -0.15766333 -0.0869609 -0.0036467058 0.012370364
0.074075334 -0.117790096 -0.07765988 0.13174202 -0.19656198 -0.10229077 0.105661675 0.050716817
-0.08650142 0.13889901 -0.0476885 0.08225786 -0.040302083 0.011731645 -0.04079968 0.10652608
0.06808071 0.20025524 -0.19741338 0.20690463 0.02633532 -0.011444527 0.14719158 0.07293261
0.00023346664 0.11078092 -0.1265992 -0.11520567 -0.020156682 -0.027225576 0.12284321 -0.024262683
0.16857329 0.14793363 -0.013092301 -0.17232646 -0.08198116 0.031120501 -0.060038224 0.20025279

2.weight f4 [128, 256]
00000000: 10da 8b3b 78ad 9bbc ecb6 07bb 74cb 303c
00000010: 9d97 d43c bb28 0fbd c881 8fbc 38ef 323d
00000020: 2cf5 68bd 5348 5c3d 243e 52bc e553 8fbd
00000030: a6a5 2dbd df35 f6bc 73c4 9ebc 40dc 6c3c
00000040: 599e 2b3d fda5 49bd f452 61bd 5531 39bd
00000050: ddcb 23bd 8474 933c 9db4 e33c e6cf b03c
00000060: 31db 5b3c 234d fa3b 68e5 d73a 7b7e 4b3d
00000070: ae0b 7e3c 8e3b 62bd 2a9e 0cbc 5272 d5bc
00000080: 247a 85bd 4253 7bbc 5a8f 883c b1b1 31bc
00000090: 3b6d 83bd a87a 133d c93a 513c 6ee7 fd3c
000000a0: 6829 8bb9 7b4b 54bd aab6 d6bc 21ad d93c
000000b0: 76ed edbc f32e 113d 07d6 20bd cc91 04bd
000000c0: a3c2 b73c c80b 46bd 4511 9ebb 78be bf3c
000000d0: 48ca 9a3a 3cc7 71bd 53e3 5dbc 3646 77bd
000000e0: 10ca a03c c7b6 b239 3172 c9bc 54c2 97b7
000000f0: 9ea3 6ebd 0aa6 44bd 15eb bebc cc4e 2fbd
00000100: 6993 793c 89be 4abd 7152 343d 35f3 3b3d
00000110: 30e7 21bd 6de7 a1bc 1a0d 123b 915a 12bd
00000120: 2fd5 98bd 5400 b53c d293 6f3d 73d0 0f3d
00000130: c9cf 67bc 40cd 303d d675 57bb 3095 833a
00000140: 9c74 353c 1ff3 e0bc 99c9 40bc 986f a8bb
00000150: 8791 373d 8ed7 6ebd e804 f1bc c8c4 ed3c
00000160: 22ad 5abd 10b8 003b 05c6 6d3c 8c60 c83c
00000170: de48 2abd c19f 21bd 4fa8 933c b0d2 5f3c
00000180: fb75 61bc 8c26 65bd 5d91 37bd c67e a23b
00000190: 648c 24bd bf03 513d c8be 86bd 339f 95bb
000001a0: 27a3 81bd 2cd3 8ebc 6621 543d 613a 1abb
000001b0: 4bb6 8e3d c698 f73c c144 60bc e9dc 17bd
000001c0: 3366 16bc 02c0 85bd 27f6 efbc 2846 93bc
000001d0: 3d21 c0bc 2e9d 8bbd 6e50 a93c c387 853d
000001e0: ccee 12bd aefe 243d 9837 d8bc a8c9 9cbd
000001f0: ad13 47bd 8721 d4bc 92f0 5bbc 5de6 4ebd
00000200: 2351 e3bc 2a3d 263d 6359 163c 18a0 6f3c
00000210: 6680 10bc fd44 613d a70d efbc cac0 b53a
00000220: 909a c5bc 8aa1 743d d321 953c 8b93 513d
00000230: 2a81 2ebd fd72 88bd 1541 953c ab8a 07bd
00000240: fd7e 22bd e833 42bd 6e85 413d 405a 5e3d
00000250: 3d26 2bbb c8c8 7dbd 0af1 a63c 3f90 06bd
00000260: 999d fe3c 4885 543d b6f0 94bd e7c2 cd3b
00000270: 0538 e33c f610 a6bc bd83 293d 114c 92bd
00000280: 75f3 27bd a4ef f5ba 1421 dc3c a396 c83c
00000290: 82a6 29bd 800a 43bd 08b7 34bd 6360 c2bc
000002a0: 6ee9 36bd 0585 f6bc b77f 793b 7bbd 143d
000002b0: fb09 b83a 32b7 a83c f104 343d 56c5 2a3b
000002c0: a7e9 86bd 89e9 cdbb d221 95bd 7eb4 473a
000002d0: af5e 76bd 45b6 853d 719d 86bd 7850 9cbc
000002e0: 435c 83bc e1d2 0abb db7c 413d 47fe 4e3d
000002f0: 74b3 813d 4e7e 093c 5944 ad3b bb00 ff3c
00000300: 85d0 8cbc dd3c 5cbd 3873 873c d856 8cbd
00000310: 11d3 26bd 4d3c 08bd 2a80 053d 506b c23a
00000320: 6723 4bbd 91ca eb3a bd05 b3bc e03e d1bc
00000330: 83e5 8c3c 0394 80bb 3a05 5e3c f1c9 a2bc
00000340: 124d 5fbc d744 c23c 3f06 65bd 3f2e f8bc
00000350: b1e0 523c 3017 17bb 5f96 47bd 7fb8 f73c
00000360: 28b1 dcba 198f b93c 24f4 48bd 7c78 2836
00000370: 1357 aa3c 7e2e 8fbd ad0b c63c 9a55 bb3c
00000380: 6332 03bc d190 9dbc 9e2e 6dbd 4f94 d6bc
00000390: c099 d1bc 0ae9 7e3d 5b85 cb3c 67f6 adbc
000003a0: 9d3e e73c e00a 6bbc 1172 6e3d 54df 7cbd
000003b0: 10e8 143d fc16 d23b dd89 f53b 776d 0abc
000003c0: 8781 7fbc 7040 263d 39c4 0fbd 03bc 203d
000003d0: 4f7c 24bd d284 8a3b b631 293c a0bc 6cbd
000003e0: 3b87 cc3b 7983 083d 11b6 c0bc c0db 8f3d
000003f0: 9243 be3c e6c5 90bd 35e2 ec3c 3e81 003d
0.0042679384 -0.019003615 -0.0020708395 0.0107906945 0.025951201 -0.034950953 -0.01751794 0.043685168
-0.05687444 0.05377991 -0.012832198 -0.069984235 -0.042394303 -0.030054985 -0.019380784 0.014456809
0.04189906 -0.049230564 -0.05501075 -0.045213062 -0.03998934 0.017999895 0.027796084 0.021583509
0.0134189585 0.00763859 0.0016471567 0.049681168 0.015505714 -0.055232577 -0.008582631 -0.026055489
-0.06517437 -0.015339674 0.016669918 -0.010845588 -0.064173184 0.036005646 0.012770363 0.030994143
-0.00026542996 -0.051829796 -0.026210148 0.026571812 -0.029043894 0.035445165 -0.039266612 -0.032365605
0.022431677 -0.04835108 -0.004823836 0.023406252 0.0011809552 -0.059027895 -0.013542968 -0.060369693
0.0196276 0.00034086985 -0.024590584 -1.8091094e-05 -0.058261506 -0.04800991 -0.023305455 -0.042799756
0.015232899 -0.049498115 0.044023935 0.045886237 -0.03952712 -0.019763673 0.0022285641 -0.035730902
-0.074625365 0.022094883 0.05849058 0.035110902 -0.014148661 0.04316449 -0.0032876632 0.0010038968
0.011075165 -0.02745968 -0.011766815 -0.005140256 0.04481652 -0.058311038 -0.029421285 0.029024497
-0.05338777 0.001964096 0.014512544 0.0244601 -0.041573398 -0.039458994 0.018024592 0.013661072
-0.013761039 -0.055944964 -0.044816364 0.00495896 -0.04017295 0.051028963 -0.065793574 -0.004566097
-0.06329947 -0.017434679 0.051789664 -0.0023533332 0.069683634 0.030224215 -0.013688267 -0.03707591
-0.00917964 -0.06530763 -0.02929218 -0.017977789 -0.02345335 -0.06817089 0.020668235 0.06520035
-0.035872266 0.040281944 -0.026393697 -0.076556504 -0.04860275 -0.025894893 -0.013424056 -0.05051266
-0.02774865 0.040585674 0.009176585 0.014625572 -0.008819675 0.054997433 -0.029181315 0.001386666
-0.024121553 0.05972437 0.018204605 0.0511661 -0.04260365 -0.06662557 0.01821951 -0.03309123
-0.039671887 -0.047412783 0.04724639 0.054285288 -0.002611532 -0.061959058 0.020378608 -0.032852408
0.031081008 0.05188492 -0.072724745 0.0062793377 0.027736673 -0.02027176 0.0413854 -0.07143415
-0.041003663 -0.0018763435 0.026871242 0.024485892 -0.04141856 -0.047617435 -0.044119865 -0.023727601
-0.04465621 -0.030092726 0.0038070509 0.036313515 0.001404106 0.020595167 0.043950025 0.0026057563
-0.065875344 -0.006283943 -0.07281841 0.0007618143 -0.06014889 0.06528906 -0.06572998 -0.01908134
-0.016035205 -0.0021182823 0.047238212 0.050535467 0.06333056 0.00839193 0.0052876887 0.031128278
-0.017189274 -0.05376898 0.016534433 -0.06852502 -0.040728632 -0.033260632 0.03259293 0.0014833007
-0.04959431 0.0017989447 -0.021853322 -0.025542676 0.017199283 -0.0039238944 0.013551051 -0.019871684
-0.013629215 0.023714466 -0.05591416 -0.03029549 0.012870953 -0.0023054592 -0.04872739 0.030239342
-0.0016837465 0.022651242 -0.049060956 2.5104082e-06 0.020793473 -0.069912896 0.02417549 0.022867966
-0.008007619 -0.019234093 -0.057905786 -0.026193766 -0.025586009 0.062233962 0.024843862 -0.021235658
0.028228099 -0.0143458545 0.05821425 -0.06173642 0.036354125 0.0064114314 0.007493241 -0.00844895
-0.015594847 0.040588796 -0.035099242 0.039241802 -0.040157612 0.004227259 0.010326793 -0.057797074
0.0062417067 0.033328507 -0.023524316 0.07024336 0.02322558 -0.07068996 0.028916458 0.031373255

2.bias f4 [128]
00000000: 3b65 fe3c f6b1 81bd 7c63 9a3d de35 b13d
00000010: 7eb1 003c dbf1 b53b 3338 73bd 86a6 6ebc
00000020: 00b5 6abc 50a5 2ebd 8327 14bd 7e23 70bc
00000030: 8bce 453c aba1 14bd 1e99 833c a2a5 9b3d
00000040: 6078 81bd 6b46 a43b 4ba6 c73c 0b4d 0bbc
00000050: 5fec 90bd 7f6a 183d a4fe 223d 8f39 673d
00000060: b1ad 51bc f353 723d ca57 d3bc 55c3 c4b9
00000070: 4bb3 86bb 794a b83d 9afd 363d 41c0 afbd
00000080: bb95 15bc 46ae 7bbc ec1b f33c 9c09 403d
00000090: 9d1a 8ebd 1ea4 03bd b803 3ebd 7820 2e3b
000000a0: d418 833c 4812 823d adde 9b3c 63e8 103d
000000b0: 0948 acba d54f f8ba c480 e13c 6463 05bd
000000c0: fba4 22bc 56cc a23c b0a1 b1bc 4b42 a2bc
000000d0: c4b1 6f3d dbc4 403d 4518 fd3c c320 e6bc
000000e0: 7498 c63c 3f25 a73d 497e fa3c 6c0a b1bc
000000f0: 769f 22ba 8b6d 253d ae24 eb3c c902 d23c
00000100: f6ba c3bc fc85 7c3c f7fd 9bbc 3a46 493c
00000110: d7a9 b63c 2baa 24bd f4a0 a13d 09bf 48bc
00000120: 5ffb 9b3c df99 7d3d 0c17 8cbd e142 78bd
00000130: e688 683d 750d 46bd 847a 033d 3508 2f3c
00000140: bede dfba 4a8e 0abd 089d 873c 5acd 32bc
00000150: 7b5b 9dbd 5870 0b3d 15ea 893d a1ad 553d
00000160: 5d76 39bc e274 9dba d86d df3a 0b36 3dbc
00000170: 264d 80bd 97b2 d03c c886 af3d 1920 06bc
00000180: da8e 12bd be45 3c3b 5d9b b3bd 553a cbbc
00000190: 4f8a 8d3d 5bc0 1bbc 5521 cf3c 43e5 2bbd
000001a0: f64f a63d 7905 8f3b afa9 2cbd e8bb 4cbc
000001b0: ddbf 333d d73f 713c faed f03c b27e 323c
000001c0: 1a99 1d3d d4c0 55bb a02c 6e3d 229d 583d
000001d0: 2889 053d 0556 9dbc 84bf 56bd 4f3c f03b
000001e0: b592 42bb e969 143c 7590 d23b 718b 1ebd
000001f0: 0023 22bd 0316 15bc 4c60 963c 183e ebba
0.03105413 -0.063327715 0.075385064 0.086528525 0.007854817 0.005552513 -0.059379768 -0.0145660695
-0.01432538 -0.042638123 -0.036170494 -0.0146568995 0.012073169 -0.03628699 0.016064223 0.07599951
-0.06321788 0.0050132773 0.024371287 -0.008502255 -0.07076334 0.037210938 0.039793625 0.056451377
-0.012797759 0.05916209 -0.025798697 -0.00037529567 -0.004110729 0.089985795 0.044675447 -0.085815914
-0.009129937 -0.015361374 0.0296764 0.046884164 -0.0693867 -0.032138936 -0.046390265 0.0026569646
0.01600305 0.06351143 0.019027079 0.03537787 -0.0013144027 -0.001894469 0.02752722 -0.03256549
-0.00992703 0.019872826 -0.021683544 -0.019807002 0.05851914 0.047062736 0.030895362 -0.028091794
0.024242617 0.08161401 0.030577796 -0.021611415 -0.0006203571 0.04038767 0.028704014 0.025636094
-0.02389286 0.015412804 -0.019041998 0.01228481 0.022297783 -0.040201347 0.078920275 -0.012252578
0.019040762 0.06191432 -0.06840333 -0.060610656 0.05677118 -0.048352677 0.032099262 0.010683109
-0.0017079932 -0.033827104 0.01655437 -0.010913217 -0.07683464 0.034042686 0.06734101 0.05216754
-0.011319724 -0.0012012983 0.0017046286 -0.011548529 -0.06264715 0.025475783 0.08570629 -0.008186364
-0.035780765 0.0028728093 -0.087698676 -0.024808088 0.06911146 -0.00950631 0.025284449 -0.041966688
0.0812072 0.004364666 -0.04215401 -0.012495972 0.043884147 0.014724693 0.029410351 0.010894464
0.038476087 -0.0032616155 0.058148026 0.05288423 0.032601506 -0.019206056 -0.052428737 0.007331408
-0.0029689495 0.009058454 0.006425912 -0.0387072 -0.03958416 -0.009099486 0.018356465 -0.0017947583

4.weight f4 [64, 128]
00000000: 10fb 26bd 3d3f 113d 8dde 43bc 0647 093c
00000010: 0f41 f53d ccf6 e33c d6cb 0bbd 2077 d4bd
00000020: 9702 9c3d ea6c 94bc a992 483d 3110 f23d
00000030: 7748 b43d b690 e2bc ec4d d43d 62ec 12bd
00000040: 97f4 4ebd 9f6c 8ebb 50f0 91bd 7365 a03d
00000050: bd36 4c3c 3bf9 bfbc c180 50bc 05a3 143d
00000060: 1398 80bc 33ac 7f3c 2991 68bd 3e22 323d
00000070: 80c4 37bd e2a5 583d 38f3 a1bd dd46 e5bd
00000080: 5198 bdbc 5906 15bd c69a 553d 55cd 253c
00000090: d2fc ebbc f008 48bd 163e 4d3d c047 a03c
000000a0: 9acb 853d 7f0f 543d 58ae 8dbc e944 3bbd
000000b0: 8ae2 8a3d fac5 d13d e4ce 9bbd 6b1e 263d
000000c0: 5609 3c3d 2dc8 ce3b 4f54 dd3d 982d 2f3c
000000d0: 740d ef3d c126 9dbc 8584 38bc 31d0 313d
000000e0: a54e d73c 73d2 6bbb f76f 52bd 4aae 9ebd
000000f0: ded8 48bd 008d ff3d 45d6 28bd 91ef fc3d
00000100: 6ad0 19bd 5a32 70bc 20d1 553c 0fd9 3cbc
00000110: 173c 333d 431a 7c3c 2400 453d bad5 1cbd
00000120: 8a10 303d ea3e 6bbc b2fc c7bd 94ad 843c
00000130: 7fc2 e83d 81ab c4bd 785c 8dbc 75c8 123d
00000140: c9e0 e5bc 0181 8c3d 9daa fe3b 01db d7bd
00000150: 43f2 ddbd 6622 c4bd de0c 42bc 4b07 cd3d
00000160: 0a50 8c3c 33aa cc3d 4ad6 0dbc df94 bdbd
00000170: e3ec 9b37 c693 883d eaf1 023c 9ae7 813d
00000180: fc20 0bbd 95be a13c 08bc cebd da2f 3dbd
00000190: 5157 fc3c 829c 513c f639 f13c 81df 56bd
000001a0: 5fb0 33bc f05f 643d fdd2 ee3c bf51 a3bc
000001b0: 8d21 07bd 7a95 9f3d 996d 24bc df09 0a3d
000001c0: 8977 6e3d a6e5 e5bb 5be7 673d 5b89 46bd
000001d0: 152b 1d3c b51e a1bc 606d 09bc 376b 973d
000001e0: b228 f5bc 6b23 ae3d c2dc c03c aaec 4ebd
000001f0: 1103 cdbd 70dd fc3b 61c7 97bd 1cdd a2bd
00000200: 0e03 f9bb d35c 31bd 1514 a6bc 96e8 e5bd
00000210: 9f6d 5a3d 5fc4 40bd b65d 38bd 8d4f 7e3d
00000220: 4f05 52bd 3957 9a3d d87d 8cbd 236d 7abd
00000230: ffab 93bd 5700 843c 5c7a 8a3d 6b24 d4bd
00000240: 2359 253c 1f6f 853d e67c 8ebd 5114 c8bd
00000250: 7d1f 873c a52b 543c 2521 4fbd c2f8 443d
00000260: 839f c23c 1ef7 a0bb c9fb 1d3b 2ddc 423d
00000270: 6ae7 edbc eaeb ae3c 26f2 72bc 472b ee3c
00000280: 1238 16bd a6c2 49bd 1655 21bd 77f9 0cbd
00000290: fc19 783d 48e8 14bd 904c 133d 2fcc 8ebd
000002a0: f2fe 003c 7837 1abd 54ae 13bc 0d30 8cbb
000002b0: b4ee 20bd 8d91 5dbd 227c babc ce14 df3d
000002c0: 76ee 5f3c 277f 39bc 41b8 92bb 32f4 023d
000002d0: 7f55 6d3b 3299 fdbc ad8b a2bd 6de6 8e3d
000002e0: 7dd5 363d d598 5bbd efd5 83bd a9bb a43c
000002f0: fd02 5dbd e9af 5e3d a49e 81bc ae30 22b8
00000300: b8ef afbb 1aa3 053d 15b9 bbbb 00ec 0c3d
00000310: 5585 663d 56f9 44bd d990 ecbd 94e8 36bd
00000320: e9c9 3dbc ef87 a1bd 79f7 22bd 4f8c a43d
00000330: e595 e6bd 65d7 cbba b681 07bd fc0f a43d
00000340: 47f1 0dbd c727 8fbd 9d70 b63d 7afb 313d
00000350: b4ae 71bc 07de a43d 3442 243d 2e16 c03b
00000360: 3b69 fdba 8eac e3bd 2c1f 24bc 1906 37bd
00000370: 9d2e 5a3c f418 2fbd 48bf ccbd 5628 c93c
00000380: da65 c93d cabf c63b 84ea 0e3c f725 94bd
00000390: 4a24 193d 13e4 e8bc cccc 493d 6d04 d43d
000003a0: ad4a b23c 3f6c 413d 6fb3 0a3d b3ec 253d
000003b0: dbf2 0d3d 5212 07bd cfb6 923d 189e 093d
000003c0: f448 2dbd aac1 6bbd fc98 bd3c ab3e 123d
000003d0: 8ef6 da3d d608 2ebd 3540 abbc 6e43 c0bd
000003e0: e70a 3a3d 33e0 32bd 599a d33a 3d31 483d
000003f0: 0785 e43d 8e31 993d f1fb 6c3d c7e5 1e3d
-0.040766776 0.0354607 -0.011954916 0.00837875 0.119752996 0.027827643 -0.03412994 -0.10374284
0.076176815 -0.01811834 0.04896799 0.118194945 0.08802884 -0.027656894 0.10366425 -0.035869963
-0.050526228 -0.0043464447 -0.07125914 0.0783185 0.0124642225 -0.023434272 -0.01272601 0.03628828
-0.015697515 0.01560502 -0.05677906 0.043489687 -0.04486513 0.052892573 -0.079077184 -0.11195157
-0.02314392 -0.036383007 0.052149557 0.010119756 -0.028807078 -0.04883665 0.050108038 0.019565463
0.065329745 0.05177259 -0.017295048 -0.045720015 0.0678149 0.10242839 -0.07607821 0.040556353
0.04590734 0.006310484 0.10807096 0.010692023 0.11672488 -0.019183518 -0.011262064 0.043411437
0.026282618 -0.0035983592 -0.05137631 -0.07748087 -0.049034946 0.124780655 -0.04121997 0.12350381
-0.037552275 -0.014660442 0.013050348 -0.01152636 0.043758478 0.015387121 0.048095837 -0.038289763
0.042984523 -0.014358262 -0.09764995 0.01619605 0.11365222 -0.09603024 -0.017256007 0.035835702
-0.028061287 0.06860543 0.0077718035 -0.105398186 -0.108372234 -0.095768735 -0.011843888 0.10011157
0.01712801 0.099934004 -0.0086570475 -0.092569105 1.8587749e-05 0.066688105 0.007992247 0.063430026
-0.033967003 0.019744197 -0.10094458 -0.046188213 0.030803354 0.012793662 0.029446583 -0.052459244
-0.010967343 0.055755556 0.029153341 -0.01993644 -0.03299098 0.07792182 -0.010035896 0.03370082
0.058219466 -0.0070159016 0.056617122 -0.048470836 0.009592791 -0.019667963 -0.008387893 0.073934965
-0.029926632 0.08502849 0.023542766 -0.05051867 -0.100103505 0.007716827 -0.074110754 -0.079523295
-0.007599241 -0.043301415 -0.020273248 -0.11226003 0.0533272 -0.047062274 -0.045011245 0.062087584
-0.051274594 0.07536168 -0.0685994 -0.061139237 -0.0721054 0.016113443 0.067616194 -0.10358509
0.010092053 0.06515335 -0.06957416 -0.097695 0.016494507 0.012949859 -0.05056872 0.048088796
0.023757702 -0.004912271 0.0024106374 0.047573257 -0.02904101 0.021352727 -0.0148282405 0.02907337
-0.036674567 -0.049257897 -0.039387785 -0.034417596 0.060571656 -0.036354333 0.035961688 -0.06972539
0.007873284 -0.037650555 -0.009013731 -0.004278189 -0.039290145 -0.054093886 -0.02276427 0.1089264
0.013667693 -0.011321819 -0.004477531 0.031971164 0.003621429 -0.030956838 -0.07936797 0.06977544
0.044637192 -0.05361255 -0.06437289 0.020109015 -0.053957928 0.05436698 -0.015822716 -3.8669146e-05
-0.005369153 0.03262625 -0.0057288506 0.034404755 0.0562795 -0.048089348 -0.11551065 -0.044655398
-0.011583784 -0.078872554 -0.03978679 0.08034574 -0.11259059 -0.0015551863 -0.033082686 0.08010861
-0.034653928 -0.06990009 0.08908198 0.043452717 -0.014751125 0.08050161 0.0401022 0.005862019
-0.0019333729 -0.111168966 -0.010017198 -0.04468355 0.013316778 -0.042748407 -0.099974215 0.024555366
0.0983388 0.0060653435 0.008722905 -0.07233804 0.037388124 -0.028429067 0.049267575 0.10352407
0.021764124 0.047222372 0.033862527 0.040508937 0.034655433 -0.032976456 0.07163774 0.033598036
-0.0423059 -0.05755774 0.023144238 0.035704296 0.10691558 -0.042488895 -0.02090464 -0.09387861
0.045420554 -0.043670844 0.0016144022 0.048875082 0.111581855 0.07480155 0.057857458 0.03879335

4.bias f4 [64]
00000000: 1cfc f03d 947c 93bd df5b 1abd 30f8 ea3c
00000010: 54fd a03d 9ceb d53d e717 9ebd 906e e4bd
00000020: 42cd 7e3d 005f 47bd 9381 7e3c 4476 75bd
00000030: 6f84 bd3c f12a 9a3d d839 d9bd 6ab3 89bd
00000040: 3b2e 423d 0ba2 a33b 1c97 9e3d 646f 923d
00000050: 4c4c cb3b 2e70 31bd a452 5b3d 0942 ca3c
00000060: d777 b1bd 96b5 583d 810d bcbc a90b f83d
00000070: e15b 8abd fbfb 3b3d add7 c7bd 919f 8dbb
00000080: b87c e6bc a25b f13c a1c3 98bc 127a 45bd
00000090: da59 b8bc a31a 9ebd 8c9a 99bd 0e9d 4fbc
000000a0: f83c 6d3d a805 31bd 1906 973c 8f45 34bc
000000b0: f38c c0bd df1a a1bd c583 493a f802 913d
000000c0: 3030 d0bc 9758 b33d 0dd1 8e3d 8088 133b
000000d0: 0f22 4e3c 9e6a 0cbd 734c bd3d fbf2 003d
000000e0: 5b3b 6a3b cc14 893d eedc 8f3b 894b fc3d
000000f0: 27a5 4ebd 9341 613c 2a7e 4d3c 72d3 a9bd
0.11766836 -0.07201496 -0.03768527 0.028682798 0.078608185 0.104453295 -0.07719403 -0.111539006
0.062207468 -0.048674583 0.015533823 -0.05992724 0.023134438 0.07527722 -0.10606736 -0.06723674
0.04740737 0.0049936823 0.077436656 0.07150152 0.0062041637 -0.043319874 0.05354561 0.024689691
-0.08665436 0.05290755 -0.022955658 0.12111599 -0.06755806 0.045894604 -0.09757934 -0.0043220003
-0.028135642 0.02946264 -0.01864797 -0.04821212 -0.022503782 -0.07719924 -0.075001806 -0.012671722
0.057919472 -0.043218285 0.018435525 -0.011002912 -0.09401884 -0.078664534 0.00076871767 0.07080644
-0.025413603 0.087571315 0.06973467 0.002251178 0.012581362 -0.034281366 0.09243097 0.031481724
0.0035740945 0.0669342 0.0043903505 0.12319095 -0.05045047 0.013748544 0.012542287 -0.08292283

6.weight f4 [3, 64]
00000000: 3e52 d93d 2566 b9bd 2453 573d e239 043e
00000010: 237a 95bd 9c6d 063e d3ad dfba ab19 12be
00000020: c4d8 7a3b 4ba6 7e3d 0773 c0bd 8974 8d3c
00000030: 645c 183c 3fd2 2f3d cbf5 f4bd 234a c2bd
00000040: a64c 9fbd 1e83 a93c d6c2 853c 8804 d63d
00000050: 62a7 b6bd 778b febc 1262 63bc a6ef f2bc
00000060: cd32 d0bd 7dfd 343d e950 913d 84ac 233e
00000070: 8a41 98bb 5ebc eabd 1665 ebbd a2da 523d
00000080: 74ea febc 3874 c7bd b54e 083d f5f0 a73d
00000090: 5a69 c2bd 9bfb 80bd 5362 0dbe 1eb2 ed3d
000000a0: 354e f6bc aec6 e1bd 2678 0d3e d001 0b3b
000000b0: badd a0bd 104c bebd 79b1 38bc 5b78 803d
000000c0: b10a e8bd 0ea5 aa3d 7d1c 213d d9c8 9abd
000000d0: 968a 3cbd 5379 00be bde0 5fbc 630b f9bd
000000e0: a9eb 1fbe 2752 c73d 865e b73d 6106 193e
000000f0: e0e3 91bc 5704 ef3d 30c6 20bd e70f 06be
00000100: 3ecd 153a 5855 1c3e bd9e 8c3d 2c5a 4e3c
00000110: 2766 ffbc ff23 cbbb 45d7 693d 59cb f83d
00000120: 9f69 003e 4c80 f6bd 6ace c4bc 38ce a3bc
00000130: d77f d5bc c39b 9abd 1dc9 953d a12a 8abd
00000140: 69b8 02be 942e e43b 4e97 b83d 2edf c4bc
00000150: 6e75 b1bd e6bb 623d a09e 91bd 037c 92bb
00000160: 19b1 0f3e b7f1 b43d 06c1 fc3d b537 90bd
00000170: e3c2 84bd b79a 593c 20e4 82bd 9d08 1cbc
00000180: 5878 9a3c e22b 8cbd 037e ad3c 60dd 023e
00000190: 8f8a 793c 18f7 403d d15b 003d 9418 b3bb
000001a0: 5229 b03d b8df fb3d 77d9 b83c 9c44 e6bd
000001b0: c120 42bd 7c18 053e 3056 0c3e fb37 4ebc
000001c0: ca98 b2bc 32d7 a0bd b3af 04be a346 a03d
000001d0: ed23 88bd be29 c53a 4d8e c3bd baa8 cb3d
000001e0: 9902 6a3b 2b00 133d 192b a13d 486c eebc
000001f0: 0553 e33d b261 573d 3437 eb3d 73c9 d4bc
00000200: 0317 0cbc 8b68 823c 7f0a c03c 452c f8bd
00000210: b748 203d 21db 943c 18be cd3d 7866 043e
00000220: 56d4 663c b0f1 043e a48d 9c3c 5a4f 873d
00000230: 7b14 90bd 0145 81bd ff2c 15bd 45a6 9a3d
00000240: 7cf5 ffbb ea4c 323c 1d83 ccbd 98e3 5c3d
00000250: 97cc 97bd 7e45 a4bd 32f9 28bd 0ae9 dcbd
00000260: a081 a33d 3420 cf3d bbd4 f43d 825d eebd
00000270: 163b 12bd afe4 51bd 5d7c ab3d 69e7 673d
00000280: e2be 073b f95a debd ba6a bbbc 8a27 893d
00000290: c7ea 49bb c128 4cbc 26aa d93c 5ebc b0bc
000002a0: 7450 953c 6b75 f03c a92b f03d f915 c2bd
000002b0: 91a9 063d f6dd cebb 8d70 c13d 15f5 063b
000002c0: 86f8 97bd 5ff5 a03b d60e 02be da59 073c
000002d0: 0863 dd3d 04b8 e3bd 5693 323c f04b 473d
000002e0: 96b5 c33d 6b80 00bd ae8b 52bd 3234 63bd
000002f0: 933d 803d cbf8 e6bc 0e22 c3bd c0a7 aabd
0.106113896 -0.09052686 0.052569523 0.12912706 -0.07298686 0.1312775 -0.0017065353 -0.14267604
0.0038276175 0.062170308 -0.0939694 0.017267482 0.009299371 0.042925116 -0.11960944 -0.09486797
-0.077782914 0.020692404 0.016328257 0.10450083 -0.089186445 -0.031072361 -0.013878362 -0.029655289
-0.101659395 0.044187058 0.070955105 0.15983778 -0.0046464847 -0.114617094 -0.1149389 0.051478036
-0.031117655 -0.09738964 0.033278186 0.08200256 -0.094927505 -0.0629799 -0.13807039 0.11606239
-0.030066589 -0.11024223 0.13815364 0.0021210797 -0.07854791 -0.092918515 -0.0112727815 0.06272956
-0.11330164 0.08332263 0.03933381 -0.0755784 -0.046030603 -0.12546282 -0.013664422 -0.12160375
-0.15617241 0.09732466 0.08953576 0.1494384 -0.017808855 0.1167075 -0.039251506 -0.13092004
0.00057144824 0.15266931 0.068662144 0.012594741 -0.03117664 -0.0061993594 0.057090063 0.121481605
0.12540291 -0.120361894 -0.024024207 -0.019995794 -0.026061935 -0.075492404 0.0731375 -0.06746412
-0.1276566 0.0069635604 0.09013234 -0.024032202 -0.08664976 0.055354975 -0.071103334 -0.0044703498
0.14032401 0.08835166 0.12341504 -0.07041875 -0.06482484 0.013281516 -0.06391168 -0.009523538
0.018856212 -0.068443075 0.021178251 0.1277976 0.015230789 0.047110647 0.031337563 -0.0054655764
0.08601631 0.1229853 0.022564633 -0.11243555 -0.047394518 0.12997621 0.13704753 -0.012586589
-0.021801371 -0.07853545 -0.12957649 0.07825973 -0.06647477 0.0015042347 -0.09548626 0.099442914
0.0035707115 0.035888832 0.07869548 -0.029104367 0.11099819 0.052583404 0.114851385 -0.025974965
-0.008550408 0.01591899 0.023442505 -0.12117819 0.039131846 0.018170895 0.10046023 0.12929714
0.014088711 0.12982821 0.019110508 0.06606932 -0.07035156 -0.063119896 -0.036419865 0.07551245
-0.0078112464 0.010882596 -0.099859454 0.053927988 -0.07412069 -0.08021067 -0.041253276 -0.10786636
0.079837084 0.10113564 0.119546376 -0.11638929 -0.03570088 -0.05124348 0.0837333 0.056617174
0.002071314 -0.108571954 -0.02287804 0.066969946 -0.0030810104 -0.012460888 0.02657039 -0.021574195
0.01822684 0.029352864 0.117270775 -0.09476847 0.032876555 -0.006313081 0.094452955 0.0020592858
-0.07420449 0.004912063 -0.12700972 0.008261168 0.10809904 -0.111190826 0.010899385 0.048656404
0.09556119 -0.03137247 -0.05140274 -0.0554697 0.06261744 -0.028194806 -0.0952798 -0.08332777

6.bias f4 [3]
00000000: 5db6 31bd 0f48 ff3c c4ae 4bbd
-0.043386806 0.03116229 -0.049727216
