src/training/discrete_actor.pth (torch, 201492 bytes, 8 tensors)

0.weight f4 [256, 31]
000000 c0 22 be 3d 19 6d 05 be 9d c3 e6 3d a2 21 93 bd
       0.09283972 -0.13029899 0.11267779 -0.07184149
000010 fe 4e b2 bd 25 a7 03 be 88 bf 1b 3e 67 d7 99 bc
       -0.08706473 -0.1285673 0.15209782 -0.01877947
000020 56 c3 10 be 00 f4 0a bc a6 b9 8c 3d 01 dd e9 3c
       -0.14137015 -0.008481026 0.06871347 0.028547766
000030 2a d6 bd 3d 7f f3 4d 3b 02 ed 34 be 3c bb da 3d
       0.09269364 0.0031425653 -0.17668536 0.106802434
000040 e0 2e fa 3d e9 96 15 bd 8c 7b 53 be 73 4d e6 bd
       0.12215972 -0.036520872 -0.20652598 -0.11245241
000050 9a be 6b bd c1 74 d6 3d 27 16 a8 3d 09 fd 3f 3e
       -0.05755482 0.10471488 0.0820735 0.18748869
000060 d6 f4 21 3e b1 71 2c be 96 e4 ec 3d d6 93 84 3c
       0.15816054 -0.16840245 0.11567037 0.016183775
000070 ab 61 46 bd 79 88 c8 bd d0 f7 05 bc 1f 5f 94 3d
       -0.048432987 -0.09791655 -0.008176759 0.072447054
000080 f9 6d 30 bc 37 17 53 be 44 ec 1d 3e c9 d7 8e bd
       -0.010768407 -0.20614325 0.1542216 -0.069747515
000090 c5 ff 11 3e 40 d9 d1 3c 8a 38 a6 3c b9 da 02 bd
       0.14257725 0.025616288 0.020290632 -0.03194687
0000a0 34 2c 96 3d 41 7a 1b 3e 93 7d 1c be f3 5a bb 3d
       0.0733265 0.15183355 -0.15282278 0.091482066
0000b0 2e 63 02 be d2 87 da bb 41 d7 9f 3c 85 a5 10 3d
       -0.12733147 -0.006669023 0.01951182 0.0353141
0000c0 9a c7 b0 bc 82 cd aa 3d 1a 50 a6 3d 28 e2 d9 3d
       -0.021579552 0.08339979 0.08120747 0.10638839
0000d0 a0 dc f8 bc 99 0d 0a 3e 1b 88 17 3e 08 14 d1 3d
       -0.03037864 0.1348175 0.14798014 0.10208899
0000e0 58 03 1a 3e b7 59 be 3d 49 1f 31 3e 38 d7 f8 3d
       0.15040338 0.092944555 0.1729709 0.12150425
0000f0 46 c0 8d 3d 71 c8 2c 3e 09 f0 50 3d 3c 75 10 be
       0.06921439 0.16873337 0.051010165 -0.14107221
000100 83 a1 e7 3d 67 a2 88 bc 43 5b 90 bd 2c 47 ca bd
       0.11310103 -0.016679002 -0.07048657 -0.09876856
000110 f2 4e c2 3c 07 78 28 3e cc fa 80 bd ec 21 fb bd
       0.023719285 0.16452037 -0.06297836 -0.122623295
000120 80 b6 dd bd 70 2c 34 3e d0 cf e7 3d 72 c5 15 3d
       -0.10825825 0.17595077 0.11318934 0.03656525
000130 50 cb 0f 3e 6a 55 46 be 8e 67 0c 3d 22 20 f5 3d
       0.14042401 -0.1936852 0.034278445 0.119690195
000140 0a 86 11 3b 72 1f 2e be 17 c1 40 be 07 80 08 3e
       0.0022205138 -0.17004183 -0.18823658 0.13330089
000150 d0 b2 4c 3d f4 e4 8e 3d f3 64 2f 3e 42 20 8b 3d
       0.049975216 0.06977263 0.17128353 0.06793262
000160 e6 cd 81 bc 43 eb 37 3c 12 ee f5 bd 63 f4 01 be
       -0.01584525 0.011225524 -0.12008299 -0.12690882
000170 d7 e5 f5 bd 49 a4 ec bd 29 a6 22 bd 4a d0 45 bd
       -0.12006729 -0.115547724 -0.039709244 -0.048294343
000180 7c c1 cf 3d b7 8a a5 3d 51 d8 21 be 03 7d 0f be
       0.10144326 0.080830984 -0.15805174 -0.14012532
000190 a3 db 2c be c7 03 2f 3d 3d 8c d9 3d 93 ea bd 3c
       -0.1688066 0.04272821 0.106224515 0.023183143
0001a0 11 fd 65 bd 49 78 07 be 56 9f 22 3e e5 2f cd bd
       -0.056149546 -0.13229479 0.15881094 -0.10018901
0001b0 11 2f eb bd 8d 68 c9 bc b9 82 10 be 26 38 ed 3d
       -0.114835866 -0.024585987 -0.14112367 0.11582975
0001c0 a3 8a 33 3d 28 6e c0 3d f8 f1 89 3d bc 71 a7 bd
       0.043833386 0.09396011 0.06735605 -0.0817599
0001d0 d9 f1 07 be fb 63 74 bc f6 bb 01 bd 1c b2 26 3d
       -0.13275851 -0.014916415 -0.031673394 0.040697202
0001e0 ba 8a 34 be 59 e5 0a be 73 7d 21 be 94 b1 09 be
       -0.17631045 -0.13564052 -0.15770511 -0.13446647
0001f0 2d 6b ba 3d 35 34 76 3c e9 dc ea bd b2 a7 e2 3c
       0.091024734 0.015027096 -0.114679165 0.027667854
000200 a7 ff c6 bc 65 b2 14 be 04 61 27 be f2 db e8 bd
       -0.024291826 -0.14521177 -0.16345602 -0.11370076
000210 70 26 1c be 61 04 27 be 89 35 10 be 20 69 79 3d
       -0.15249038 -0.16310264 -0.14082922 0.06089127
000220 b2 1a 00 be 2c 41 1c be a2 fe 92 3d 55 83 a0 bd
       -0.12510183 -0.15259236 0.071774736 -0.078375496
000230 59 c8 fb 3d a9 b1 f5 bd 32 c0 b0 3d a2 5f 2c be
       0.12294073 -0.119967766 0.08630408 -0.16833356
000240 47 09 0a be ab 4a 05 bd c1 e9 d6 3d 59 3e 3d 3c
       -0.13480102 -0.032541912 0.10493804 0.011550509
000250 6a 15 ed bd 48 87 14 3e 72 04 92 bc 42 b4 60 3c
       -0.1157635 0.1450473 -0.017824385 0.013714852
000260 45 c1 c3 3d b6 fe 17 3e 83 72 1e be 48 a4 14 be
       0.095583476 0.14843258 -0.1547337 -0.14515793
000270 a7 93 9e 3d 2e 3b 55 be 2d 61 14 3d ca a7 c5 bd
       0.07743006 -0.20823357 0.036225487 -0.09651144
000280 06 12 e8 3c 72 d5 9f 3d 4b 61 23 3e 11 ef 95 3d
       0.028328907 0.07804383 0.15955083 0.07320989
000290 ab 93 eb bd 5a ee dc bd d7 08 98 3d d2 7e 98 3d
       -0.11502775 -0.107876495 0.07423561 0.07446064
0002a0 c2 b3 d6 3d 63 c8 c5 bd 4f 0e be bd e7 7d 6a bb
       0.10483505 -0.09657361 -0.09280073 -0.003578061
0002b0 38 88 c0 3d ad bf f5 bd dd ee f2 3d 55 8b 61 be
       0.09400982 -0.1199945 0.11861966 -0.22025807
0002c0 5c ae 63 3d f9 55 94 bd 40 ac 08 be 06 41 05 be
       0.055586204 -0.072429605 -0.13346958 -0.13013086
0002d0 5a f8 a7 bd 75 d9 26 3e 3c 8b 10 3e 13 44 f3 3c
       -0.08201666 0.16293891 0.14115614 0.029695546
0002e0 3f 13 9f bd 44 78 3b 3d 56 7e fc 3d 65 90 9c bd
       -0.07767343 0.04576899 0.12328784 -0.076447286
0002f0 bb c5 09 be e3 cd 8c bc 34 ed a5 3d 64 67 2f 3d
       -0.13454334 -0.017188018 0.081018835 0.04282321
000300 9f 74 50 3d 48 7b 9c 3d 40 af 0f be fd 82 eb bb
       0.05089247 0.076407015 -0.14031696 -0.007187246
000310 5a 3e 9f bd b8 ec e9 ba ae f1 e6 3d 99 7d f6 3d
       -0.077755645 -0.0017847037 0.112765655 0.120356746
000320 b3 46 f0 bd 23 fd a0 3c 4a db bb bc 70 8f 99 3d
       -0.11732235 0.019651955 -0.022931714 0.07498062
000330 31 3e b6 3c 9c ee 03 be 83 b2 ce bd e2 75 02 bd
       0.022246452 -0.12883991 -0.10092642 -0.031850703
000340 3b 9c 16 bd 78 bf 26 be 8d 76 be bd 13 d6 18 bd
       -0.036770087 -0.16283977 -0.092999555 -0.037313532
000350 87 aa de 3d 60 b6 cd bd 3e b9 2d 3e f1 7c 1c bd
       0.10872369 -0.10044551 0.16965196 -0.03820509
000360 ff a5 88 bc c5 74 37 be a1 c8 9b 3c 61 ed b1 3d
       -0.016680716 -0.17915638 0.019016566 0.086878546
000370 07 88 e9 3d a4 4e 14 3e 94 67 30 be a0 04 d0 3d
       0.11402898 0.14483124 -0.17227012 0.10157132
000380 7b 2e d8 bd e3 3c 12 bd ff 68 2e be 91 67 c0 3d
       -0.105557404 -0.035702597 -0.1703224 0.09394754
000390 39 d8 ae bd 99 53 08 3e 92 07 08 be 0d 72 00 bc
       -0.08537335 0.1331314 -0.13284138 -0.007839692
0003a0 d1 1d 39 be 1e 25 bc 3d a9 06 01 be 6f 1c 5c 3d
       -0.1807778 0.09186767 -0.12600197 0.053738054
0003b0 11 c4 bc bc 8c 1b 9f bd 00 ef e0 3d c8 7b 31 3e
       -0.02304271 -0.07768926 0.10983086 0.17332375
0003c0 e9 4e 8e 3d a4 78 93 bd c5 eb 08 ba 8f 22 b6 bd
       0.06948645 -0.07200745 -0.00052231207 -0.0889331
0003d0 90 6b 00 be 77 09 0f 3e 95 9a 2d 3e 57 ed ce 3d
       -0.12541032 0.13968454 0.169535 0.10103863
0003e0 31 1b 1f 3d 9e 11 33 3e f9 90 33 3d 9d e4 ad bb
       0.03884429 0.17487189 0.04383943 -0.005306794
0003f0 d9 40 92 3d aa 6e 1c 3e 17 48 c5 bd 8f 64 b3 bd
       0.07141275 0.1527659 -0.09632891 -0.087594144

0.bias f4 [256]
000000 e9 95 0f 3e 22 94 cc bc bc e9 92 bd 0f b9 96 bd
       0.1402203 -0.024972979 -0.071734875 -0.07359516
000010 24 a3 11 bd 73 b2 82 3d 50 54 ce bc 41 52 0d be
       -0.035555974 0.06381693 -0.025186688 -0.13800909
000020 fd a0 b5 bc c6 aa b5 3d a2 3b 10 3c a0 84 97 bd
       -0.022171492 0.08870463 0.00880328 -0.07398343
000030 61 88 92 3d b8 53 35 3d d5 0e fa bd 08 f9 91 bb
       0.071549185 0.044269294 -0.1220986 -0.0044547357
000040 17 0d 64 bd 25 10 83 3c 19 c1 c1 3d e5 8f a8 bd
       -0.055676546 0.01599891 0.094606586 -0.08230571
000050 8b 7b 64 3d 4b 4e 84 bb 52 e2 2e be da ea 77 3d
       0.055781882 -0.0040376536 -0.17078522 0.060526706
000060 5a 39 09 be 89 81 c2 bd 6f 11 d7 bd 9b da f3 bd
       -0.13400784 -0.09497363 -0.10501372 -0.1190693
000070 a1 c9 1f be 22 01 e8 3c 5b 87 26 bd 47 08 5d 3d
       -0.15604259 0.028320853 -0.04065643 0.053962972
000080 46 89 8c bb 51 d9 91 3a 1b b5 f5 3d ed bb c3 bd
       -0.004288825 0.0011127387 0.11997434 -0.095573284
000090 64 44 e8 bd c0 f6 b6 3d 29 69 42 be 00 50 96 3d
       -0.113411695 0.089337826 -0.18985428 0.073394775
0000a0 e8 c0 ca bd de 76 06 bd 9d e2 10 be 91 80 f1 3d
       -0.09900075 -0.032828204 -0.14148946 0.117921
0000b0 3a 1d 57 bc 37 bb 4a bd db 5c 0f be db 53 0e bd
       -0.013129527 -0.04949495 -0.14000265 -0.03474794
0000c0 50 83 50 be 57 2c 95 3d 05 8f 35 3d 85 23 a9 bd
       -0.20362592 0.07283848 0.044325847 -0.08258728
0000d0 7a 3a 94 3c 96 00 38 3d 5e df f0 bd 4a 8b e0 3d
       0.01809429 0.044922434 -0.11761354 0.10964067
0000e0 87 2e c8 3d 9d 19 24 3c 8a 77 38 3d aa 1f ab bd
       0.097744994 0.010015872 0.045035876 -0.08355649
0000f0 34 67 03 3e 91 9a 3a bc da e2 dc bd 23 80 14 39
       0.12832338 -0.011389391 -0.10785456 0.00014162115
000100 65 1f fd bd 3a 31 d8 3d 33 76 c7 bd 6d b1 d5 3d
       -0.12359504 0.10556264 -0.097393416 0.10434232
000110 97 eb c3 bd 7f fa 5e 3c 44 cc 3d 3e 44 8a 2e be
       -0.095664196 0.013609528 0.18534952 -0.17044932
000120 dd 50 21 3e de dd b6 3d 3f 6f 0c be 9c c9 43 bc
       0.15753503 0.089290366 -0.13714312 -0.011949923
000130 92 0d 8d 3d d8 c7 fd 3d 84 3a 01 be 0a 6c 2b 3d
       0.06887354 0.12391633 -0.12619978 0.04185108
000140 2d f1 a7 3d 5c 7a 28 3e 03 b3 04 be 94 9b b7 bd
       0.082002975 0.16452926 -0.12958913 -0.08965221
000150 64 4d dc 3d 53 9a 53 be ee bc 5a bd fa 04 9b 3c
       0.107569486 -0.20664339 -0.053402834 0.018923271
000160 8c 5d f3 bd 95 dd 15 be 00 5d 64 3d 5b d6 b7 3c
       -0.11883077 -0.14635308 0.055752754 0.02244108
000170 da 31 bd 3d b2 8f 84 bd 6f 99 32 be e7 65 c5 bd
       0.09238024 -0.0647272 -0.17441343 -0.09638577
000180 9a a7 9f 3d c3 b5 8a bd 72 10 c4 bb b0 81 00 be
       0.07795639 -0.067729495 -0.0059834057 -0.12549472
000190 27 8b 2e 3e b6 c2 0e 3d 35 1d c1 bd 10 ab c8 bd
       0.1704527 0.03485366 -0.09429399 -0.097982526
0001a0 34 dc 93 bd e1 82 75 3d c6 bb ff bd db f3 e8 3d
       -0.07219735 0.05993927 -0.12486987 0.11374637
0001b0 1e a7 70 bc 2d 14 02 be cb dc a7 3c 64 46 8e 3d
       -0.014688281 -0.12703009 0.020491024 0.0694702
0001c0 be e9 e2 bd 8d 11 df bc 6d ee f0 bd d4 bd 96 bd
       -0.11079739 -0.027230049 -0.11764226 -0.073604256
0001d0 7c 9d da 3d 45 6a e9 bd b1 e7 18 3e 3f 63 0e 3e
       0.10674569 -0.113972224 0.14932133 0.13905047
0001e0 25 b3 e4 bd 05 f4 1e 3d f2 a5 cf 3d 2e 2c f7 3d
       -0.111669816 0.038806934 0.101390734 0.120689735
0001f0 3c e4 e1 bd c1 bf 00 3d e8 a5 e3 3d 3a 31 37 3d
       -0.110298604 0.03143287 0.111156285 0.04472468
000200 29 6c 01 be 1b 1e 5f bd d7 ff 97 3d 92 1c 86 3d
       -0.12638916 -0.05447207 0.074218445 0.06548418
000210 e1 27 10 be fd 0c b3 3d 39 61 a8 bc 5e 3a c4 3d
       -0.14077713 0.08742712 -0.020554172 0.09581445
000220 94 98 eb 3b 22 b8 a8 3d 9c 0f 16 bd a5 df aa bd
       0.0071898196 0.082382455 -0.03663598 -0.08343438
000230 c7 44 db bd 73 d6 89 3c 0b 9a c5 3d 9a 75 b3 bd
       -0.107064776 0.01682589 0.09648522 -0.08762665
000240 4e 17 b5 bd f9 68 c9 3d c1 12 e0 bb ff 9f a9 3d
       -0.08842336 0.09834475 -0.006838173 0.0828247
000250 a8 9e 40 be c5 2c a0 3d 5c 3f b5 bd 94 9b 3d 3d
       -0.18810523 0.07821039 -0.088499755 0.04629095
000260 01 99 97 3d 5e 73 ee bd 72 9d e2 bd 7e 59 0b be
       0.0740223 -0.11643098 -0.110651866 -0.13608357
000270 9e be 0f 3e 84 61 d7 3d a3 c2 58 3e d1 c7 12 3d
       0.14037558 0.105166465 0.21167998 0.03583509
000280 09 cd 2a 3e 9d cc 1a 3d 08 1e 82 bd 11 81 ad 39
       0.16679777 0.03779279 -0.06353384 0.00033093293
000290 ac bc 12 3e 27 08 4a be e6 5c 2e be 2e 22 0c be
       0.14329785 -0.19729672 -0.17027625 -0.13684914
0002a0 65 55 3f be ad 35 ff 3d 2e 4a 04 be be 5c fe 3d
       -0.18684919 0.1246141 -0.12918922 0.12420033
0002b0 58 35 de bc 2e 07 42 be bb 94 8c bb 66 aa 01 3e
       -0.027125046 -0.18948051 -0.004290191 0.12662658
0002c0 68 b9 8f bc 4e d3 d0 bd 90 db 8d bc 0e dc fb bd
       -0.017544463 -0.10196553 -0.01731661 -0.122978315
0002d0 93 d2 df bd 3e 9f 8e 3d 71 d8 4a 3d 83 51 c5 bd
       -0.10928836 0.06963967 0.04952282 -0.09634688
0002e0 c7 d2 11 be fa 4e d2 bd ba 45 f0 bd 51 6a f0 bb
       -0.14240561 -0.1026897 -0.11732049 -0.0073368927
0002f0 d7 2e 00 3d 41 91 2e bd ef 92 87 3b 38 d8 ad bb
       0.03129467 -0.042618994 0.004137389 -0.0053053163
000300 c2 42 0a bd bd 60 c5 bd eb 95 11 be b0 7f c2 bd
       -0.03375507 -0.09637592 -0.14217345 -0.09497011
000310 bc fd d1 3b 4b ea 23 3e 11 39 a6 3d c2 f7 d3 3d
       0.0064084213 0.16007344 0.08116353 0.103499904
000320 fa 6f 9c 3c 43 d7 f7 bd 2e ac 40 3d 42 3c f4 bc
       0.019096363 -0.12101605 0.047039203 -0.02981389
000330 9b 69 54 3e a2 18 d1 bd dc 19 ae bd fe 3c 93 bd
       0.2074341 -0.102097765 -0.08501026 -0.07189368
000340 cf c8 d6 bd fe 3d 13 3e 4c a7 8c 3d a4 26 8f 3d
       -0.1048752 0.14379117 0.06867847 0.06989792
000350 58 08 04 3d 8b 4a 80 bd c1 95 b6 bd 93 ad 50 be
       0.03223452 -0.06264218 -0.08915282 -0.20378713
000360 fb fa e4 3c 99 77 f9 3c a0 4a 53 3d a3 29 9a 3d
       0.027951708 0.030452536 0.05158484 0.07527473
000370 46 df a5 bc b0 a7 3f be 66 d7 ae bd cb f3 34 3e
       -0.020248067 -0.18716311 -0.08537178 0.17671125
000380 81 86 9c bd 5f b9 a1 bb d3 ac 1a bc c5 3e cf bc
       -0.07642842 -0.004935428 -0.009440619 -0.025298486
000390 a8 cf 69 bd 14 a2 0d 3e 91 84 20 3d 0e a8 b2 bc
       -0.057082802 0.13831359 0.039188925 -0.02180865
0003a0 98 b6 26 3e 60 35 3a bd 5a e2 4c be d0 e4 bf bd
       0.16280591 -0.04546106 -0.20008221 -0.093698144
0003b0 6f ea 16 3e d5 99 ae 3d 36 e2 04 be 4b b4 eb 3d
       0.14737867 0.08525435 -0.12976918 0.115089975
0003c0 80 a8 04 be 4f 59 a5 bc b0 64 17 3e 96 b5 c0 bc
       -0.12954903 -0.020184187 0.14784503 -0.023524087
0003d0 04 b0 a6 bc 4e 1a 01 be 5d 1c 0d be 6f ab fb bd
       -0.020347603 -0.1260769 -0.13780351 -0.12288558
0003e0 55 3f 17 3e dc 30 ef bd 76 30 a9 bd 0e a0 9b bd
       0.14770253 -0.11679241 -0.08261196 -0.075988874
0003f0 28 06 fe bd 2e 09 f9 3c ea 56 73 3c 14 2a 26 be
       -0.12403518 0.030399885 0.014852265 -0.16226989

2.weight f4 [128, 256]
000000 3b af 00 bd 12 1f ed bc 19 eb d8 bb 31 58 63 bd
       -0.031417113 -0.02894548 -0.0066198227 -0.055504028
000010 69 8e 12 bd ac e5 05 3d b8 ac 5b bd 92 10 fe 3c
       -0.035780344 0.032689735 -0.053631514 0.03101376
000020 e2 68 2f 3d 8f 9d 03 bd 75 02 90 3c 95 9d ee 3c
       0.042824633 -0.03213268 0.017579297 0.029127875
000030 6b d5 43 bd f4 a6 6b bc 62 a5 6a 3d 48 de 4d 3c
       -0.047810953 -0.014383066 0.057286628 0.012565203
000040 d8 cc 3e 3c 0e ae 6c 3d f2 ba ad bc dc 59 3e 3d
       0.011645518 0.05778318 -0.021207307 0.046472415
000050 e4 44 12 3c 15 43 db bc d8 5a 6c bb d1 00 c8 bc
       0.008927558 -0.026765386 -0.003606489 -0.024414452
000060 9c 79 21 bd 32 2c 61 3d 79 78 90 3d 7b c4 51 bc
       -0.039422616 0.05497379 0.07054228 -0.012803192
000070 ae ae 32 3d c3 7e f0 bc 28 f2 8d 3c 5e 10 4e bc
       0.04362362 -0.02935732 0.017327383 -0.012577144
000080 5a 0b 25 3d 6a 67 82 3c 81 e8 0b bd 1a f9 44 3d
       0.04029403 0.015918452 -0.03415728 0.048089124
000090 d8 6b 80 bc 00 6a 79 bb d0 00 eb 3c 6b 82 5a bd
       -0.015676424 -0.0038057566 0.02868691 -0.053347033
0000a0 a4 61 84 ba b2 70 2a 3d c0 e4 02 3d 25 c7 e0 bc
       -0.00100999 0.04161138 0.031956434 -0.02743871
0000b0 b6 62 a1 3b 10 f6 10 3c 0f ed 87 bc d5 d8 48 bd
       0.0049250973 0.008847728 -0.01659253 -0.049034912
0000c0 4c e8 13 bc 4f 15 b0 bc 36 83 4c 3d 12 8f 22 3c
       -0.009027552 -0.021494536 0.04992982 0.009921806
0000d0 f8 37 e2 3c e6 0f 6c bd 20 91 5a bd b3 be 31 bd
       0.027614579 -0.05763235 -0.05336106 -0.043394756
0000e0 3b 80 01 bd dc a4 5c 3d 03 af 68 bd 8b cc 68 3c
       -0.03161643 0.05386816 -0.05680753 0.014208923
0000f0 b8 83 44 bd 78 20 e6 3c 4c 99 49 3c 21 ba cb 3c
       -0.04797718 0.028091654 0.012304615 0.024869027
000100 56 5f fc bc 3b 2a 5c 3c ff 61 c9 3b 72 dc 78 3d
       -0.030807178 0.013437803 0.0061457152 0.060757108
000110 71 ef 82 3d ce b1 e3 bb e6 6d 56 3c 14 80 b3 bc
       0.06393326 -0.006948686 0.013087725 -0.021911658
000120 f1 e8 8d bc 8e c1 a4 3c f6 dd 76 bd aa 3e e2 bc
       -0.01732299 0.020111825 -0.060270272 -0.027617771
000130 b6 56 7c bd ba 6a 81 bd 47 12 15 3d b8 81 f1 bb
       -0.06160613 -0.063191846 0.036394384 -0.0073702
000140 3d ee 84 3d 67 16 d9 3c 60 3e 89 3d 83 16 c8 ba
       0.06490753 0.02649994 0.0670135 -0.0015265498
000150 45 4b e1 3b 9d ff 32 3d de 14 72 bd a2 d2 06 bd
       0.006875428 0.043700803 -0.05910193 -0.03291572
000160 f0 72 69 3c 4d de 47 bd b5 80 b7 bb 20 ec 6a 3d
       0.014248595 -0.048795987 -0.00560006 0.057354093
000170 7b c1 65 3d b6 f7 88 3d 96 69 d3 ba a5 02 74 bd
       0.05609272 0.06687872 -0.001612949 -0.059572835
000180 3c e9 7e 3d b1 69 b5 bc d2 83 4d 3d 23 df 2d 3d
       0.06223415 -0.022145124 0.05017454 0.042449128
000190 c4 7a 17 3d c0 89 20 3d 0d 6f 6f bd 49 31 d4 bc
       0.036982313 0.03919387 -0.058455516 -0.025902407
0001a0 7e a1 48 3d 45 99 00 3b 5c 17 0c bd 1e f9 d5 3c
       0.048982136 0.0019622606 -0.034201965 0.026119765
0001b0 8b 13 76 3d e7 fc 32 3b 01 a7 ca 3c b5 de b3 ba
       0.06007723 0.0027311386 0.024737837 -0.0013722988
0001c0 f2 70 89 3d ac ad 71 bc 76 4c 99 3c 2a 7d d7 b9
       0.06710996 -0.014750879 0.018713217 -0.0004110125
0001d0 da cd a5 ba 58 30 aa 3a c9 49 ce bc 11 22 22 bc
       -0.001264985 0.0012984378 -0.025181668 -0.009895817
0001e0 b0 99 73 3d 5b 47 8a 3d 47 07 06 3d fe 04 17 3c
       0.05947274 0.06751891 0.032721784 0.009217499
0001f0 98 52 f6 3c 84 10 d6 bc 64 24 5a bd 58 86 75 bd
       0.03006868 -0.026130922 -0.05325736 -0.059942573
000200 b3 e0 53 bd b0 4f 21 bd bf fa f8 bc 91 2f 29 bd
       -0.05172796 -0.039382637 -0.030393003 -0.04130513
000210 10 ed 4d 3d 33 87 55 bd ba 7a 28 bb 92 df 05 3d
       0.05027491 -0.05213089 -0.0025707916 0.032683916
000220 f5 95 dd bb 5d 02 19 3d dd 67 ab bc 1b d6 2b 3d
       -0.006762261 0.03735577 -0.02092355 0.041952234
000230 04 ab 2a 3d 0c 7f 75 bd 6a 74 91 bc 36 98 64 3d
       0.041667 -0.059935614 -0.017755706 0.055809222
000240 2b ae 44 3c f6 cf 85 3d 54 e1 f4 bc 7d 7b 96 bc
       0.0120044155 0.06533806 -0.029892601 -0.01836943
000250 2f f1 15 bd 2e 33 51 bd 6d 81 62 bd 87 4f 7a 3c
       -0.036606964 -0.0510742 -0.05529921 0.01527775
000260 fb f6 45 3d fd 75 7b bd 8e 53 ee ba 61 a2 02 bd
       0.048331242 -0.06139182 -0.001818286 -0.031893138
000270 96 9e e4 3b d0 3e 94 3c ba 13 70 bc fd 96 80 3d
       0.0069769127 0.018096358 -0.014653141 0.06278799
000280 6e 9f 5d 3d 6f 9e 4b bd 01 0e 2c bd 31 1b 6b bd
       0.054107122 -0.04971164 -0.042005543 -0.05739898
000290 2c 91 24 bd 7c 24 b6 3a dd 25 88 3d 41 90 11 3c
       -0.04017751 0.0013896371 0.06647847 0.0088844905
0002a0 49 8d a5 ba a0 dc 02 3d a6 c3 18 3b 1e 9f bb bc
       -0.0012630607 0.031948686 0.0023309975 -0.022903021
0002b0 9d 82 8e bb 39 4a 58 bd 15 d6 0d bd f0 cc 2d 3d
       -0.0043490664 -0.05280516 -0.034627993 0.04243177
0002c0 1b 11 81 3c 3d 52 1b bd a0 a8 f7 3c 9e 23 a3 bc
       0.015755227 -0.037920225 0.030231774 -0.019914445
0002d0 f7 fd 9d bc 5c 51 2d 3c 97 55 7f bd 25 83 8d 3d
       -0.019286139 0.01057848 -0.062337484 0.069097795
0002e0 92 65 aa bc 99 a6 2d 3d 64 ad 58 3d d5 4d 08 3d
       -0.020800386 0.042395208 0.052899733 0.03327735
0002f0 1a d6 ee bc 5e 7d cd 3c ab 63 9f bc 1d 6f 82 3d
       -0.029154826 0.025084194 -0.019456705 0.063688494
000300 19 69 91 3d ef 39 8b bc 13 02 c5 3c b0 3c 3c bd
       0.07100124 -0.016995398 0.02404884 -0.045956314
000310 44 9b de bc 4f 19 0c bd a3 53 1f bd 6d 95 1a 3d
       -0.027173646 -0.034203824 -0.03889812 0.03774016
000320 8d 3d 15 bd e0 4e 0f 3d a5 ee c1 3b 50 8d ca 3c
       -0.036435653 0.03498733 0.005918341 0.024725586
000330 34 dc e3 bc 67 b6 ff 3c b4 38 5b bd c3 50 18 3d
       -0.027814962 0.031214906 -0.053520873 0.037186395
000340 d2 0f 4a bd 9e 54 54 bd cc 03 2c 3d fd ee 0f 3d
       -0.049331494 -0.05183851 0.04199581 0.035140026
000350 44 fa 38 3d db 4d 8a 3c ac 9a 45 bd 05 91 22 3c
       0.045160547 0.016882828 -0.04824321 0.009922271
000360 56 8c 77 bd 5c a4 6a 3d 91 e3 1c bd f8 02 18 3d
       -0.06043657 0.05728565 -0.03830296 0.037112206
000370 3e 3e 20 3d 9b 55 33 bb 65 ad e5 3c 7d dd 9b 3d
       0.03912186 -0.0027364257 0.028036783 0.07610605
000380 ba d6 c0 3b e2 3b 46 3d fd 31 43 bd 95 a2 2b 3d
       0.0058849724 0.048396952 -0.047655094 0.041903097
000390 37 bf 77 3d 45 f1 83 bc 2b fd fd 3c b2 46 3c 3d
       0.06048509 -0.016106257 0.031004509 0.045965858
0003a0 9e dd 01 bd 17 44 af bb 73 76 14 3d ca 51 12 bd
       -0.03170549 -0.005348693 0.036245774 -0.03572253
0003b0 d3 8d 6e bb 1c 55 de 3b fb cb 21 3d f8 da 38 bd
       -0.0036400452 0.006785048 0.03950117 -0.0451307
0003c0 22 aa 62 3d 22 47 20 3d ca b1 cb 3b 3a cd 84 bd
       0.055338033 0.039130338 0.0062162625 -0.06484456
0003d0 5f b2 51 bd 08 02 2d 3c 1c 82 54 bd 4a b4 28 3c
       -0.0511955 0.010559566 -0.051881894 0.0102968905
0003e0 24 60 c2 3b dd d8 45 3b e8 3c 19 3c ab 58 b4 bc
       0.005931871 0.0030189075 0.0093529 -0.022014936
0003f0 cf 67 3c bd 71 0c 45 3d a2 19 d6 bc f3 24 cf bc
       -0.045997437 0.04810757 -0.02613527 -0.025286173

2.bias f4 [128]
000000 64 99 44 bb 87 b7 c9 3b 6a dc d8 bc bc 3c 44 3b
       -0.0029998654 0.0061559114 -0.02647229 0.0029943427
000010 4e 68 6d bd 17 01 84 bd a0 2c 37 bd a7 c7 bf bc
       -0.0579608 -0.0644552 -0.044720292 -0.023410631
000020 95 ca b4 3c 26 79 2c bd 34 9e 50 3d 26 2a 81 3d
       0.022069255 -0.042107724 0.050932124 0.06306867
000030 f2 40 95 bc 4c ba 27 bd b1 0d 28 3d ab b6 e3 3b
       -0.018219445 -0.04094915 0.041028682 0.006949266
000040 80 26 59 3d 93 58 3a 3d d8 86 11 bd 8b c7 ee 3c
       0.053015232 0.045494627 -0.035528988 0.029147884
000050 3c b2 5e bd 04 3f 77 3c c5 39 3f 3c 8a 46 02 3d
       -0.054369196 0.015090708 0.011671488 0.031805553
000060 7f 7c 2b 3d 37 cd 2d 3d a4 b5 01 bd 9e 3d 52 3d
       0.041866776 0.042432036 -0.031667367 0.051328294
000070 9e 5f 0f bd dd 93 28 bd 41 2e d5 bc 3c 9d 04 bd
       -0.035003297 -0.04115664 -0.026023032 -0.032376513
000080 6e 3e e6 3c f3 d0 34 bc 61 1b 47 bd da 1f 19 bd
       0.02810594 -0.0110361455 -0.048610095 -0.03738389
000090 3f 4d b0 3c dd 26 75 3d 72 3f 22 bc 5a 4e 3f 3d
       0.021521209 0.059851516 -0.009902822 0.04670558
0000a0 02 d2 27 3d c8 f2 82 3c aa fc 22 3d fc d4 41 bd
       0.040971763 0.015984908 0.03979174 -0.04732226
0000b0 7d ca 73 bd 69 7e c0 bc cf 2c 71 bd d4 75 2c bc
       -0.05951928 -0.023497777 -0.058880623 -0.010526139
0000c0 42 b3 e9 3c 3e 32 65 bd 09 6f 73 3c ec 9b d4 3c
       0.02852786 -0.055956118 0.014858016 0.025953256
0000d0 10 25 63 bd bb 11 27 bd 1c da bf bc 3a ef 56 bd
       -0.055455267 -0.040788393 -0.023419432 -0.052474238
0000e0 ca 04 c3 bc 7f 74 65 3b ef 0f 23 3d d5 15 4b 3d
       -0.023805995 0.0035012064 0.039810117 0.049581368
0000f0 05 c0 42 bd 5b 06 af bc 11 f0 08 3d 93 8b c2 bc
       -0.047546405 -0.021365335 0.03343207 -0.023748195
000100 a0 70 75 bd 8e 35 a4 3c 1a 2c 52 3d b7 2d 34 3d
       -0.05992186 0.020045068 0.05131159 0.04398891
000110 cd 5c 1f bd c8 b2 b0 bc 03 40 d6 ba 98 40 35 bd
       -0.03890686 -0.021569625 -0.0016345981 -0.044251055
000120 ce f8 83 3d 8f ce 4f bd e5 87 25 3d 7f fd 61 bd
       0.0644394 -0.0507341 0.040412802 -0.055173393
000130 66 ce 56 bc 22 7c 21 bd 7b df 52 3d 14 15 b8 3c
       -0.013110733 -0.039425023 0.05148266 0.022470988
000140 26 a6 aa 3c 3d 55 d5 bc 3a 38 65 ba ad d7 06 bd
       0.020831179 -0.026041621 -0.0008744035 -0.03292053
000150 c7 3a 2a bc e8 a7 b9 bc 8e 94 51 bd b1 c3 66 3d
       -0.01038999 -0.022663072 -0.051167063 0.05633897
000160 d7 af 51 3d bd 34 2e bd 83 c4 ea bc 5f d8 92 bc
       0.051193085 -0.042530764 -0.028658157 -0.01792544
000170 a2 18 23 bd cf c7 5f bd 3a 10 3c bc 25 6a 9e bc
       -0.039818414 -0.05463391 -0.011478478 -0.019337723
000180 6d 36 0a 3c 46 cf 47 3c 2b fd c4 bc 97 17 39 bd
       0.008435828 0.012195414 -0.024046501 -0.045188513
000190 f3 59 0c bd 3d 21 78 bb b7 4b 3a 3d 05 0d d7 3c
       -0.03426547 -0.0037861608 0.045482364 0.026251325
0001a0 97 e4 85 3c 81 c9 5f 3d 1f c1 23 bd de 49 14 3c
       0.016344352 0.05463553 -0.039979097 0.009050814
0001b0 ec 8a 03 bc b4 4e 49 bd 68 87 43 3d a7 62 3e 3d
       -0.008028727 -0.049147323 0.047736555 0.0464808
0001c0 76 2d d3 bc 45 1b 0a 3d 01 a1 cd bc 78 47 da bc
       -0.025778513 0.033717413 -0.025101187 -0.026645407
0001d0 10 57 5a bd 86 ab 0c bc 7f 14 3e 3c 41 ef 03 bd
       -0.053305686 -0.008585816 0.011601566 -0.032210592
0001e0 ec 4b 35 3c 03 86 14 bd 31 5c 18 3d bd 45 74 bd
       0.0110654645 -0.036260616 0.037197296 -0.05963682
0001f0 1c 50 01 bd ea 60 06 ba 32 2c cd bc 84 fc 0d bd
       -0.03157054 -0.00051261357 -0.025045488 -0.034664646

4.weight f4 [64, 128]
000000 1f f1 5c 3d 9a a1 7d bc 20 3b 05 3d 39 af 47 bd
       0.05394089 -0.015480423 0.03252709 -0.04875109
000010 88 34 46 bd 08 28 c7 3d 14 29 41 ba b8 f1 35 bd
       -0.04838994 0.09724432 -0.0007368487 -0.044419974
000020 c3 18 75 bd fb 2a e3 bb 47 9d c4 3d 1c d1 08 bd
       -0.059838068 -0.006932614 0.09600311 -0.033402547
000030 3c 2b c8 3c 23 76 34 bd 3e 1f a6 3d 31 fd d9 bc
       0.024434678 -0.044057976 0.08111428 -0.026609989
000040 7d 44 12 bd e2 b8 8b bd c6 21 49 bd 12 db 5d bd
       -0.035709847 -0.06822373 -0.049104474 -0.054164
000050 6b 08 b8 3d b4 e4 61 bc 3a 83 8b 3d 73 04 72 bd
       0.089859806 -0.013787437 0.06812139 -0.059086274
000060 3d d7 99 3d 54 85 bd 3d c6 0d 3e bd 2b 9a 9f 3d
       0.075117566 0.09253946 -0.046399854 0.07793077
000070 9a 14 49 bd e7 1d 34 3d 56 aa c3 bb e4 41 f9 3c
       -0.049091913 0.04397383 -0.0059712334 0.030426927
000080 a1 b7 6d bc 8d f0 8c 3d e8 43 12 bc 1c 38 95 bd
       -0.014509113 0.06881819 -0.008927323 -0.07286093
000090 55 ca 00 bd 15 0e c6 3c 0e 0b d3 bc f0 63 87 3c
       -0.03144296 0.024176637 -0.025762107 0.016527146
0000a0 5c 60 b3 ba 45 e0 ac 3b 7f b4 1b 3d 9a 9a 4b bc
       -0.0013685334 0.0052757584 0.03801393 -0.012426997
0000b0 1c 8b 91 bc c6 a0 b0 bc ac 12 3f 3d 9c 2d 78 3d
       -0.017766528 -0.021561038 0.046648666 0.06059037
0000c0 6b 44 69 3d f7 1c aa bd 15 f8 5b 3a 28 26 f1 bb
       0.056950014 -0.08306306 0.0008391154 -0.007359285
0000d0 95 9e a5 3d 27 33 50 bd dd 30 53 3d e7 e7 8e 3d
       0.08086888 -0.050830033 0.05156027 0.069778256
0000e0 0d d9 91 3d d2 5a 23 3c 98 b5 ee b9 f2 b4 85 3d
       0.07121477 0.009970384 -0.00045530195 0.06528653
0000f0 25 a9 0f 3c 59 cb af bd 9c 50 42 bd d7 eb 76 3d
       0.008768355 -0.08583707 -0.047440156 0.06028351
000100 a5 e8 34 bd d1 8f f3 bc dc 51 24 bd 6d 2e 3e bc
       -0.04416718 -0.029731663 -0.04011713 -0.011607748
000110 7d 04 84 3d 82 47 66 3d c0 56 3b bd c4 3c 2e bd
       0.064461686 0.05622054 -0.045737028 -0.04253842
000120 75 d9 13 3d 82 c6 54 bd 1a 6d 94 bd b5 50 b4 3d
       0.036096055 -0.051947124 -0.07247372 0.08804456
000130 e2 2a e4 3c 0d cc a4 bd 5b 83 3c 3c df 5c 71 3d
       0.02785248 -0.08046732 0.011505927 0.05892646
000140 71 ab f0 3c 96 2a 35 3c 4d 3a 0f bd 77 fc d4 bc
       0.029378625 0.011057517 -0.03496771 -0.02599929
000150 94 11 40 bd 73 31 e9 bc 1b 6a 17 bd cd bd a1 bc
       -0.046891764 -0.028465962 -0.036966424 -0.019743824
000160 31 ff 93 3d 27 ae 94 bd 18 70 25 bd 99 4c 91 3d
       0.07226408 -0.072597794 -0.040390104 0.07094688
000170 44 56 b7 3d d4 73 18 3d 34 df 60 3d 15 bb 48 3d
       0.08952001 0.037219837 0.054900363 0.04900654
000180 c4 7e 9e 3d 32 2a e1 3c d2 08 43 3d 2c 53 d4 ba
       0.077390224 0.02748594 0.047615834 -0.0016199104
000190 61 ef e4 3c f5 b5 4e 3d 57 bc 5d bd 50 89 46 bc
       0.027946176 0.050466496 -0.054134693 -0.012117699
0001a0 fa 7f 1f 3c 91 06 3e 3d 45 72 74 3d e7 b2 04 3c
       0.009735102 0.04639298 0.05967929 0.008099294
0001b0 09 79 c5 bc d3 43 8f 3d 63 f0 54 3d 1f 93 82 bd
       -0.024105566 0.06995358 0.051987063 -0.06375717
0001c0 4b 30 aa bd b2 41 af 3c d2 a4 c5 3d 3d c2 d8 bb
       -0.083099924 0.02139363 0.096505776 -0.006614952
0001d0 ba 03 1e 3d 9b 05 4c bd 18 94 ac 3d 7e 13 c4 bc
       0.038577773 -0.049810033 0.08426684 -0.023935076
0001e0 47 4b 23 bc 67 e4 d8 3d 98 5e 11 3b db 44 95 bb
       -0.009966678 0.10590439 0.0022181626 -0.0045553274
0001f0 0a cd 85 3d 58 34 92 3d 83 32 07 bd 65 81 7e bd
       0.06533249 0.0713889 -0.033007156 -0.06213512
000200 16 78 a0 3d ea 43 a9 3c 3a b9 ce bd 4c c0 c1 3c
       0.078354046 0.020662267 -0.10093923 0.023651265
000210 63 c8 96 bc 1d f5 ab 3c 85 05 08 bd 2a a0 99 3d
       -0.018406099 0.020990903 -0.03320839 0.07501252
000220 48 45 54 3c ec 73 83 bc 19 2b 03 bd dc 15 82 bc
       0.012955971 -0.016046487 -0.032023523 -0.015879564
000230 bb d3 32 3d 6d 3d db bc 93 8d 89 bd d0 42 17 3d
       0.043658953 -0.026762689 -0.06716456 0.03692895
000240 0b c6 0f 3d 6b cb 86 3d 95 0c c9 bd 6e c6 79 3d
       0.035100978 0.06581768 -0.09816853 0.060980253
000250 95 cb 28 bd 03 9b 5d 3d 55 26 96 bc 25 a4 a6 bd
       -0.041209776 0.05410291 -0.018328825 -0.08136777
000260 78 d2 88 3d 81 71 27 bd 62 26 ff bc 52 32 84 bd
       0.06680769 -0.04087973 -0.031146232 -0.0645491
000270 94 9a 86 3c c6 98 a1 3d 23 6d 67 3d 23 e8 87 bd
       0.01643113 0.07890467 0.056500565 -0.066360734
000280 66 91 bc bc 86 9a 89 3c 09 1f 09 bc ea 51 e2 bc
       -0.02301855 0.016797315 -0.008369216 -0.02762695
000290 03 26 4a bd d1 08 0a bd 8d f6 19 3c 13 a3 85 3c
       -0.049352657 -0.033699814 0.009397161 0.016313111
0002a0 4d 47 32 bd 4e 17 ae bc b1 2d 8e bb 5a 7b 98 3d
       -0.04352503 -0.021251347 -0.004338943 0.074454024
0002b0 ef 56 71 3c b6 b3 22 bd 6a 8d b8 bd 3b f0 1c 3c
       0.014730199 -0.039722167 -0.090113476 0.00957876
0002c0 26 7c 81 bb 2f 2f c2 3d 38 96 cb 3c 29 21 85 bd
       -0.003951567 0.09481656 0.024851903 -0.065004654
0002d0 b1 f6 9f 3d 1d 41 0d bd cb a3 95 3d e1 6c aa bb
       0.078107245 -0.034485925 0.07306632 -0.0052009677
0002e0 49 09 28 bd bd 7c 1f bd ab ff a6 bd be ec 45 3c
       -0.04102448 -0.03893732 -0.081542335 0.0120803695
0002f0 51 79 04 bd 2f 9a 81 3b f5 6e 8f 3c 78 b9 9d bc
       -0.03234226 0.0039551477 0.017508963 -0.019253477
000300 12 ea fe bb b3 b4 0d bd f1 0f 4f bd f8 92 4e 3d
       -0.007779368 -0.034596156 -0.050552312 0.05043313
000310 e3 cc 9b bd c7 43 af bb bd e8 e3 bc bd 01 88 bd
       -0.076074384 -0.005348656 -0.02782094 -0.066409566
000320 bb 24 06 be 90 88 93 bd 20 c9 f0 3c 11 91 e9 bc
       -0.13099949 -0.072037816 0.029392779 -0.028511556
000330 8a 5f 81 bc c7 74 af bd 71 63 bb 3d a4 d1 57 bd
       -0.015792627 -0.085671954 0.09149826 -0.052690163
000340 83 91 b9 bb fd fe 3c 3d 5a d1 3f 3d e5 a8 9f 3d
       -0.0056630983 0.046141613 0.046830513 0.07795886
000350 c8 9c e3 bb 3a d4 31 3c e3 66 7e 3d cc 25 82 bd
       -0.00694618 0.010853821 0.06210984 -0.063548654
000360 30 49 8f bd 40 5f bb bd 7d 35 7b bd 1f f1 2c bd
       -0.06996381 -0.09149027 -0.061330307 -0.04222214
000370 7c fc a6 bd 4b ca a7 3d 4b 22 9c bd a8 17 21 3d
       -0.08153626 0.08192881 -0.07623728 0.0393292
000380 99 2e 90 bd e1 45 28 3c bf 4d e1 bb 19 37 ca bb
       -0.07040138 0.010270567 -0.006875723 -0.006171119
000390 c5 8f 44 bc 82 0a bb 3b 36 b9 e2 3c 39 67 cc bd
       -0.011997168 0.0057080397 0.027676206 -0.09980626
0003a0 2a 40 d1 3a 74 24 47 bd 79 40 88 3d 22 9e 92 3d
       0.0015964557 -0.04861875 0.06652922 0.07159068
0003b0 d8 00 9a 3d 13 a4 8f bd c5 db 82 bc 29 dd 90 3d
       0.07519692 -0.070137165 -0.015973935 0.07073433
0003c0 47 75 c4 3c e5 93 39 bd f0 3e 8b 3c 60 2d 22 bd
       0.023981703 -0.04530706 0.016997784 -0.039594054
0003d0 d2 2e b5 3d 86 f9 36 3d 80 e0 7d bd ce b4 70 bd
       0.08846821 0.044671558 -0.061981678 -0.05876618
0003e0 f9 e7 50 3d 3c 32 cf 3c 3e 43 b7 39 5c b4 81 bb
       0.051002476 0.025292508 0.0003495458 -0.003958268
0003f0 43 0b 75 3d e1 f3 99 3b 62 a4 95 bd 54 f0 03 bd
       0.059825193 0.004698262 -0.07306744 -0.032211617

4.bias f4 [64]
000000 07 05 7b 3b 8f 06 e7 3c 4d 79 82 3d c5 d9 3e bc
       0.0038302557 0.02820137 0.063707925 -0.0116486
000010 be de dd bb 6e dc a1 bb 06 8e d4 bd e1 32 73 bd
       -0.0067709377 -0.0049396073 -0.10378651 -0.059374694
000020 86 05 e9 bd f1 13 67 3c 51 85 29 3d c6 fa 53 3d
       -0.11378007 0.0141038755 0.041386906 0.051752828
000030 62 c8 00 3d 5a 29 42 3d ed df 90 3d c3 a7 51 bc
       0.0314411 0.047402717 0.070739605 -0.012796345
000040 b4 1c 37 bd ba c6 30 bd 8c 60 98 bd 68 10 84 3c
       -0.044705108 -0.04315827 -0.0744029 0.016121104
000050 9b 47 90 3d 63 47 3f bd 6d 75 5a bd 1b 5b 0c 3d
       0.07044908 -0.04669894 -0.053334642 0.034266572
000060 1e 0f 66 bd 5f b2 79 3d 19 e7 1b bd 6a e1 f9 bc
       -0.05616676 0.060961124 -0.03806219 -0.030502994
000070 cf 2a 66 bd 5c 23 f4 3c da 9e ff 3c c5 13 5b bc
       -0.05619317 0.029802017 0.031203676 -0.013371413
000080 9e c7 5d bd bd 74 89 bd b8 30 84 bd 62 b2 08 bd
       -0.054145448 -0.06711719 -0.06454605 -0.033373244
000090 f9 4f ef 3b 20 19 b1 3d 7b 3d 48 bd 46 2d 9f 3c
       0.0073032347 0.0864737 -0.048886757 0.019430768
0000a0 a3 2a 6f 3d 52 f0 fe bc ac 4b 52 bd 56 61 1a 3d
       0.05839027 -0.031120453 -0.051341698 0.037690483
0000b0 4f ad 09 bd 7e a7 20 3d b3 c8 85 bd cb 38 88 3b
       -0.033612546 0.039222233 -0.06532421 0.004157161
0000c0 ed 4e 4e bd e1 a6 8c bd d3 6d 01 bc 65 ff 30 3d
       -0.05036824 -0.06867767 -0.007899719 0.043212313
0000d0 98 9a 2a bc ea 14 63 bd 68 87 2c 3d cf 96 62 bd
       -0.010412835 -0.055439867 0.04212132 -0.055319604
0000e0 52 1b 22 bd ca c2 b4 bd 87 dc b5 bd 45 9e 06 bb
       -0.039576836 -0.088262156 -0.08879953 -0.0020541113
0000f0 c6 62 d9 bc 81 42 52 3c da d4 2d 3d 80 41 34 3d
       -0.026536357 0.012833239 0.04243932 0.04400778

6.weight f4 [3, 64]
000000 8f ed 42 bd 10 dd bb 3d 69 af a5 bd e5 26 c3 3d
       -0.047589835 0.09173024 -0.080900975 0.09528903
000010 02 38 82 bd e2 91 31 3d c2 ea 12 3d 90 62 90 3d
       -0.06358339 0.043352015 0.035868414 0.07050049
000020 77 94 ef bb 64 d9 62 3c ac 03 d8 3d fe 2a c4 3d
       -0.0073113996 0.013845775 0.10547575 0.095785126
000030 c9 f6 b7 bc 88 eb 94 3d 99 81 6b bd e1 e4 3b bd
       -0.022456544 0.072714865 -0.05749664 -0.045872573
000040 9e f7 80 bd 93 c0 9b bd d9 e4 d7 bd b3 04 34 3d
       -0.06297229 -0.0760509 -0.10541696 0.043949794
000050 db b3 9e 3d 88 25 8f bd a3 e6 e5 3b 30 1e 48 3d
       0.077491485 -0.069895804 0.0070160194 0.048856914
000060 0f 7e 2d 3c 20 86 d5 bd dd 3e c3 bd 46 97 a3 bd
       0.010589137 -0.10425973 -0.095334746 -0.079878375
000070 68 4c a1 3d 6e 67 fb bc a2 35 9e 3d 65 d3 a7 bd
       0.078759015 -0.030688968 0.077250734 -0.08194617
000080 38 80 58 3d 56 bb c1 bd 09 93 18 3d 6f 21 b3 bd
       0.052856654 -0.094595596 0.0372496 -0.08746611
000090 97 92 cf bd ec 63 86 3c 58 3c c3 bd dc 69 8a 3d
       -0.10135382 0.016405068 -0.09532994 0.06758472
0000a0 c1 cc 8e bb b3 40 86 bd f9 57 a4 3d cc fb 5f 3d
       -0.0043579047 -0.06555309 0.08024592 0.05468349
0000b0 c7 55 48 3d 5e b4 38 bd 51 8b d0 bd d4 f7 a8 bd
       0.04890993 -0.045093887 -0.101828225 -0.082503945
0000c0 3b dc fd 3c 9f 7f a3 bc ff 53 75 3d 2d b9 c7 bd
       0.030988803 -0.019958315 0.059894558 -0.09752116
0000d0 01 bf db 3c 1a bc 2e bd 6a c1 ce bd d6 04 9e bd
       0.026824476 -0.042659856 -0.100954846 -0.07715766
0000e0 b6 af dc 3b 34 5a 81 bc 64 30 69 bb c9 6e bf bd
       0.0067348136 -0.015790083 -0.0035581822 -0.093473025
0000f0 62 ec b3 bd a3 9b 96 3c f5 20 83 bd bf 03 21 bd
       -0.08785321 0.01838476 -0.064027704 -0.039310213
000100 87 91 a2 3d 74 d6 7c ba a1 39 a6 bd 3e df 0e bd
       0.079379134 -0.0009644993 -0.081164606 -0.03488087
000110 c7 fe 80 bb 64 7d 90 bd b0 c7 2d bd 3f 41 d0 3d
       -0.003936622 -0.07055166 -0.042426765 0.10168695
000120 fa d2 65 bc 14 74 51 3d 1d d3 7f 3d c0 fc a2 bd
       -0.0140273515 0.05113609 0.062457193 -0.079583645
000130 c5 aa bb 3d 87 15 e3 3d 97 b0 6b 3d 32 8c 44 bd
       0.09163431 0.110880904 0.057541456 -0.047985263
000140 34 fb 88 bd 13 60 25 bc d3 d7 f3 bc 00 38 98 3d
       -0.06688538 -0.010093707 -0.029765999 0.07432556
000150 fe 19 ea 3d 81 06 f8 38 c1 4e 9e bc 9b 9a 94 3d
       0.11430739 0.00011826773 -0.019324662 0.07256051
000160 bd 49 18 bd 1c 66 a1 bd e4 9d b5 bd a2 d6 b5 3d
       -0.037179697 -0.07880804 -0.08868006 0.088788286
000170 9d b8 a4 3d 39 10 95 bd 73 ed 62 3d b1 ea a1 bd
       0.08043025 -0.07278485 0.05540223 -0.07906092
000180 da 9c c4 bd f6 7f 53 bd cf 8b 11 bd 1c 70 a9 3d
       -0.096002296 -0.051635705 -0.035533722 0.08273336
000190 8c e0 eb bd c1 66 a3 bd 79 fb 56 bc 8e 4d 05 3d
       -0.11517438 -0.07978583 -0.013121479 0.032544665
0001a0 0e 61 2e 3d 3d 94 33 bd f4 50 e5 3d 37 3d be bd
       0.042573027 -0.043842543 0.11197081 -0.092890196
0001b0 7e 4e 8f bd 37 01 e9 bc ef 17 bf bd cb ad 15 bd
       -0.06997393 -0.028442962 -0.09330737 -0.036542695
0001c0 d9 20 f7 3c 59 91 7c 3c 3d bd 68 3d 66 24 90 3c
       0.03016703 0.015415513 0.056821097 0.017595481
0001d0 9a 2e cf 3c 9a d1 c2 bc 92 2d 01 bc 04 6d a9 bd
       0.025290776 -0.023781586 -0.0078844 -0.08272746
0001e0 51 7b e2 3d 60 e1 83 3c 05 5a 2e 3d 2e 29 45 bc
       0.11058677 0.016098678 0.042566318 -0.012033744
0001f0 45 e7 14 3c a8 0a 96 3d 59 04 69 bc 2e 19 a7 39
       0.009088342 0.07326251 -0.014222228 0.00031871482
000200 4c 95 50 bd 86 60 e8 bd 6d ce 4b bd 5b 14 57 bd
       -0.05092363 -0.113465354 -0.04975741 -0.052509647
000210 62 15 73 bd f5 e8 53 bd 51 51 1e 3d da 11 e9 3d
       -0.059346564 -0.051735837 0.038651768 0.11380358
000220 d6 32 a0 bb 5f d9 a3 bd c0 07 db 3d 65 ed d0 bd
       -0.0048888726 -0.080004446 0.106948376 -0.102015294
000230 3a 2a 95 bc 07 88 82 3d 33 41 63 bd bd 49 07 bd
       -0.018208612 0.063736014 -0.0554821 -0.033029307
000240 cd 17 5b bb 33 79 b7 bd 8c 52 cb bc ab 98 62 bc
       -0.0033430934 -0.08958664 -0.024819635 -0.013830344
000250 42 94 f4 bd c7 82 46 3d eb 19 2c 3d db 48 3b bd
       -0.119423404 0.048464563 0.042016905 -0.045723777
000260 37 56 97 3b b4 99 a4 3d c6 2e c8 bd 8e 9b 01 3e
       0.004618432 0.08037129 -0.09774546 0.12656996
000270 47 21 e2 3d 0a db 9a 3d e6 a1 5b 3d 1e 3a 09 bd
       0.110415034 0.0756131 0.053621195 -0.03350269
000280 bc 6f 26 3c 2d da e5 bd ed 4f 6f bd e9 36 e8 bc
       0.0101584755 -0.11223254 -0.058425833 -0.028346496
000290 f4 6d fb bd d3 80 92 bc 99 6d ab 3d c3 75 ca 3b
       -0.12276831 -0.017883694 0.083705135 0.006178589
0002a0 a4 93 09 bb bf 56 e0 bb 7f ee 29 bd 41 45 21 3d
       -0.0020992542 -0.0068462784 -0.041487213 0.039372686
0002b0 97 a6 08 be 66 23 9b bd 74 d5 27 3d 00 e7 8e ba
       -0.13344799 -0.07575111 0.04097505 -0.0010902584
0002c0 06 99 1e 3d 8f d9 61 bc 88 73 82 3d 2a 48 9f bd
       0.038720153 -0.01378478 0.06369692 -0.07777436
0002d0 49 cc da 3c 41 9c 80 bd 83 d9 c7 bd f0 0d a3 3d
       0.026708739 -0.06279803 -0.09758284 0.07961643
0002e0 b2 11 6f bd 0a 75 31 3d dd 5d 8d bd e8 9d 49 3c
       -0.058366485 0.043324508 -0.069026686 0.012305714
0002f0 31 06 dd bd 58 f6 12 bc 2f af 67 bd e3 e7 a7 bd
       -0.107921965 -0.008969866 -0.056563552 -0.08198526

6.bias f4 [3]
000000 5a f7 69 bd ce 2e c7 bd 75 ff 30 bd
       -0.05712066 -0.09725724 -0.043212373
