src/training/discrete_actor.pth (torch, 201492 bytes, 8 tensors)

0.weight f4 [256, 31]
00000000: b66b 20be d800 e4bd 7425 1ebe 371f ed3d
00000010: 9572 f1bc 2a9f d23d 2274 6dbd ceb3 843d
00000020: d3c1 0ebe c250 c5bd 83ed 103e 92a2 f3bd
00000030: d6f3 09be 13d7 f63b c179 303e fe1f 42bd
00000040: 74b9 0cbd 3e38 3c3d 3f2b eb3d 65e2 45bb
00000050: 88b6 933b 7cc3 80bd e919 ec3d 3930 9a3d
00000060: bfad 0f3e d24c af3d 792b 0bbd 1a50 04bd
00000070: e16a 1dbe ce9f 0ebd 8bda bd3d 2a48 d3bd
00000080: d7fb 2b3e 5da7 07be 056f e0bc e969 d73d
00000090: 402d 1dbe c351 173e acc1 353d 4365 bdbc
000000a0: 55c5 15bd b2a1 f8bc ae61 153e a12d 1ebd
000000b0: ce90 e63d 57b4 6c3d 41bf b73d 734f dfbc
000000c0: c249 093e af93 553b a9ac 31be b101 323e
000000d0: b4ff 383e 65d9 df3d 33c6 dabc bfa0 a93c
000000e0: 3a1a e13d 22c2 36be 58d9 1b3c 647d 1a3e
000000f0: 0f22 a03c c672 f83d a02b bd3d 6b6a aabd
00000100: 72c2 a6bd b44f 11be c545 043e 12d6 5c3d
00000110: 1e65 723d 961a 0b3e e40c e83d dd0d 393c
00000120: ce30 36be 1752 42bd edcc bdbd bd18 abbd
00000130: 2452 683b 5b15 fdbd 863d 94bd 2530 b5bd
00000140: f1e2 133e eac3 d03d 52e0 8e3d 4fb2 003e
00000150: 6010 cd3d 642b a9bd 553c 273e 554c 0abe
00000160: e03d 283e 2404 fdbb 6bf6 013e 8842 393d
00000170: 50f9 12bd 245e a43d dd48 24bd de02 a4bd
00000180: 57be 853c 29ad 49bc 004e 46bd 8bef c33d
00000190: 3111 a63d ba2f b83d 4403 a0bd ad38 823c
000001a0: 7ad7 5a3d 9a5a b93d 1c3a fdbc 8433 a73d
000001b0: c6b6 f2bd f030 5bbc df0c 373e b550 18be
000001c0: 6d71 aabd d510 63bd 8539 933d 4fc7 143e
000001d0: af2b 25be 0131 babc 2ee6 683d 24ed 513c
000001e0: 70ab b33d e157 183d 84d3 343e 6388 493d
000001f0: f33c 13be 67c7 803d 1d48 8c3c b578 a5bd
00000200: 398b 123e 7d4c 30be 3785 113d 4a4c e5bd
00000210: f4c5 aa3d be81 f03d 2a4a 74bd 276b ff3c
00000220: 49b9 0b3e f2bf 2c3c 962e 37be 12ef 623c
00000230: 3f06 74bd aa63 a4bc 9ec8 b3bd d95b 163e
00000240: cc59 b3bd b7b1 20be 838b fe3d 0e66 25bd
00000250: a643 6f3d 721b a7bd 8e82 8c3d e061 b93c
00000260: f4e7 b1bd fa21 32be 4bdc 943c 42f8 ecbc
00000270: 501d 933c 17f4 c33d 8107 0abe b0f8 60bc
00000280: 530b 8d3d 964a 1cbe 670e 7e3c 9796 ee3d
00000290: a3b8 6e3d 9d2f 913d 96c2 063c dbc4 e03d
000002a0: e9b6 38bd 765c 22be 1488 fd3d 7992 083e
000002b0: 9a90 303d 4615 8abc 9e23 073d da6f 2fbe
000002c0: 5bb9 abbd 2dae 04be 1f9f 1e3d 0cfb 1cbb
000002d0: db8b 47bd a5e0 323e 3109 c63d 46dc ab3d
000002e0: d5b3 0c3e 4160 efbc 9626 e3bc eb91 33be
000002f0: 79d8 7abd 5d4f 87bd 5eb2 b4bd 4e6b 13be
00000300: cc00 c93d 4a47 02bd b086 253e f31f b73c
00000310: 81ae 3f3c ff82 943d 9cf1 dd3d 22e8 983d
00000320: 2bda aa3d 2c30 2c3e 4888 01bc 6b53 0dbd
00000330: 0f86 09be 3a9b 0a3e f113 56bd cbdd 6fbd
00000340: 1fe3 c43d 4d01 853c c8ba ecbc 85bb f7bd
00000350: e008 343e e233 823d 020b 543d 95e9 2bbe
00000360: e9f9 99bd 613c 69bc 6f79 1f3e eb21 d43b
00000370: c140 7d3d ae2f 263e e8b3 46bc 0123 2ebe
00000380: 97d5 efbd 25ea c13c cf31 ec3d aaec e7bb
00000390: 15c6 4ebd 34aa 01be 2903 c8bd dba8 d83c
000003a0: 1b88 f5bd 1a2a 1a3e 3e6d 163e db59 663d
000003b0: c48d be3d e061 1cbe 227f 073e 01d0 21be
000003c0: 77a4 973c 3733 37be 428a 043e 247c 28be
000003d0: 5cd3 943c 3850 73bd 5dd6 b83d ef73 29be
000003e0: d2a2 9ebd cb74 393d ec05 f8bd 5ea1 0ebe
000003f0: 607d 023d 4273 a4bc eddd 173e e236 043e
-0.15666088 -0.111329734 -0.15443975 0.115782194 -0.029473582 0.102842644 -0.05797208 0.064796075
-0.13941126 -0.09634544 0.14153104 -0.11896242 -0.13471922 0.007532963 0.17233945 -0.04739379
-0.03435655 0.045952074 0.11482858 -0.0030194756 0.0045078434 -0.06287286 0.115283795 0.07528729
0.14031123 0.08559574 -0.033977006 -0.032302953 -0.15372802 -0.03482037 0.092701994 -0.103164986
0.16795288 -0.13247438 -0.027396688 0.10518248 -0.15349293 0.14777283 0.044374153 -0.023119574
-0.036565144 -0.03035054 0.14588043 -0.038617734 0.11258088 0.057789173 0.08972026 -0.027259564
0.13407043 0.0032589247 -0.17351021 0.17383458 0.18066293 0.109301366 -0.026705837 0.020706533
0.109913304 -0.17847493 0.009512268 0.15086895 0.01954749 0.12131266 0.092368364 -0.08321079
-0.08142556 -0.1419056 0.1291724 0.05391509 0.059178464 0.1358436 0.11330584 0.011294809
-0.17792055 -0.04744157 -0.09267602 -0.08354328 0.003544935 -0.12357589 -0.07238297 -0.088470735
0.1444204 0.10193618 0.069763795 0.1256802 0.10012889 -0.08260229 0.16331609 -0.13505681
0.16429853 -0.007721441 0.12691657 0.045229465 -0.035882294 0.080257684 -0.04010855 -0.080083594
0.016326113 -0.012309351 -0.04841423 0.095671736 0.08108748 0.08993478 -0.07813123 0.015896166
0.05342815 0.09050484 -0.030911498 0.08164123 -0.118512675 -0.013378367 0.17876004 -0.14874537
-0.083224155 -0.055435974 0.07188705 0.14529155 -0.16129945 -0.022728445 0.05686014 0.012812886
0.087729335 0.037193183 0.17658812 0.049202334 -0.14378719 0.06288033 0.01712423 -0.08079664
0.14310922 -0.17216678 0.035527434 -0.111961916 0.08338538 0.11743496 -0.05964104 0.031179024
0.136449 0.01054381 -0.17888865 0.013850944 -0.05957627 -0.020067055 -0.08778499 0.14683475
-0.08757362 -0.15692793 0.124289535 -0.04038053 0.058414124 -0.08159532 0.06860839 0.022629678
-0.0868682 -0.17395774 0.01817145 -0.028926972 0.017958313 0.09568041 -0.13479425 -0.013731167
0.068869255 -0.15262827 0.0155063635 0.116498165 0.058281552 0.0708916 0.008225104 0.10975047
-0.04509631 -0.15855584 0.123794705 0.13337125 0.043106653 -0.016855847 0.03299295 -0.17132512
-0.08384963 -0.12957068 0.03872597 -0.0023953347 -0.04871736 0.17468508 0.09669722 0.08391623
0.13740475 -0.029220702 -0.02772836 -0.17536132 -0.0612416 -0.06606934 -0.08823083 -0.14396402
0.09814605 -0.031806268 0.1616466 0.022354102 0.01169932 0.07251548 0.10837099 0.07466151
0.083423935 0.16815251 -0.007906027 -0.03450338 -0.13430046 0.13535777 -0.05226511 -0.058561128
0.096136324 0.016235972 -0.028897658 -0.120963134 0.1758151 0.06357552 0.05176831 -0.16788323
-0.0751837 -0.014235587 0.15573667 0.00647377 0.061829332 0.16229126 -0.012127854 -0.1700554
-0.11710661 0.02367122 0.11532938 -0.007077773 -0.050481874 -0.12662584 -0.09766228 0.026447704
-0.11988851 0.15055123 0.1469011 0.056238037 0.093043834 -0.15271711 0.13232091 -0.15802003
0.01851104 -0.1789063 0.12943366 -0.16453606 0.01816719 -0.059402674 0.090252616 -0.16548131
-0.07745899 0.045277398 -0.121105045 -0.13928744 0.03185785 -0.02007449 0.14830752 0.12911561

0.bias f4 [256]
00000000: 1076 8ebd 71c2 3bbd 4756 dfbd c451 b4bd
00000010: 3f36 e2bd eacc 4d3d c810 d5bd 19b7 c63c
00000020: 811d 7b3d fc64 81bd 8c31 d8bd f5fd 80bc
00000030: 76fa 1d3d 4c17 653d a38d 1c3e 659c 24bc
00000040: e471 303e fe2c 06bd dfd1 06be d29c a9bd
00000050: 33d1 b83c 7402 b33d 5634 483e 03a3 21be
00000060: 1cfe 773d e195 85bd 841b 50bd c5b6 3dbe
00000070: 81b2 243e 73fa 403e 3fb8 aabd dc55 e5bd
00000080: 41b4 d5bd 496f 8fbd 8591 f5bc 28aa ba3c
00000090: f4e5 4dbd 73d0 463c 42fa 013d 3859 44bd
000000a0: f9de cb3b 4abe 7c3d ba0b 543e ab1f 283d
000000b0: 178c cc3c 70d8 193e de9a 8cbd c34f 123e
000000c0: 781f 42bd 5da7 c93c cecc dbbc 56b6 8dbd
000000d0: 5cfe 513e 4bd2 973d de11 c2bd e5a6 0e3e
000000e0: f745 113c dcf9 dabc c87a 03be 3bf1 96bd
000000f0: 239a 09be 9134 debd 0313 d93c b007 febd
00000100: e5fb b1bc 4565 d7bd b8e6 edbd cca9 463e
00000110: 0b2e 82bc 0849 313d c565 a93d d16e 18be
00000120: 6171 263d 6e4e 37bc eb7b e23d 4c6e 923c
00000130: 381e dc3d 4ace 25b8 8730 053e 77cb 4b3d
00000140: fc2b bf3c 9078 33bd 8697 3f3e 13d8 873b
00000150: 56e4 fcbc 60ce 3c3e c3aa 903d 82f4 843d
00000160: 3629 083b 5ad5 e03d 5e64 8cbd 33ac 2d3e
00000170: 57c1 a9bd b35a 92bc 44b6 2d3b 35dd c8bd
00000180: eab3 353e 23b2 d9bd 15c0 00be f2c6 9b3d
00000190: 6812 0b3e ae4f 153e 3b0c b93d 465c f8bd
000001a0: 6fcd ccbd 2417 0fbe bce1 0abd 2bc5 a33d
000001b0: 05b5 a4bd 9697 2a3e 6d95 34be 3e3b a2bc
000001c0: f26b 0a3e 40fa a03d 61a8 143e ac23 963b
000001d0: f6df 73bd 79f6 bb3c 4022 103e ac8a 613d
000001e0: 9759 0e3c 7299 8ebd e814 523d 6811 3bbd
000001f0: cc2f 713d b10b e23d 296d ac3d c4f6 02be
00000200: bbfe 4b3c 48ec 14be ac83 8bbc 927c b6bd
00000210: 879d 9a3c c17d d53b f1fd 34bd 0dcd 363e
00000220: d138 d93d cc77 ea3d 9e43 41be db75 183e
00000230: 86f8 afbd ce86 563c 5680 d9bd 6cd0 cdbc
00000240: e659 0cbd 58c7 2d3e 03bf 163e e703 433d
00000250: ec42 223e 76ac 14be c5bb 18be fb90 22be
00000260: daee 2f3b 3c89 963d 0d63 9dbd 1576 babd
00000270: 6829 25bd ba64 91bd 055d 9c3d 78cd 0ebc
00000280: 4cf6 8fbd 9507 89bd 2e8d 6f3a d05b bdbd
00000290: 1aff 123e d946 9dbd d773 9bbd 0f52 cc3d
000002a0: f3b9 0b3e fc93 fe3b 858e 5cbd b210 17be
000002b0: cf5a 46be aaeb a43d 221c 06be 2849 303d
000002c0: 5a69 05be af87 a43d 1b7f d9bd 3097 5dbd
000002d0: 79d9 fcbd 3d8a 27bd f44c fb3d 24cc 663d
000002e0: bf47 0e3e 1ad9 1c3e d4a2 abbd b89c dd3d
000002f0: f695 5e3d c1d0 fd3d b33b 52bd 0498 03be
00000300: df44 233c 8ae2 97bd ab0a e5bd a7f3 8bbb
00000310: 8130 8a3d d4e9 22bd 990d eebd 78af 3b3e
00000320: bec3 fa3d ae23 93bc f81b 9d3d f838 83bc
00000330: 7f3c b3bd 43cb f93c 20cb 223e 46a8 a53b
00000340: d643 3b3d bdd9 203e 8a7c 833d d212 12be
00000350: c3bd 20be 08fa afbd 8fab 3ebb 33e6 383c
00000360: 5ad1 953d 8e6d f4bd fe73 a0bd 1561 063e
00000370: 049f 48be 82a0 d2bd 9908 db3d 548e 4b3d
00000380: dccb afbd c370 0d3e 1606 46bd 7b15 a73d
00000390: db74 1fbd 40cf 4b3c d547 2abd a387 d83d
000003a0: ee09 8a3d 004a 4c3e 5060 49be 3546 533e
000003b0: 0960 de3c 6b32 30bc 1dc0 153e 2e46 943d
000003c0: ab00 53ba 5b5f e43d d07e 02be c5c3 eabd
000003d0: 60c2 9bbc 024b e4bc 5a4f fd3d 1824 cdbc
000003e0: 1eaf 2b3e aeeb 183e 8da2 47bc 58a5 2fbe
000003f0: fdbf a5bd c57f f13c 85ed 7bbd 9362 4c3e
-0.069561124 -0.04583973 -0.10905128 -0.08804658 -0.11045503 0.05024425 -0.104035914 0.02425723
0.061307434 -0.06318089 -0.10556325 -0.015746096 0.038568936 0.05593042 0.15288405 -0.010047053
0.17230946 -0.03275775 -0.13165997 -0.08281864 0.022560691 0.08740702 0.19551215 -0.1578484
0.060545072 -0.06522728 -0.05080749 -0.18526752 0.16083719 0.18845539 -0.083359234 -0.11198017
-0.10434771 -0.07003648 -0.029976616 0.022786215 -0.05026813 0.012134659 0.031732805 -0.047936648
0.006221649 0.06170491 0.20707598 0.041045826 0.024969144 0.1502397 -0.06865476 0.14288239
-0.047393292 0.024615938 -0.026831057 -0.069195434 0.20507187 0.07413157 -0.09476064 0.13930853
0.008866779 -0.02673047 -0.12839806 -0.0737023 -0.13437705 -0.1084987 0.026498323 -0.1240381
-0.021726558 -0.105173625 -0.11616272 0.1940071 -0.015891096 0.04328254 0.08271364 -0.14886023
0.04063547 -0.011188133 0.11058792 0.01787486 0.10747951 -3.9531187e-05 0.13006793 0.049754586
0.023336403 -0.04381615 0.18710145 0.004145631 -0.030870598 0.18438101 0.0706382 0.06491949
0.0020776517 0.109781936 -0.06855081 0.1696022 -0.0828883 -0.017865514 0.0026506344 -0.09807817
0.17744413 -0.1062968 -0.12573273 0.07606305 0.1358124 0.14581177 0.09035536 -0.12126975
-0.10000121 -0.13973671 -0.033906683 0.07996591 -0.08042339 0.16659388 -0.17635126 -0.01980364
0.1351774 0.078602314 0.14517356 0.004581889 -0.059539758 0.022944676 0.14075565 0.05506389
0.008688352 -0.06962861 0.05128947 -0.045670897 0.058883473 0.11037386 0.08419258 -0.12789446
0.012450869 -0.14543259 -0.01703056 -0.08910479 0.018873943 0.006515235 -0.04418749 0.17851658
0.1060654 0.11448631 -0.1887345 0.14888708 -0.08592324 0.013093663 -0.10620181 -0.025123797
-0.03426542 0.16970575 0.14721303 0.047611143 0.15845841 -0.14518914 -0.14915378 -0.15875618
0.0026845247 0.07350394 -0.07684908 -0.091045536 -0.04032269 -0.0709929 0.076349296 -0.00871598
-0.07029399 -0.06690899 0.0009138164 -0.092460275 0.14355126 -0.07679529 -0.07590454 0.09976589
0.13645153 0.007769106 -0.053846855 -0.14752463 -0.19370578 0.08052762 -0.1309667 0.043038517
-0.1302847 0.08033692 -0.106199466 -0.05409926 -0.12346167 -0.04090332 0.12270537 0.056347027
0.13894556 0.15317193 -0.083806664 0.10820907 0.054342233 0.12393332 -0.051326465 -0.12850958
0.009965151 -0.07416256 -0.111836754 -0.004270989 0.06747533 -0.039773777 -0.11623687 0.18328655
0.12244366 -0.01796135 0.0767135 -0.016018376 -0.08751773 0.03049243 0.15897799 0.00505546
0.04571899 0.1570806 0.06420238 -0.14264992 -0.15697388 -0.085926116 -0.0029093956 0.0112853525
0.07315321 -0.119349584 -0.07834624 0.13122971 -0.1959191 -0.10284521 0.10694999 0.04969628
-0.08583805 0.13812546 -0.048345648 0.08158394 -0.0389298 0.012439549 -0.04157241 0.10572746
0.06740175 0.19950104 -0.19665647 0.2063225 0.027145403 -0.010754208 0.14624067 0.07239948
-0.0008049111 0.11151 -0.12743688 -0.11463121 -0.019013584 -0.027867798 0.12368651 -0.025041625
0.1676602 0.14933655 -0.012184751 -0.17152917 -0.080932595 0.02947987 -0.061505813 0.19959478

2.weight f4 [128, 256]
00000000: 2491 903b 2482 a0bc e4f4 09bb a32e 2f3c
00000010: d0ef d53c a310 0fbd 9eee 8ebc 3c1d 313d
00000020: 43ce 6abd 3fd4 5c3d b36c 50bc 583b 90bd
00000030: e056 2dbd a068 f8bc b7f9 a3bc b512 653c
00000040: a267 293d 0119 4abd e0b5 5fbd dc50 3bbd
00000050: e34a 25bd ebcf 943c 2254 e03c 8539 b33c
00000060: fa49 543c b67d fc3b a1fd ec3a 9567 4c3d
00000070: 20bd 733c f3fb 63bd 8a75 11bc 692e d9bc
00000080: b125 86bd 53e8 7bbc 0e52 893c 89f9 39bc
00000090: 906f 83bd 2a55 123d ae5a 543c f9b2 fd3c
000000a0: 8d92 19ba 0843 54bd 6230 d9bc 48b7 d73c
000000b0: 94e8 edbc 5abb 103d ae05 22bd 693f 04bd
000000c0: 53ba b33c e142 48bd 5425 afbb 9160 c13c
000000d0: 3c15 5e3a 77af 73bd 64ef 5bbc ab4c 79bd
000000e0: 4d29 a23c bdb9 35b9 a600 cdbc a02b c8b9
000000f0: 62d7 70bd f5d9 45bd 9142 bdbc 9938 2ebd
00000100: 55d9 7c3c f233 4abd b8c7 343d 9b9e 393d
00000110: 8fc5 20bd bd97 9abc 7bcb 313b aa24 12bd
00000120: 89cf 99bd e04b b23c 8278 6f3d 1b5e 103d
00000130: f00f 66bc 73fc 303d e7bc 4bbb 5396 0a3a
00000140: aab3 2d3c 4356 dfbc cc9e 45bc 0f42 b9bb
00000150: 5600 383d 2f89 70bd e7ee f0bc 0a02 ea3c
00000160: 873b 5cbd ee36 bb3a 6ba5 643c 34ed c83c
00000170: 7597 2bbd 913c 23bd 256f 8f3c 2cfd 623c
00000180: fb32 60bc 1161 67bd 0bb1 36bd 30e0 903b
00000190: 1fba 26bd 2a74 513d 1f80 86bd 7747 8ebb
000001a0: 1f34 82bd 22a0 93bc 1299 543d 4052 0ebb
000001b0: c43f 8f3d 2f32 f43c 521c 5cbc e14a 1abd
000001c0: 79e3 1fbc 39ce 86bd ccc0 eebc acb7 91bc
000001d0: 1234 bfbc 12c5 8cbd 3e24 a83c 6eec 853d
000001e0: 7f48 15bd c0bc 223d 4455 d8bc 6df5 9dbd
000001f0: 91de 48bd 435f d3bc f792 5abc 7ac6 4fbd
00000200: f6e8 e1bc 0e73 243d b141 193c 0cd1 713c
00000210: 5a94 0cbc 8061 623d 0bca f2bc f46c 503a
00000220: f2dd c9bc 883d 753d 7382 953c 32a2 513d
00000230: a7d4 2fbd 574d 89bd ed6d 953c 13c6 08bd
00000240: da62 24bd 1770 43bd cbb5 403d a5f3 5e3d
00000250: 914d 28bb 81b3 7fbd 695c a93c aed5 05bd
00000260: af7d f93c 0052 553d d1f2 95bd 74e1 cf3b
00000270: f5ea e23c 74d7 a4bc 5d9f 2a3d fa77 93bd
00000280: 3339 2abd feff e3ba 0b01 d73c 6afb c43c
00000290: eaa5 2bbd 5a10 42bd 5667 34bd d392 c1bc
000002a0: 5d64 36bd 8412 f6bc 9c28 823b feac 153d
000002b0: 99dc bb3a 4fb0 a93c 9420 343d 2cbb 373b
000002c0: 35ff 87bd ed7d c9bb c075 95bd 4885 493a
000002d0: 110c 78bd 342e 863d 06c1 87bd 3889 9cbc
000002e0: 4b46 85bc 20ee 1cbb 5923 433d 2c8b 4f3d
000002f0: c4e4 813d e940 083c da0d a03b 54aa 003d
00000300: ea80 8fbc 28a4 5bbd e1e5 873c fc6d 8dbd
00000310: 5a27 29bd a9bc 07bd a35f 063d 80da 7f3a
00000320: f868 4dbd 3659 a33a a346 b7bc 18b2 d4bc
00000330: 4dbb 8d3c 702f 90bb 57ab 573c 9645 a6bc
00000340: 84b5 67bc 9a9e c33c 4eea 66bd a907 f7bc
00000350: 1e11 563c 39bb 0abb f72f 47bd abce f43c
00000360: 47d3 0abb a3e6 b53c c6b9 49bd cb1f 82b7
00000370: a90f ab3c 9959 90bd e4f8 c53c ef20 b73c
00000380: d060 febb 3bec a1bc f8df 6ebd d711 dabc
00000390: 9f51 d0bc a6ee 7f3d c93a c73c 4198 b2bc
000003a0: 4437 e53c 8f40 75bc 5758 6f3d 6111 7fbd
000003b0: 509e 153d a587 d73b b540 e93b c494 12bc
000003c0: a4ef 80bc 36c8 263d c62f 11bd 2c08 213d
000003d0: 5a67 24bd e7dd 7a3b d7a4 2b3c cea1 6dbd
000003e0: 5327 bf3b f6a1 083d 514b bfbc 267a 903d
000003f0: d6b9 bf3c 56dd 91bd 9fc5 e93c 9d1c fd3c
0.0044118334 -0.019593306 -0.0021050507 0.010692271 0.026115328 -0.034927975 -0.017447766 0.04324077
-0.057325613 0.05391335 -0.012721228 -0.07042569 -0.04231918 -0.030323327 -0.020016534 0.013981511
0.041358598 -0.04934025 -0.05461681 -0.04573141 -0.04035462 0.01816555 0.027383868 0.021878013
0.0129570905 0.0077054156 0.0018080958 0.04990347 0.014876634 -0.0556602 -0.008878121 -0.026511388
-0.06550158 -0.015375215 0.01676276 -0.011350998 -0.06417763 0.03572575 0.012961073 0.03096913
-0.00058583246 -0.05182174 -0.026512329 0.026332512 -0.029041566 0.035334922 -0.039556198 -0.032287035
0.021939432 -0.048891906 -0.005345026 0.023605617 0.0008471792 -0.05949351 -0.013423774 -0.060864132
0.019795084 -0.00017330698 -0.025024723 -0.00038179476 -0.058799155 -0.048303563 -0.02310303 -0.042534444
0.015432675 -0.049365945 0.04413578 0.045317274 -0.039250907 -0.018871183 0.002712934 -0.035679497
-0.07510287 0.021764696 0.058464535 0.035245996 -0.014041886 0.043209504 -0.0031087936 0.0005286682
0.010601917 -0.027262812 -0.012061786 -0.0056536268 0.044922195 -0.05872458 -0.029410793 0.028565425
-0.053767707 0.0014283338 0.013955454 0.02452717 -0.041892488 -0.039852683 0.017509053 0.013854306
-0.01368403 -0.056489054 -0.044602435 0.0044212565 -0.040704843 0.051136173 -0.06567406 -0.0043420154
-0.063575976 -0.018020693 0.05190379 -0.0021716505 0.06994584 0.029809086 -0.013434486 -0.037669066
-0.009758824 -0.065823026 -0.029144667 -0.017787777 -0.023340259 -0.06873526 0.020525094 0.06539236
-0.03644609 0.039730787 -0.026407845 -0.07712827 -0.04904038 -0.02580226 -0.013340703 -0.05072639
-0.027576905 0.040148787 0.009354041 0.014759313 -0.008580292 0.055268764 -0.029637357 0.00079508056
-0.024641965 0.059873134 0.01825068 0.051180072 -0.04292741 -0.067042045 0.018240893 -0.033392023
-0.040133335 -0.04771432 0.04704837 0.054431576 -0.0025680999 -0.062427048 0.020673947 -0.032674484
0.030455438 0.052080154 -0.07321704 0.006344015 0.027699927 -0.020122267 0.041655887 -0.07200618
-0.041558456 -0.0017395017 0.026245615 0.024045665 -0.041906275 -0.047378875 -0.04404386 -0.023629582
-0.044529308 -0.030038126 0.003972126 0.03654193 0.0014332711 0.020713953 0.04397638 0.0028035147
-0.06640474 -0.0061490447 -0.0729785 0.0007687402 -0.060558382 0.06551781 -0.06628613 -0.0191084
-0.01626887 -0.0023945644 0.047641132 0.050669834 0.06342462 0.008316257 0.0048844637 0.031412438
-0.017517526 -0.05362335 0.016589107 -0.069057435 -0.041297294 -0.033138905 0.03280605 0.0009760037
-0.050148934 0.00124625 -0.02237255 -0.025963828 0.017301226 -0.0044001862 0.013163409 -0.020296853
-0.014142398 0.023879338 -0.056375794 -0.03015502 0.0130656045 -0.0021168722 -0.048629727 0.029883703
-0.002118306 0.022204703 -0.049249433 -1.5512012e-05 0.02088149 -0.070483394 0.024166532 0.022354571
-0.007763006 -0.019765964 -0.058319062 -0.026619835 -0.025429545 0.062483452 0.024320023 -0.021801116
0.027980454 -0.014969005 0.058433857 -0.062272433 0.03652793 0.0065774494 0.0071183094 -0.008946601
-0.01573927 0.04071828 -0.03544595 0.039314434 -0.040137626 0.0038279237 0.010476313 -0.058015637
0.0058335452 0.033357583 -0.023351343 0.07054548 0.023404043 -0.071222946 0.028536616 0.030897433

2.bias f4 [128]
00000000: 65f7 f83c f326 80bd 644c 993d 0343 b23d
00000010: 1d3e f13b eaa9 fb3b bc3e 6cbd 6875 6ebc
00000020: 5a8c 78bc fe63 29bd 716e 11bd 8ea3 7bbc
00000030: 1712 203c e93a 0ebd 121c 7d3c 60de 9b3d
00000040: b864 7bbd b4e7 d63b 356f d53c d4a7 0bbc
00000050: dc57 8fbd e6b4 173d 62ef 223d 41ea 633d
00000060: a0fc 48bc 5649 6c3d 4ff1 cfbc c15c b9b9
00000070: 9ba6 8bbb 9c13 b83d f81e 473d 1d35 b0bd
00000080: 45a4 1abc a2c5 7cbc 3d4b f13c 4703 3e3d
00000090: 7168 8ebd 3da3 ecbc 2d5d 3bbd af5b 463b
000000a0: f89e 833c 425f 813d 4c5e ab3c 4c7b 103d
000000b0: 2276 76ba d4ea beba 5859 e73c 2f6a 02bd
000000c0: 5b8c 17bc 0bed 7c3c d0ae b2bc 95c3 9fbc
000000d0: 5a4a 703d edd2 433d 5633 f43c 0f3f e3bc
000000e0: da87 c53c d10c a63d 745b f83c d27e b8bc
000000f0: 3913 ebba 23f6 243d ad48 f13c 1807 d33c
00000100: 7c62 bebc cc3b 893c c759 a1bc 78f1 593c
00000110: 8c46 b53c 5e86 22bd e8c9 9d3d f084 26bc
00000120: 0882 b43c fe88 763d 60a5 8cbd a3ca 76bd
00000130: 13ca 6a3d cc66 47bd c17c 0d3d 2637 3d3c
00000140: 2c92 a6ba fc43 0cbd d4f9 983c cd28 3abc
00000150: b33d 9ebd a81f 133d a570 893d 72c8 4e3d
00000160: 8aef 6ebc 8fed 60ba 1d5c 713b 4089 40bc
00000170: 9165 7cbd aa48 cd3c 0832 af3d ac57 d5bb
00000180: f241 14bd 6773 b33a 5224 b3bd 280b cdbc
00000190: 7249 8c3d 2319 35bc 7bee d93c 4bcf 2dbd
000001a0: 611a a63d 8642 923b 7c2b 2dbd 6ae9 2dbc
000001b0: 69ec 373d 273e 793c 3f3d f83c 389c 413c
000001c0: 398a 1d3d e55e bdbb 43d3 6c3d 5f25 5a3d
000001d0: 87cc 023d 74cd 92bc 4eea 5cbd 3323 dd3b
000001e0: d2eb 66bb d2d3 353c 85d0 e73b 7d49 14bd
000001f0: eb71 21bd a805 02bc d4d8 a33c 20e8 94ba
0.030391404 -0.06257429 0.074852735 0.08704188 0.007362141 0.0076801674 -0.057677016 -0.014554359
-0.015170181 -0.041355126 -0.035505716 -0.015358819 0.009769938 -0.03472415 0.015448587 0.07610774
-0.06137535 0.006558383 0.026054004 -0.0085239 -0.0699918 0.037037753 0.039779074 0.055643324
-0.012267262 0.057687126 -0.02538362 -0.00035355057 -0.0042618043 0.08988115 0.04861352 -0.086038806
-0.009438579 -0.015427979 0.029454822 0.046389844 -0.06953514 -0.028886432 -0.045743156 0.003026705
0.016067013 0.06316997 0.020918988 0.035273835 -0.00094017584 -0.0014565834 0.028240845 -0.031839546
-0.009249772 0.015437375 -0.021811873 -0.01950244 0.058664657 0.047808576 0.029809635 -0.02774003
0.02411263 0.08107913 0.030317046 -0.02252141 -0.0017934806 0.040273797 0.0294536 0.025760219
-0.02324032 0.016752146 -0.01969613 0.0133022 0.022128366 -0.039678924 0.07704526 -0.010163531
0.02203466 0.06018924 -0.0686748 -0.060251843 0.05732162 -0.04868202 0.034542803 0.011548793
-0.0012708358 -0.034244522 0.018673815 -0.011362267 -0.07726612 0.03591886 0.06710938 0.05048413
-0.014583478 -0.0008580321 0.0036828585 -0.011751473 -0.0616203 0.025059063 0.085544646 -0.0065106954
-0.036195703 0.0013691009 -0.08747162 -0.025029734 0.06849946 -0.011053356 0.026602974 -0.042434018
0.081105 0.0044634966 -0.042277798 -0.010614732 0.044903193 0.015212572 0.030302642 0.011817031
0.038461898 -0.0057791346 0.057818662 0.053258296 0.031933334 -0.017920233 -0.053934388 0.006748581
-0.0035235775 0.011097865 0.007074418 -0.036202896 -0.03941528 -0.007935919 0.020000853 -0.0011360683

4.weight f4 [64, 128]
00000000: 3db0 24bd 93d9 133d d534 48bc ef57 083c
00000010: f83e f53d 3a9d ec3c 158f 09bd ef52 d4bd
00000020: fe68 9b3d 3b59 8fbc ede8 4a3d 508f f13d
00000030: 42f0 b33d 92b2 d4bc cb26 d03d a66c 13bd
00000040: 79ba 45bd d9e2 04bb 3ad9 8fbd bf97 9f3d
00000050: 9ba7 5a3c 45de c0bc be08 59bc 639d 103d
00000060: 3997 82bc 3811 913c 6cf6 66bd c4b2 3d3d
00000070: ba64 38bd 050b 583d f8cb 9fbd b240 e5bd
00000080: c844 b6bc 2d73 13bd f9a7 543d 2064 393c
00000090: 45b3 eabc b46f 41bd f393 523d f94c 9f3c
000000a0: 65e3 853d 98e0 533d 0b39 89bc a8b2 3bbd
000000b0: 83e7 8a3d 387e d13d f89c 97bd 7d1d 273d
000000c0: c69b 3d3d baa0 c73b d90f dd3d 588a 2c3c
000000d0: b2f7 ee3d 441e 8ebc 8aa4 3abc a96a 323d
000000e0: 8fdb e13c d691 77bb 4c5b 4abd a704 9ebd
000000f0: 2cf4 4ebd 309d ff3d 596a 26bd 6aaf fc3d
00000100: ea14 19bd 90b5 4cbc a347 503c 15ce 36bc
00000110: 066f 333d b252 803c 36db 443d 2378 1bbd
00000120: bdad 313d b9dc 72bc 52ef c7bd 14f7 873c
00000130: 95d9 e83d d997 c4bd 5da0 8abc 7b2e 153d
00000140: bab6 e7bc d57b 8b3d cb6c 053c 0bc2 d7bd
00000150: b9cd ddbd 8beb c2bd 14d2 43bc 4483 cb3d
00000160: 1e1c 823c adbf cc3d 113a 05bc a56c bdbd
00000170: 7c82 093a 83dc 8c3d 25b4 013c 807b 863d
00000180: 7bf4 09bd ec31 a03c 2fd7 cebd 5da8 3dbd
00000190: e4c9 f83c 9842 4e3c 2d87 f53c 68f4 56bd
000001a0: f98e 3dbc e1e9 603d ab97 f83c 1180 a1bc
000001b0: d80d 05bd ab23 9f3d b2fa 5cbb d34f 0d3d
000001c0: ed02 6e3d de9b 03bc a716 673d 3731 48bd
000001d0: f47e 293c 753f 9ebc 5807 f5bb 7b02 973d
000001e0: 78f4 f4bc e2b2 af3d 47b2 c63c 06aa 4ebd
000001f0: 40d5 ccbd 9b92 ea3b 8d26 96bd 2125 a2bd
00000200: 11de 07bc 289b 34bd 61a2 9bbc 34c8 e3bd
00000210: 9583 5e3d 5177 44bd 1f5f 3bbd 0fdc 7b3d
00000220: 22a1 4cbd a2b1 983d b81e 8ebd d74a 75bd
00000230: ff20 91bd 4af9 7f3c 5c8d 903d 84df d1bd
00000240: a2e9 113c cf0b 833d 0f6c 90bd 9143 c5bd
00000250: a842 803c 593b 663c f9eb 48bd f21d 4d3d
00000260: f8a5 cc3c f5bf c5bb 6528 e23a 4816 3f3d
00000270: f081 e4bc 5a45 b83c 43d6 82bc 135f e93c
00000280: 1c77 19bd b598 4cbd 0d48 1cbd 3957 10bd
00000290: 3181 753d ecae 17bd 67f9 0f3d 208a 8cbd
000002a0: 3067 103c 58f5 15bd 959e 20bc 9d9d 50bb
000002b0: 82f6 1cbd 93fc 58bd 3c2a c4bc b2b2 dd3d
000002c0: 987a 543c 4665 1ebc 6a0f 5cbb f8a0 073d
000002d0: c98f 983b 1f54 03bd fc2a a0bd 0e9c 8d3d
000002e0: e59f 333d fec1 56bd 6251 85bd cdaf 9f3c
000002f0: 0286 52bd 6e98 623d aaee 87bc 631c 8c3a
00000300: 609e c5bb 24aa 003d 3827 90bb ebee 093d
00000310: 6908 643d ab99 47bd 5160 eabd 1cdc 39bd
00000320: 8cde 4abc 7462 9ebd 7b6b 25bd 5824 a33d
00000330: 60a9 e4bd fbf9 0abb e7a0 0abd fc6e a23d
00000340: a0f9 08bd 8215 8cbd e8de b43d 797e 2f3d
00000350: 1444 7bbc e22a a33d 8ebb 283d f463 fb3b
00000360: b1a1 113a febf e1bd 5b9b 31bc 987c 39bd
00000370: fad7 4d3c 7401 33bd 9990 cabd 8c57 c13c
00000380: 2e15 c83d 4ae9 ee3b ff79 053c 97e1 91bd
00000390: e41f 1f3d d7b1 debc 1e95 463d 9cd8 d23d
000003a0: ac39 bf3c 3bf2 483d dd73 083d c221 233d
000003b0: 69d5 0a3d 172b 02bd 8c44 903d 4986 063d
000003c0: f1bf 28bd 91c8 62bd d56f c73c 66fa 173d
000003d0: 1169 d93d 6ce8 30bd a762 aabc 9acb bdbd
000003e0: 1eaa 373d 1d7d 36bd 4bfb 533a efc6 453d
000003f0: 7d43 e33d 5b59 9a3d 1259 693d e629 1c3d
-0.040207136 0.036096167 -0.012219627 0.008321746 0.11974901 0.028883565 -0.03358372 -0.10367381
0.07588385 -0.017498603 0.04953854 0.11794913 0.0878606 -0.025964055 0.10163649 -0.035992287
-0.048273537 -0.0020276813 -0.070238546 0.07792615 0.013345624 -0.023543486 -0.013246713 0.035306346
-0.01594125 0.017708406 -0.05638735 0.046313062 -0.045017935 0.052744884 -0.07802576 -0.1119398
-0.022249594 -0.035998512 0.051918004 0.011315376 -0.028649935 -0.04722567 0.051410627 0.019445883
0.06537513 0.05172786 -0.016750833 -0.045824677 0.067824386 0.102291524 -0.07402986 0.040799607
0.046291135 0.006092158 0.10794038 0.010531031 0.11668338 -0.017348416 -0.011391768 0.04355875
0.027570514 -0.0037776134 -0.049403474 -0.07715731 -0.05052583 0.12481153 -0.040628765 0.12338145
-0.03737346 -0.01249446 0.012712392 -0.011157532 0.043807052 0.015664432 0.04806062 -0.03795637
0.04337858 -0.014823132 -0.097624436 0.016597308 0.113696255 -0.09599275 -0.01692217 0.03642128
-0.028285373 0.068107285 0.008143614 -0.10535058 -0.10830254 -0.095175825 -0.011951942 0.09937146
0.015882548 0.09997497 -0.00813152 -0.09249238 0.0005245579 0.06877997 0.007916485 0.065665245
-0.03368042 0.019555055 -0.10099637 -0.04630314 0.030369706 0.012589119 0.029971683 -0.052479178
-0.011569732 0.054910544 0.030345758 -0.019714387 -0.032483906 0.07770475 -0.0033718762 0.034499954
0.05810826 -0.008032767 0.056418087 -0.04887506 0.010345209 -0.019317368 -0.007477682 0.0737352
-0.029901728 0.08579041 0.024254931 -0.050455116 -0.10001612 0.00715859 -0.07331572 -0.07917238
-0.008292691 -0.04409328 -0.018998327 -0.1112217 0.054324705 -0.04796535 -0.04574501 0.06148916
-0.049958356 0.07455756 -0.06939453 -0.059885826 -0.07086372 0.0156234 0.07058212 -0.1024771
0.0089058 0.06398737 -0.070518605 -0.09632028 0.015656784 0.0140522355 -0.049053166 0.050077386
0.024981484 -0.006034846 0.001725447 0.04665211 -0.02789399 0.022494007 -0.015971309 0.028487718
-0.037467107 -0.04995032 -0.03815465 -0.035239432 0.05993766 -0.037032053 0.035149958 -0.06862283
0.008813664 -0.03661093 -0.009803434 -0.0031832226 -0.038321026 -0.05297525 -0.02394592 0.10825099
0.012968682 -0.0096677 -0.0033578523 0.033112496 0.0046558124 -0.032062646 -0.078206986 0.06914531
0.04385366 -0.0524311 -0.06509663 0.019493008 -0.05139733 0.05532115 -0.016593296 0.0010689612
-0.0060308427 0.03141226 -0.0043992065 0.033675116 0.055672083 -0.048730534 -0.11444152 -0.04537593
-0.012382161 -0.07733622 -0.040385704 0.079659164 -0.11165118 -0.002120613 -0.033844855 0.07931325
-0.033441186 -0.0684004 0.088315785 0.042845223 -0.015336055 0.079671636 0.04119449 0.0076718275
0.0005555405 -0.11022948 -0.010840262 -0.045284837 0.0125637 -0.043702558 -0.09890861 0.023601316
0.09769665 0.007290994 0.008146762 -0.07123106 0.038848773 -0.02718441 0.048482053 0.10295221
0.02334293 0.049059134 0.03331362 0.039827116 0.03389493 -0.031779375 0.07044324 0.032842908
-0.041198675 -0.055367056 0.024345318 0.037104033 0.10615743 -0.043190405 -0.020798994 -0.092673495
0.04483997 -0.04455291 0.0008086457 0.04828542 0.11096857 0.075365745 0.05696971 0.038125895

4.bias f4 [64]
00000000: 216e f23d 8ef3 92bd 4f70 1bbd 3a59 f63c
00000010: d428 9f3d dcd6 d63d 65d0 9fbd 9860 e6bd
00000020: 78ca 843d 727d 54bd 109a 6f3c 0db6 79bd
00000030: 2d71 c23c e385 9c3d 8987 d8bd be43 8cbd
00000040: 6e03 363d 2687 b33b 59f9 a33d f129 913d
00000050: d64c a33b 9993 18bd 9570 573d 5058 d13c
00000060: 637d b2bd 01f0 573d ce81 bbbc 974d fa3d
00000070: 7cf3 87bd e22a 3d3d b59d cabd fea6 02bc
00000080: 4ab9 e1bc af9e 093d 21a3 98bc 5d00 3abd
00000090: 2367 bbbc 6d22 9dbd f128 9bbd c510 42bc
000000a0: 5a9e 6f3d 52b3 31bd 7bdf 823c c2a8 2dbc
000000b0: ef7f c2bd 9e32 a0bd 4b9f ff39 a53e 943d
000000c0: a6ab cabc 0eda b23d 6666 903d 8067 193b
000000d0: 05d1 393c 9c14 02bd 9008 b63d 5fa6 fd3c
000000e0: 28e9 163b 4835 8b3d a6cd ca3b 8350 fe3d
000000f0: 04cd 4ebd 6412 743c 91b3 803c 55c5 a8bd
0.11837412 -0.071753606 -0.037948903 0.030071843 0.07771459 0.104902 -0.0780342 -0.112488925
0.0648393 -0.051877446 0.014624134 -0.060964633 0.023735607 0.07642724 -0.10572726 -0.06848858
0.044436865 0.0054787574 0.08006544 0.07088078 0.004983525 -0.037250135 0.0525976 0.025554806
-0.08715322 0.05271912 -0.022889044 0.1222183 -0.06638238 0.046183474 -0.098933615 -0.007974384
-0.027554173 0.033598598 -0.018632473 -0.045410503 -0.022876328 -0.07672582 -0.07576168 -0.0118448185
0.058500625 -0.043383904 0.015975704 -0.010599317 -0.09497058 -0.078221545 0.00048756073 0.07238511
-0.024740051 0.08732997 0.07050781 0.0023407638 0.011341338 -0.031757936 0.08888352 0.030963121
0.0023027156 0.06797272 0.006189066 0.124177 -0.050488487 0.014896963 0.015710624 -0.08240763

6.weight f4 [3, 64]
00000000: b2f2 d83d 5302 b9bd 31f4 4c3d bec3 033e
00000010: dfed 90bd 4f45 063e 584f 0aba d9c0 11be
00000020: 0df8 853b cd7b 7f3d 465d bfbd 1124 943c
00000030: 1b4b 013c 7447 1b3d 9273 f4bd 2ae6 bfbd
00000040: 69b8 9cbd 633d 6c3c bfa4 7d3c 4f33 d53d
00000050: d1c7 abbd 400d 18bd 242a 69bc 8965 fcbc
00000060: be52 cfbd 2211 3b3d 1145 933d 4292 233e
00000070: 7795 15bc bd3b e9bd fa6a eabd 79c1 523d
00000080: d2d8 f6bc a549 c7bd 7139 ff3c 3035 a73d
00000090: 7be5 c1bd b928 80bd 0b18 0dbe 226d ed3d
000000a0: 38e1 f3bc 8257 e1bd f65f 0d3e 4da3 f03a
000000b0: 46a8 9ebd e4e9 bdbd d0be 34bc 7cd1 713d
000000c0: 5d1b e7bd da17 a93d a035 203d 6da3 99bd
000000d0: bd2c 37bd 3e65 00be 5be7 61bc c0e7 f7bd
000000e0: 7bad 1fbe 212d c53d edd6 a03d b9f6 183e
000000f0: 7f78 8cbc 4800 ee3d ca5e 21bd cdcf 05be
00000100: b306 8d3b 8f7a 183e 92ce 893d b06e 873c
00000110: 2ac3 15bd ae63 23bb 8627 573d 75ed f03d
00000120: 15b3 f83d 5904 eebd 88b2 e5bc 38d9 c5bc
00000130: 356f aebc b051 97bd 71e9 8d3d 5781 93bd
00000140: 06df febd 5a8f 783c 6e46 b23d 6837 a4bc
00000150: 334c bbbd b910 4a3d 5593 89bd 518f f138
00000160: 29a8 0b3e 29dd aa3d d095 f33d 74b9 88bd
00000170: d511 84bd a5ee 123c 54fb 8abd c1b9 b9bb
00000180: ba7f 6b3c febd 96bd 7c60 d93c 0cda fe3d
00000190: fd1c 3b3c cbb7 303d f7a3 e13c be35 e9ba
000001a0: e235 a83d 0a33 f43d 528c d83c 5377 debd
000001b0: 5e1a 54bd 373b 013e ca73 083e 1704 53bc
000001c0: d2d0 d3bc 27cd 97bd 26d1 00be 5cd1 973d
000001d0: 16a8 91bd cf07 16bb 95f0 b9bd f947 c33d
000001e0: 0674 3fb9 c509 253d e89d a93d 74af d0bc
000001f0: 6ac1 da3d 1fa5 673d f861 e23d 0b2e f4bc
00000200: b16b 1fbc 295a 8d3c 8860 d63c 7d0d fabd
00000210: 0afe 1d3d d3d5 8a3c 34d8 ce3d e97d 053e
00000220: 80b8 7f3c 2f39 023e 3a3c a43c 9b18 873d
00000230: b1a6 90bd 86dd 72bd ebc7 0fbd 0f44 9b3d
00000240: 757d 35bc f071 503c 09bc c7bd d7b1 573d
00000250: 1844 a8bd ba3d 83bd 7c0b 2ebd cc9f dcbd
00000260: 44b3 a53d 6d1e d03d 938b f63d 02dd f0bd
00000270: b4dc 02bd f338 4dbd 513d ad3d 1554 603d
00000280: 6285 433b e4a5 d7bd 0258 b8bc ae3d 8d3d
00000290: 5b01 f7ba d46d 38bc 7fb0 e23c 8da5 babc
000002a0: 74bb 9f3c c371 fa3c 30b2 ec3d 116b c4bd
000002b0: dcf0 073d bad9 a2bb 95ef c33d 440d a83b
000002c0: 1774 95bd 47da 6f3b f443 03be e11a 1a3c
000002d0: c668 dd3d 4577 e0bd 324c 053c accc 4b3d
000002e0: d4f9 c53d 9639 02bd 8594 33bd 496b 68bd
000002f0: bf70 823d 0136 eebc 9d71 bdbd 5d00 a8bd
0.105931655 -0.090336464 0.050037567 0.12867638 -0.0707662 0.13112377 -0.00052761054 -0.14233722
0.004088408 0.062373925 -0.09343962 0.018083604 0.007891442 0.03790994 -0.11936106 -0.09370072
-0.07652361 0.014418933 0.015481173 0.10410177 -0.08387721 -0.03712201 -0.0142312385 -0.030810134
-0.10123204 0.045670636 0.07190908 0.15973762 -0.0091298735 -0.11388347 -0.114461854 0.05145404
-0.030132685 -0.097308435 0.03115532 0.081644416 -0.09467598 -0.06257767 -0.13778703 0.11593081
-0.029770479 -0.11003019 0.13806137 0.0018359214 -0.07746939 -0.09273127 -0.011031821 0.05903767
-0.11284516 0.082565024 0.03911364 -0.07501874 -0.0447204 -0.12538621 -0.01378807 -0.1210475
-0.15593521 0.09627748 0.07853494 0.14937867 -0.0171473 0.116211474 -0.03939704 -0.13067551
0.004303777 0.14890502 0.06728853 0.016532272 -0.036563076 -0.002493124 0.052527927 0.11764041
0.12143532 -0.11621923 -0.028039232 -0.02415143 -0.021293262 -0.073886275 0.06929291 -0.07202404
-0.12444882 0.015170896 0.0870484 -0.020045951 -0.09145393 0.049332354 -0.067175545 0.0001151847
0.13638367 0.08342964 0.11893809 -0.066759974 -0.06448714 0.00896803 -0.06786218 -0.0056678955
0.014373714 -0.07360457 0.026535265 0.12443933 0.011420486 0.04314403 0.027544005 -0.0017792506
0.08213402 0.119237974 0.026434097 -0.10862603 -0.05178296 0.12620245 0.1332542 -0.012879393
-0.02585641 -0.074121766 -0.12579784 0.07412979 -0.07112138 -0.0022892838 -0.090790905 0.09535212
-0.00018258402 0.04029252 0.08282071 -0.025474288 0.10681422 0.056553956 0.11053842 -0.029807111
-0.0097302655 0.017254906 0.026169077 -0.12209604 0.03857235 0.016947662 0.10099831 0.13036312
0.015607953 0.12717126 0.02004825 0.0659649 -0.07063044 -0.059293292 -0.035102766 0.075813405
-0.011077275 0.012722477 -0.09752662 0.052659836 -0.08216113 -0.06408258 -0.04249142 -0.10772666
0.08090833 0.10162053 0.120383404 -0.11760904 -0.03194876 -0.05010314 0.08458961 0.054767687
0.002983414 -0.10529688 -0.022502903 0.0689653 -0.0018845008 -0.011256654 0.02767205 -0.022784019
0.019498564 0.030571824 0.11557424 -0.09590734 0.033188686 -0.0049698027 0.09567181 0.0051285345
-0.07297533 0.003659861 -0.12818891 0.0094058225 0.108109996 -0.10960249 0.008135842 0.049755737
0.096667916 -0.0317932 -0.04384281 -0.05674294 0.06369161 -0.029078485 -0.09250186 -0.08203194

6.bias f4 [3]
00000000: 9122 2dbd 9124 0a3d c159 53bd
-0.042269293 0.03372628 -0.051599268
