src/training/discrete_actor.pth (torch, 201492 bytes, 8 tensors)

0.weight f4 [256, 31]
0	0xbe23470d	-0.15945072
1	0xbddc8489	-0.107674666
2	0xbe1c7443	-0.15278725
3	0x3ded1f37	0.115782194
4	0xbcf17295	-0.029473582
5	0x3dd29f2a	0.102842644
6	0xbd6d7422	-0.05797208
7	0x3d84b3ce	0.064796075
8	0xbe0ec1d3	-0.13941126
9	0xbdc550c2	-0.09634544
10	0x3e10ed83	0.14153104
11	0xbdf3a292	-0.11896242
12	0xbe05cdf6	-0.13066849
13	0x3bf6d713	0.007532963
14	0x3e3079c1	0.17233945
15	0xbd3c3983	-0.045953285
16	0xbd039e42	-0.03213335
17	0x3d4892e7	0.048968222
18	0x3df16e4d	0.11788616
19	0xbb45e265	-0.0030194756
20	0x3c097bc7	0.008391327
21	0xbd70d4f2	-0.05879683
22	0x3dec19e9	0.115283795
23	0x3d98402f	0.07434117
24	0x3e0fadbf	0.14031123
25	0x3daf4cd2	0.08559574
26	0xbd0b2b79	-0.033977006
27	0xbd04501a	-0.032302953
28	0xbe1d6ae1	-0.15372802
29	0xbd0e9fce	-0.03482037
30	0x3dbdda8b	0.092701994
31	0xbdc60630	-0.09669149
32	0x3e261338	0.16218269
33	0xbe0c975f	-0.13729618
34	0xbce06f05	-0.027396688
35	0x3dd769e9	0.10518248
36	0xbe1d2d40	-0.15349293
37	0x3e1751c3	0.14777283
38	0x3d35c1ac	0.044374153
39	0xbcbd6543	-0.023119574
40	0xbd15c555	-0.036565144
41	0xbcf8a1b2	-0.03035054
42	0x3e1561ae	0.14588043
43	0xbd31f5ff	-0.04344749
44	0x3de690ce	0.11258088
45	0x3d6cb457	0.057789173
46	0x3db14d14	0.086572796
47	0xbd016707	-0.031592395
48	0x3e03d8a6	0.12875614
49	0xbacd9ffc	-0.0015687938
50	0xbe31aca9	-0.17351021
51	0x3e2d0fb6	0.16900524
52	0x3e340da6	0.17583331
53	0x3ddfd965	0.109301366
54	0xbcb35a55	-0.02189366
55	0x3ca9a0bf	0.020706533
56	0x3de11a3a	0.109913304
57	0xbe36c222	-0.17847493
58	0x3c1bd958	0.009512268
59	0x3e1a7d64	0.15086895
60	0x3ca0220f	0.01954749
61	0x3df872c6	0.12131266
62	0x3dcb2cf6	0.09920685
63	0xbdb51e3d	-0.08843658
64	0xbdafa674	-0.0857667
65	0xbe114fb4	-0.1419056
66	0x3e0445c5	0.1291724
67	0x3d5cd612	0.05391509
68	0x3d72651e	0.059178464
69	0x3e0b1a96	0.1358436
70	0x3de80ce4	0.11330584
71	0x3c390ddd	0.011294809
72	0xbe3630ce	-0.17792055
73	0xbd425217	-0.04744157
74	0xbdc6b4e0	-0.09702468
75	0xbdab18bd	-0.08354328
76	0x3b685224	0.003544935
77	0xbe010a1d	-0.12601514
78	0xbd9caf01	-0.07650567
79	0xbdbf0aad	-0.09328208
80	0x3e0f6f82	0.1400738
81	0x3dd0c3ea	0.10193618
82	0x3d85f880	0.06541538
83	0x3df87c9a	0.12133141
84	0x3dcd1060	0.10012889
85	0xbda04c38	-0.078270376
86	0x3e273c55	0.16331609
87	0xbe0a4c55	-0.13505681
88	0x3e283de0	0.16429853
89	0xbbfd0424	-0.007721441
90	0x3e01f66b	0.12691657
91	0x3d394288	0.045229465
92	0xbd12f950	-0.035882294
93	0x3db198bf	0.08671712
94	0xbd3af0e8	-0.045639902
95	0xbdad796d	-0.08470426
96	0x3c85be57	0.016326113
97	0xbc49ad29	-0.012309351
98	0xbd464e00	-0.04841423
99	0x3dc3ef8b	0.095671736
100	0x3da61131	0.08108748
101	0x3db82fba	0.08993478
102	0xbda00344	-0.07813123
103	0x3c8238ad	0.015896166
104	0x3d5ad77a	0.05342815
105	0x3dafddea	0.085872486
106	0xbcfd3a1c	-0.030911498
107	0x3da73384	0.08164123
108	0xbdf8aa85	-0.12141899
109	0xbc9018f1	-0.017590018
110	0x3e31b0fa	0.17352667
111	0xbe1d0e38	-0.15337455
112	0xbdaa716d	-0.083224155
113	0xbd7609bd	-0.06006788
114	0x3d89bce0	0.06725478
115	0x3e14c74f	0.14529155
116	0xbe207417	-0.15669285
117	0xbcba3101	-0.022728445
118	0x3d68e62e	0.05686014
119	0x3c51ed24	0.012812886
120	0x3db3ab70	0.087729335
121	0x3d1857e1	0.037193183
122	0x3e34d384	0.17658812
123	0x3d498863	0.049202334
124	0xbe183056	-0.14862189
125	0x3d8addb2	0.06780566
126	0x3ca67a35	0.020321945
127	0xbda578b5	-0.08079664
128	0x3e128b39	0.14310922
129	0xbe304c7d	-0.17216678
130	0x3d118537	0.035527434
131	0xbde54c4a	-0.111961916
132	0x3daac5f4	0.08338538
133	0x3df081be	0.11743496
134	0xbd744a2a	-0.05964104
135	0x3cff6b27	0.031179024
136	0x3e10529b	0.14094011
137	0x3c2cbff2	0.01054381
138	0xbe372e96	-0.17888865
139	0x3c85a2db	0.016313007
140	0xbd65dd84	-0.056119457
141	0xbc82329f	-0.015893279
142	0xbdab459b	-0.083628856
143	0x3e165bd9	0.14683475
144	0xbdaa3fa7	-0.08312922
145	0xbe1c1694	-0.15242988
146	0x3dfe8b83	0.124289535
147	0xbd2ebeaa	-0.0426623
148	0x3d6f43a6	0.058414124
149	0xbda71b72	-0.08159532
150	0x3d8c828e	0.06860839
151	0x3cb961e0	0.022629678
152	0xbdb1e7f4	-0.0868682
153	0xbe3221fa	-0.17395774
154	0x3c94dc4b	0.01817145
155	0xbd07c48a	-0.03314642
156	0x3cb81a75	0.022473553
157	0x3dc92444	0.0982137
158	0xbe0a0781	-0.13479425
159	0xbc60f8b0	-0.013731167
160	0x3d8d0b53	0.068869255
161	0xbe1c4a96	-0.15262827
162	0x3c7e0e67	0.0155063635
163	0x3dee9697	0.116498165
164	0x3d6eb8a3	0.058281552
165	0x3d912f9d	0.0708916
166	0x3c06c296	0.008225104
167	0x3de98d21	0.11403871
168	0xbd38b6e9	-0.04509631
169	0xbe225c76	-0.15855584
170	0x3e00d88f	0.1258261
171	0x3e0ba4b7	0.13637052
172	0x3d3f67a5	0.046729703
173	0xbc56ca9d	-0.01310983
174	0x3d07239e	0.03299295
175	0xbe2b2090	-0.1671164
176	0xbda2ea69	-0.079548664
177	0xbe04ae2d	-0.12957068
178	0x3d17e701	0.037085537
179	0xbb1cfb0c	-0.0023953347
180	0xbd478bdb	-0.04871736
181	0x3e32e0a5	0.17468508
182	0x3dc60931	0.09669722
183	0x3dabdc46	0.08391623
184	0x3e0cb3d5	0.13740475
185	0xbcef6041	-0.029220702
186	0xbd029a92	-0.03188569
187	0xbe2ec23c	-0.17066282
188	0xbd6ecc44	-0.05830027
189	0xbd874f5d	-0.06606934
190	0xbdb4b25e	-0.08823083
191	0xbe136b4e	-0.14396402
192	0x3dc900cc	0.09814605
193	0xbd02474a	-0.031806268
194	0x3e2586b0	0.1616466
195	0x3cb71ff3	0.022354102
196	0x3c3fae81	0.01169932
197	0x3d9482ff	0.07251548
198	0x3de8224b	0.11334666
199	0x3d98e822	0.07466151
200	0x3daada2b	0.083423935
201	0x3e2edf08	0.17077267
202	0xbb935a75	-0.0044968673
203	0xbcf8b5ce	-0.030360129
204	0xbe0516a0	-0.12996912
205	0x3e0a9b3a	0.13535777
206	0xbd4219cc	-0.047387883
207	0xbd5b6c1d	-0.0535699
208	0x3dc4e31f	0.096136324
209	0x3c6a9d6e	0.014319761
210	0xbcecbac8	-0.028897658
211	0xbdf7bb85	-0.120963134
212	0x3e3408e0	0.1758151
213	0x3d8233e2	0.06357552
214	0x3d540b02	0.05176831
215	0xbe2be995	-0.16788323
216	0xbd99f9e9	-0.0751837
217	0xbbfb427a	-0.0076678367
218	0x3e19fc57	0.15037666
219	0x3b028f76	0.0019921935
220	0x3d7d40c1	0.061829332
221	0x3e262fae	0.16229126
222	0xbc46b3e8	-0.012127854
223	0xbe2e2301	-0.1700554
224	0xbdefd597	-0.11710661
225	0x3cc1ea25	0.02367122
226	0x3dec31cf	0.11532938
227	0xbbe7ecaa	-0.007077773
228	0xbd4ec615	-0.050481874
229	0xbe06439f	-0.13111733
230	0xbdc80329	-0.09766228
231	0x3cd8a8db	0.026447704
232	0xbdfaeeb3	-0.122525595
233	0x3e15e353	0.14637499
234	0x3e114ab8	0.14188659
235	0x3d53f6d8	0.05174908
236	0x3dbe8dc4	0.093043834
237	0xbe20fb24	-0.15720803
238	0x3e02e5bf	0.12782954
239	0xbe21d001	-0.15802003
240	0x3cbc417b	0.022980442
241	0xbe373337	-0.1789063
242	0x3e048a42	0.12943366
243	0xbe287c24	-0.16453606
244	0x3c94d35c	0.01816719
245	0xbd735038	-0.059402674
246	0x3db8d65d	0.090252616
247	0xbe2973ef	-0.16548131
248	0xbd914c0f	-0.07094585
249	0x3d229c71	0.039699975
250	0xbe00e028	-0.12585509
251	0xbe0ea15e	-0.13928744
252	0x3d027d60	0.03185785
253	0xbca47342	-0.02007449
254	0x3e17dded	0.14830752
255	0x3e0436e2	0.12911561

0.bias f4 [256]
0	0xbd862a7f	-0.06551074
1	0xbd4f8ad1	-0.050669495
2	0xbde83e36	-0.11339991
3	0xbdbdce73	-0.09267893
4	0xbdd903c8	-0.10596424
5	0x3d5f5da5	0.054532666
6	0xbdcae018	-0.09906024
7	0x3ca1ec11	0.019765886
8	0x3d679ecf	0.056547936
9	0xbd6ff794	-0.05858572
10	0xbdcebe7b	-0.10094925
11	0xbca85bf3	-0.020551657
12	0x3d31c8d5	0.04340442
13	0x3d534d17	0.05158719
14	0x3e177dcf	0.14794086
15	0xbc71a9cb	-0.014749954
16	0x3e2bc583	0.16774563
17	0xbd174fd7	-0.036941376
18	0xbe0b435e	-0.13599917
19	0xbdb3500f	-0.08755504
20	0x3c935b3f	0.017987845
21	0x3dbd0132	0.092287436
22	0x3e43391a	0.19064751
23	0xbe1cf3b5	-0.15327342
24	0x3d654047	0.055969503
25	0xbd778ed1	-0.060438935
26	0xbd3f06af	-0.046637233
27	0xbe390f80	-0.18072319
28	0x3e1f8a28	0.15580046
29	0x3e3bf3e6	0.18354759
30	0xbdb45214	-0.08804718
31	0xbdef87af	-0.116958015
32	0xbddf19d2	-0.10893597
33	0xbd993b5b	-0.07482024
34	0xbcd14acd	-0.025548363
35	0x3c9485d9	0.01813023
36	0xbd61269a	-0.054968454
37	0x3bf67110	0.0075208023
38	0x3ce0bbfa	0.027433384
39	0xbd41631d	-0.047213662
40	0x3ac262cb	0.0014830468
41	0x3d866c55	0.065636314
42	0x3e4f4a7b	0.20243256
43	0x3d158ef9	0.036513302
44	0x3cef87c9	0.029239552
45	0x3e15ceff	0.14629744
46	0xbd956e91	-0.072964795
47	0x3e16f7dc	0.14742988
48	0xbd551401	-0.05202103
49	0x3ca44458	0.02005212
50	0xbd006655	-0.03134759
51	0xbd84ab18	-0.06477946
52	0x3e4ce8f1	0.20010735
53	0x3d8d3f29	0.068968125
54	0xbdb7cf26	-0.08975057
55	0x3e09ceb3	0.13457756
56	0x3c5cfd47	0.01348812
57	0xbd006397	-0.031344976
58	0xbe087c18	-0.13328588
59	0xbda0485f	-0.07826304
60	0xbe0e6947	-0.13907348
61	0xbde6eab3	-0.11275234
62	0x3cffb9f8	0.031216606
63	0xbdf41eb6	-0.1191992
64	0xbc8c0bb5	-0.017095426
65	0xbdcf218e	-0.10113822
66	0xbde5870f	-0.11207401
67	0x3e41cd61	0.18926002
68	0xbc3446a9	-0.011003175
69	0x3d3b86d0	0.045782864
70	0x3da2de4c	0.07952556
71	0xbe13456e	-0.14381954
72	0x3d13f9a1	0.036126737
73	0xbc8254e2	-0.015909616
74	0x3de51c0d	0.11186991
75	0x3cb957b0	0.02262482
76	0x3de5c054	0.11218324
77	0xbb8abf59	-0.004234236
78	0x3e00ec86	0.12590227
79	0x3d38af93	0.045089316
80	0x3c983dbd	0.018584127
81	0xbd209835	-0.039207656
82	0x3e3ac5e9	0.18239559
83	0xba591b44	-0.0008281956
84	0xbd0efa53	-0.034906697
85	0x3e38353c	0.17989057
86	0x3d97be33	0.074093245
87	0x3d754ac9	0.059885774
88	0xbb280814	-0.002563958
89	0x3dd7915f	0.10525774
90	0xbd9651a7	-0.07339793
91	0x3e29b11b	0.16571467
92	0xbdb37dc9	-0.08764226
93	0xbcb81a05	-0.022473345
94	0xbb0831d0	-0.0020781644
95	0xbdbf2bfd	-0.09334562
96	0x3e3938f0	0.18088126
97	0xbde3985f	-0.11113047
98	0xbdf8b6bf	-0.12144231
99	0x3d933bf7	0.07189172
100	0x3e06318c	0.13104838
101	0x3e1a3ea4	0.15062958
102	0x3daf422d	0.08557544
103	0xbdee6218	-0.11639804
104	0xbdd58cf7	-0.104272775
105	0xbe1426fd	-0.14467998
106	0xbcffdd68	-0.031233504
107	0x3dade9a6	0.084918305
108	0xbd9b717d	-0.075900055
109	0x3e25e993	0.16202383
110	0xbe2f7a4a	-0.17136493
111	0xbcc7b2a1	-0.02437717
112	0x3e05afef	0.13055395
113	0x3d9786e4	0.07398775
114	0x3e18fcb1	0.14940144
115	0x3c1b1e1f	0.009467631
116	0xbd60db9f	-0.054896947
117	0x3c9467b9	0.018115865
118	0x3e0c295d	0.13687654
119	0x3d775570	0.060384214
120	0x3b8db6e6	0.0043247817
121	0xbd97e003	-0.07415774
122	0x3d5e585e	0.054283492
123	0xbd4ebca5	-0.050472874
124	0x3d5dbdea	0.054136194
125	0x3dec186e	0.11528097
126	0x3db43c2d	0.0880054
127	0xbe07ab86	-0.13249025
128	0x3c8b7d47	0.01702751
129	0xbe19e902	-0.15030292
130	0xbc4657c9	-0.012105891
131	0xbdaef957	-0.085436516
132	0x3cc26591	0.023730071
133	0x3c368d8e	0.011142148
134	0xbd48d3cf	-0.04903012
135	0x3e320d10	0.17387795
136	0x3dcf3101	0.10116769
137	0x3df35b51	0.118826516
138	0xbe3cc518	-0.1843456
139	0x3e1d35e2	0.15352586
140	0xbdb9bd96	-0.09069364
141	0x3c0abd4f	0.008467986
142	0xbdd22ba2	-0.102622285
143	0xbcf78c8d	-0.030218387
144	0xbd1ed444	-0.03877665
145	0x3e28e605	0.16493995
146	0x3e11ff51	0.14257552
147	0x3d5694c4	0.052387968
148	0x3e26fdc9	0.16307749
149	0xbe199761	-0.14999153
150	0xbe13a66d	-0.14418955
151	0xbe1da741	-0.15395834
152	0xbae56fa7	-0.0017504588
153	0x3da068ff	0.078325264
154	0xbda77b9f	-0.08177876
155	0xbdc39e72	-0.095517054
156	0xbd361c72	-0.04446072
157	0xbd887d9f	-0.06664585
158	0x3da5aff1	0.08090199
159	0xbc58c898	-0.013231419
160	0xbd98e891	-0.074662335
161	0xbd80889e	-0.06276058
162	0xbb88c8ff	-0.004174351
163	0xbdc76a27	-0.09737044
164	0x3e0e1d6b	0.1387841
165	0xbd940fcf	-0.07229578
166	0xbd91adfe	-0.071132645
167	0x3dd6a88b	0.10481366
168	0x3e1046fc	0.14089578
169	0x3c3b682c	0.011438411
170	0xbd490d30	-0.049084842
171	0xbe127f9c	-0.14306492
172	0xbe4274cf	-0.18989871
173	0x3daf14da	0.08548899
174	0xbe012686	-0.12612352
175	0x3d41fd60	0.047360778
176	0xbe09fe04	-0.13475806
177	0x3daf218a	0.08551319
178	0xbde302ec	-0.11084542
179	0xbd4d0de4	-0.050062075
180	0xbe035ffa	-0.12829581
181	0xbd137a2e	-0.03600519
182	0x3df10b4b	0.11769732
183	0x3d54aa06	0.05191996
184	0x3e093402	0.13398746
185	0x3e181895	0.14853127
186	0xbda0ba72	-0.078480616
187	0x3de7d418	0.113197505
188	0x3d71c7ce	0.05902844
189	0x3df736e6	0.12071018
190	0xbd65e906	-0.05613043
191	0xbdfe1497	-0.12406271
192	0x3ba71ca7	0.005099851
193	0xbd8e081f	-0.06935143
194	0xbddc6f7f	-0.10763454
195	0xbc108768	-0.008821346
196	0x3d82753c	0.06370017
197	0xbd0ede18	-0.034879774
198	0xbde4c532	-0.111704245
199	0x3e36c950	0.17850232
200	0x3df0e212	0.117618695
201	0xbcbb92a4	-0.022897072
202	0x3d9392bf	0.07205724
203	0xbca70c58	-0.020391628
204	0xbdaa1e9f	-0.08306622
205	0x3cd43fe0	0.025909364
206	0x3e1e56a6	0.15462741
207	0x397c7539	0.00024076262
208	0x3d28af60	0.041182876
209	0x3e257037	0.16156088
210	0x3d72f158	0.059312195
211	0xbe0d4189	-0.13794531
212	0xbe1bc880	-0.15213203
213	0xbda7837c	-0.081793755
214	0x3b08053e	0.0020755078
215	0x3bdf7c71	0.0068202545
216	0x3d8c7332	0.06857909
217	0xbdfb8fbe	-0.12283276
218	0xbdaa5a9f	-0.08318066
219	0x3e012531	0.12611844
220	0xbe438df5	-0.19097121
221	0xbddd0fb2	-0.10794009
222	0x3de1a35b	0.11017486
223	0x3d3a024e	0.045412354
224	0xbda5e70d	-0.0810071
225	0x3e088d47	0.13335143
226	0xbd5a43fb	-0.053287487
227	0x3d9d2b0e	0.07674228
228	0xbd0e0d97	-0.03468093
229	0x3c8d0441	0.017213942
230	0xbd3d7761	-0.046256427
231	0x3dced8d9	0.10099954
232	0x3d807222	0.06271769
233	0x3e476a0c	0.19474047
234	0xbe449956	-0.19199118
235	0x3e4e14b9	0.20125093
236	0x3d022f7f	0.031783577
237	0xbbc38d1b	-0.005967749
238	0x3e112124	0.14172798
239	0x3d89bb0d	0.0672513
240	0xbba8b354	-0.0051483307
241	0x3dee1008	0.116241515
242	0xbe076717	-0.1322292
243	0xbde0a374	-0.10968676
244	0xbc7092bd	-0.014683423
245	0xbd06033e	-0.032717936
246	0x3e037849	0.12838854
247	0xbcf36b79	-0.029714333
248	0x3e270d3b	0.16313641
249	0x3e1cf1c3	0.153266
250	0xbbf96f25	-0.0076121264
251	0xbe2ae199	-0.16687621
252	0xbd9d0fb5	-0.076690115
253	0x3cd1f51b	0.02562957
254	0xbd84c187	-0.06482225
255	0x3e4758d9	0.19467486

2.weight f4 [128, 256]
0	0x3b114753	0.0022167757
1	0xbc554c06	-0.013018614
2	0x3b653597	0.003497457
3	0x3c876590	0.016527921
4	0x3cc22955	0.02370135
5	0xbd11fcc0	-0.03564143
6	0xbc9949d4	-0.018711962
7	0x3d4bcd29	0.049756203
8	0xbd50e8db	-0.05100332
9	0x3d54a2fb	0.051913243
10	0xbc6a6f42	-0.0143087525
11	0xbd82d59b	-0.06388398
12	0xbd334dbf	-0.043775316
13	0xbcc8f7a0	-0.02453214
14	0xbc5c3bb8	-0.013441972
15	0x3ca8436b	0.02053996
16	0x3d443c79	0.047909234
17	0xbd3192c3	-0.043352854
18	0xbd475876	-0.048668347
19	0xbd20dbb5	-0.03927203
20	0xbd0b4e29	-0.034010086
21	0x3c81a14b	0.01582398
22	0x3d09f3c0	0.033679724
23	0x3c9731f4	0.018456437
24	0x3c9fb0f8	0.019493565
25	0x3bd23145	0.006414565
26	0xb9e97b66	-0.00044533162
27	0x3d408e88	0.04701093
28	0x3cafb6a9	0.021449404
29	0xbd47de4b	-0.04879598
30	0xbb26c30d	-0.002544585
31	0xbca52d30	-0.020163149
32	0xbd71f0c4	-0.059067503
33	0xbc14525b	-0.009052838
34	0x3c7baddd	0.015361276
35	0xbba4df3f	-0.005031496
36	0xbd6e16e5	-0.058127303
37	0x3d2c5a9d	0.042078603
38	0x3c978f92	0.018501077
39	0x3cfd5c6c	0.03092786
40	0x3bbab2cc	0.005697584
41	0xbd5576b6	-0.052115165
42	0xbca6ac09	-0.020345705
43	0x3d053fea	0.032531656
44	0xbcf11499	-0.029428767
45	0x3d23636a	0.03988973
46	0xbd0a3f37	-0.033751693
47	0xbd095b92	-0.033534594
48	0x3ce7d2dc	0.028298788
49	0xbd2d5882	-0.042320736
50	0x3a8d945b	0.001080166
51	0x3caad1f2	0.020852063
52	0x3be46a02	0.006970645
53	0xbd58a3b7	-0.052890506
54	0xbc7bfaa2	-0.01537958
55	0xbd5e847d	-0.05432557
56	0x3c9032c8	0.01760234
57	0x3bc93f54	0.0061415825
58	0xbc98d170	-0.018654555
59	0x3bbe4408	0.00580645
60	0xbd56b720	-0.052420735
61	0xbd2deb90	-0.042460978
62	0xbcd1c596	-0.025606912
63	0xbd3ac53b	-0.04559825
64	0x3c541424	0.012944255
65	0xbd513b26	-0.0510818
66	0x3d2dbb1c	0.04241477
67	0x3d544e1c	0.051832303
68	0xbd2db153	-0.042405438
69	0xbca5811b	-0.020203164
70	0x3bcfdbce	0.0063433414
71	0xbd155b8d	-0.036464263
72	0xbd8c9ba0	-0.068656206
73	0x3ce5d47f	0.028055428
74	0x3d6e47e9	0.058174048
75	0x3d08c0ec	0.03338711
76	0xbc8166cf	-0.015796093
77	0x3d469e70	0.04849094
78	0x3b3892f3	0.002816376
79	0x3be53e57	0.006995957
80	0x3c8b4e35	0.017005065
81	0xbcf51614	-0.029917754
82	0xbbb8481e	-0.0056238314
83	0x3a2f031e	0.0006676185
84	0x3d4bcc69	0.049755488
85	0xbd57000f	-0.05249029
86	0xbcf423e8	-0.029802278
87	0x3d0ed03b	0.034866553
88	0xbd43cb79	-0.04780147
89	0x3c00cde4	0.007861588
90	0x3ca812cd	0.020516777
91	0x3ce9f8bb	0.028560987
92	0xbd146288	-0.03622678
93	0xbd087e9e	-0.033323877
94	0x3cc548c7	0.024082555
95	0x3c3b01d9	0.011414015
96	0xbc78e83e	-0.01519209
97	0xbd4ce441	-0.050022367
98	0xbd42709c	-0.047470674
99	0x3c3440cf	0.01100178
100	0xbd0c6cf0	-0.03428358
101	0x3d4a41c1	0.049379114
102	0xbd753e1b	-0.05987368
103	0xbbedaf4f	-0.0072535644
104	0xbd6b0d8d	-0.05738597
105	0xbc3d342b	-0.011548082
106	0x3d505ca6	0.050869606
107	0xbb9a582a	-0.004710217
108	0x3d89036d	0.066901065
109	0x3d14b224	0.0363027
110	0xbc877fe0	-0.016540468
111	0xbcfec298	-0.031098649
112	0xbb512173	-0.0031910806
113	0xbd735f69	-0.059417162
114	0xbcfff4b2	-0.03124461
115	0xbca7b014	-0.020469703
116	0xbccbcc1d	-0.024877602
117	0xbd7ef4ac	-0.062245056
118	0x3cd424be	0.025896426
119	0x3d81166b	0.06303104
120	0xbcf5b0c9	-0.029991524
121	0x3d3dc9fa	0.046335198
122	0xbcda6b1d	-0.026662404
123	0xbd906d70	-0.070521235
124	0xbd2ea268	-0.04263535
125	0xbcdf4833	-0.027256107
126	0xbc72a34f	-0.014809444
127	0xbd370c69	-0.04468957
128	0xbcf3ec83	-0.029775864
129	0x3d3f0068	0.046631247
130	0x3be58665	0.0070045465
131	0x3c50c782	0.012742879
132	0xbc3d3204	-0.011547569
133	0x3d55ac6c	0.052166387
134	0xbcbc9dac	-0.023024403
135	0x3bf4271d	0.0074509517
136	0xbc943c73	-0.01809523
137	0x3d6cbad7	0.05779537
138	0x3c8ccb9c	0.017186932
139	0x3d4eac97	0.050457563
140	0xbd15f0d7	-0.036606636
141	0xbd78b8f7	-0.06072327
142	0x3c923278	0.017846331
143	0xbcdf45ae	-0.027254906
144	0xbd09e552	-0.033665963
145	0xbd2a0bd9	-0.041515205
146	0x3d58eabf	0.052958246
147	0x3d566df7	0.052350964
148	0xbb5f1fbc	-0.0034046015
149	0xbd64c671	-0.05585331
150	0x3c8c3a23	0.017117565
151	0xbd0f814d	-0.03503542
152	0x3d178230	0.03698939
153	0x3d4a9f97	0.049468603
154	0xbd887fb1	-0.0666498
155	0x3c4f981d	0.012670544
156	0x3d040230	0.03222865
157	0xbcb586e9	-0.022159057
158	0x3d1dd46d	0.038532663
159	0xbd85e98e	-0.06538688
160	0xbd0fa94c	-0.035073563
161	0xbb6a24e9	-0.0035727567
162	0x3d067361	0.032824878
163	0x3cf8b4f5	0.030359725
164	0xbd10a121	-0.035309914
165	0xbd4e6da2	-0.050397523
166	0xbd39b246	-0.04533603
167	0xbcccc454	-0.02499596
168	0xbd3e8868	-0.046516806
169	0xbcfcd136	-0.030861478
170	0x3aca5342	0.001543619
171	0x3d09ed2a	0.033673443
172	0x3a6a3337	0.0008934023
173	0x3c9cb5e9	0.01912971
174	0x3d324132	0.043519206
175	0x397b3a2f	0.000239589
176	0xbd765a9a	-0.060144998
177	0xbc0337b8	-0.00800889
178	0xbd8a6ac5	-0.06758646
179	0x394b5af0	0.00019393465
180	0xbd5ddaa5	-0.054163594
181	0x3d807e36	0.06274073
182	0xbd74f6e7	-0.059805777
183	0xbc5eed0e	-0.013606323
184	0xbc22a8ca	-0.009927938
185	0x3b83d983	0.004023732
186	0x3d3c154b	0.045918744
187	0x3d474a55	0.048654873
188	0x3d7e159a	0.06203232
189	0x3c680fa7	0.014163888
190	0x3c391fda	0.011299098
191	0x3ce6f093	0.028190887
192	0xbc3567f7	-0.01107215
193	0xbd6484a4	-0.05579056
194	0x3c80ec8b	0.015737792
195	0xbd8061d8	-0.06268662
196	0xbd0e8687	-0.034796264
197	0xbd0f834a	-0.035037316
198	0x3cf6c9ef	0.030125586
199	0x3bf5ad88	0.007497493
200	0xbd32e3aa	-0.04367415
201	0x3bff73d6	0.007795791
202	0xbc81f2ed	-0.015862906
203	0xbca2079f	-0.019779025
204	0x3c8211e6	0.015877675
205	0x3aeb1895	0.0017936403
206	0x3ca106f0	0.019656628
207	0xbc667117	-0.014065049
208	0xbbfaf3f8	-0.007658478
209	0x3cb22050	0.021743923
210	0xbd4c861e	-0.04993259
211	0xbd046df9	-0.03233144
212	0x3c29c517	0.010361931
213	0xbb9b7cae	-0.0047450876
214	0xbd4c8bfd	-0.04993819
215	0x3d132a98	0.035929292
216	0x3b8bc650	0.004265584
217	0x3cea01b6	0.028565269
218	0xbd33af8f	-0.043868598
219	0x3bc55244	0.0060217697
220	0x3ca0ed45	0.019644389
221	0xbd8338fc	-0.06407353
222	0x3cc2d343	0.023782378
223	0x3cecfcea	0.028929193
224	0xbc309d12	-0.010779636
225	0xbc595a13	-0.013266104
226	0xbd54937b	-0.05189846
227	0xbca87e28	-0.020567968
228	0xbce22667	-0.027606202
229	0x3d73b33a	0.059497096
230	0x3cfd1b6f	0.03089687
231	0xbc79fc22	-0.015257867
232	0x3d08844e	0.0333293
233	0xbc097850	-0.008390501
234	0x3d636c73	0.055523347
235	0xbd6434b0	-0.05571431
236	0x3d0b91fd	0.034074772
237	0x3b9086e1	0.00441061
238	0x3c5bdb45	0.013418977
239	0xbb1c2f2e	-0.0023831832
240	0xbc1d9633	-0.00961833
241	0x3d1e37b8	0.038627356
242	0xbcef17cd	-0.029186154
243	0x3d1b17c0	0.037864447
244	0xbd276940	-0.04087186
245	0x3c2a45f5	0.010392656
246	0x3c0baaa8	0.008524574
247	0xbd5652e9	-0.052325163
248	0x3c484d79	0.012225502
249	0x3d062333	0.032748412
250	0xbcd22e0b	-0.02565672
251	0x3d891f22	0.06695391
252	0x3cad09fe	0.021122929
253	0xbd846a82	-0.06465627
254	0x3d0eb74c	0.034842774
255	0x3d1926e6	0.037390612

2.bias f4 [128]
0	0x3d1845ac	0.03717582
1	0xbd6e1716	-0.058127485
2	0x3d8fdf0f	0.07024967
3	0x3da5821d	0.08081458
4	0x3b39ce0c	0.0028351573
5	0x3c2e8eb8	0.010654144
6	0xbd5d977d	-0.05409955
7	0xbc126e79	-0.008937472
8	0xbc9883ee	-0.018617596
9	0xbd1cb6e0	-0.03826034
10	0xbd0032ac	-0.031298324
11	0xbca13f88	-0.019683614
12	0x3c2cc14b	0.0105441315
13	0xbd0eeb64	-0.034892455
14	0x3c1772c6	0.009243673
15	0x3d9005db	0.07032367
16	0xbd7ee914	-0.062234
17	0x3bdbd5b1	0.0067088236
18	0x3ce24359	0.027620004
19	0xbc62871a	-0.013826156
20	0xbd86ca9b	-0.06581613
21	0x3d013380	0.031543255
22	0x3d0bc732	0.034125514
23	0x3d4e0d14	0.05030544
24	0xbc981199	-0.018563079
25	0x3d71b7df	0.059013244
26	0xbca53a95	-0.020169536
27	0x3afa603b	0.0019102165
28	0xbc1e7552	-0.009671526
29	0x3dad11bb	0.084506474
30	0x3d37f4a7	0.044911053
31	0xbda409f6	-0.080097124
32	0xbb5e3a1e	-0.0033909152
33	0xbc1f6b43	-0.009730163
34	0x3cc813b8	0.024423465
35	0x3d560da0	0.052259088
36	0xbd8277b1	-0.063704856
37	0xbcf8c04a	-0.030365128
38	0xbd28e180	-0.04123068
39	0xbb6ebe96	-0.0036429516
40	0x3c2bc428	0.010483779
41	0x3d6da5f9	0.058019612
42	0x3cc27c65	0.023740957
43	0x3cf92711	0.030414136
44	0xbbdfdbaa	-0.006831606
45	0xbc05a310	-0.008156553
46	0x3cef2f39	0.029197322
47	0xbce1e9d1	-0.027577313
48	0xbb93cf37	-0.004510786
49	0x3ca6fd5f	0.020384489
50	0xbcdeb3bc	-0.027185313
51	0xbcd07a6b	-0.025448998
52	0x3d586e63	0.052839648
53	0x3d45538d	0.048175383
54	0x3d016937	0.03159448
55	0xbcbbad6c	-0.022909842
56	0x3cf0b469	0.029382901
57	0x3d9cd1f1	0.07657231
58	0x3d0e32f1	0.03471655
59	0xbc7f242a	-0.015572587
60	0xbc2f7ef9	-0.010711425
61	0x3d0ea02e	0.034820728
62	0x3d0bbde1	0.03411663
63	0x3ca3251c	0.019915156
64	0xbc9bdc53	-0.019025957
65	0x3c81730e	0.015801933
66	0xbcca78bf	-0.02471578
67	0x3c8c9fb9	0.017166005
68	0x3ce2f184	0.027703054
69	0xbd0ec697	-0.03485736
70	0x3d9ca2d3	0.07648244
71	0xbc0ad53b	-0.00847369
72	0x3ca8598a	0.020550508
73	0x3d72ce3d	0.059278715
74	0xbd8090b2	-0.062775984
75	0xbd63272d	-0.055457283
76	0x3d51b471	0.051197473
77	0xbd2f368b	-0.042776626
78	0x3d07f231	0.033189956
79	0x3c6bb337	0.01438599
80	0xbbf3fa7e	-0.0074456325
81	0xbd216fc2	-0.03941322
82	0x3ca09a66	0.019604873
83	0xbbaacadf	-0.0052121724
84	0xbd919d36	-0.07110064
85	0x3d165910	0.03670603
86	0x3d7e0ab8	0.06202194
87	0x3d41aaa2	0.04728187
88	0xbc62bf9b	-0.013839628
89	0xbbe53acd	-0.006995535
90	0x3ba5bc3b	0.005057839
91	0xbbc28b8e	-0.0059370464
92	0xbd73a378	-0.059482068
93	0x3cf43546	0.029810559
94	0x3da49276	0.08035748
95	0xbba5960b	-0.005053287
96	0xbcf6c761	-0.030124368
97	0xba195650	-0.00058493484
98	0xbda8b471	-0.082375415
99	0xbcf4adc6	-0.029868018
100	0x3d830f9c	0.063994616
101	0xbc573714	-0.01313569
102	0x3cdaac39	0.02669345
103	0xbd148ccd	-0.03626709
104	0x3d99b3fe	0.07505034
105	0xbaa9cdbd	-0.0012954992
106	0xbd1fd37b	-0.039020043
107	0xbc28d952	-0.010305719
108	0x3d36190f	0.04445749
109	0x3c1472dc	0.009060588
110	0x3cecbb0d	0.028897787
111	0x3c836a0f	0.016041784
112	0x3d08d453	0.033405613
113	0xbb9a5b20	-0.00471057
114	0x3d5780b9	0.052612994
115	0x3d419b94	0.04726751
116	0x3d1cd886	0.03829243
117	0xbc7169de	-0.014734713
118	0xbd567733	-0.05235977
119	0x3b35a174	0.0027714642
120	0x3b38fee0	0.002822809
121	0x3c226a22	0.009912999
122	0x3c38c332	0.011277007
123	0xbd183b99	-0.03716621
124	0xbd0b5371	-0.034015123
125	0xbbeb0091	-0.0071716984
126	0x3ca27781	0.019832375
127	0x3b3ee060	0.0029125437

4.weight f4 [64, 128]
0	0xbd0e8720	-0.034796834
1	0x3d28df7c	0.041228756
2	0xbc918ee3	-0.017768329
3	0x3b2339a8	0.0024906192
4	0x3de94bef	0.11391436
5	0x3d080f81	0.03321791
6	0xbce865c4	-0.028368838
7	0xbdc87e21	-0.09789682
8	0x3d904cfc	0.070459336
9	0xbc4c0ed5	-0.012454708
10	0x3d6021cc	0.05471973
11	0x3de623bf	0.11237287
12	0x3da901e2	0.08252312
13	0xbcb9205d	-0.02259844
14	0x3dc6a1d5	0.09698836
15	0xbd2aeb11	-0.041728083
16	0xbd396090	-0.045258105
17	0xbb1e8a73	-0.002419141
18	0xbd87da6e	-0.06633459
19	0x3d94b03d	0.07260177
20	0x3c93d33a	0.018045057
21	0xbcf024a1	-0.029314341
22	0xbc987544	-0.018610604
23	0x3cf80cf0	0.030279607
24	0xbcb0b7a4	-0.021571942
25	0x3ca04395	0.019563476
26	0xbd504d5b	-0.050855022
27	0x3d45a5ee	0.048253946
28	0xbd4fd3f2	-0.050739236
29	0x3d408a8d	0.047007132
30	0xbd98903c	-0.074493855
31	0xbdd948b5	-0.10609571
32	0xbc8cc4b8	-0.017183647
33	0xbcf9ccf3	-0.030493235
34	0x3d3dd77c	0.04634808
35	0x3c80a6bd	0.015704507
36	0xbcbbdeaa	-0.022933323
37	0xbd3535c7	-0.04424074
38	0x3d637f49	0.05554131
39	0x3c61115c	0.013737049
40	0x3d73acdc	0.059491023
41	0x3d3c316c	0.04594557
42	0xbc3e8f85	-0.011630897
43	0xbd53128b	-0.051531356
44	0x3d7dc07f	0.061951157
45	0x3dc5b4ac	0.09653601
46	0xbd972c6c	-0.0738152
47	0x3d3db473	0.046314668
48	0x3d53c775	0.05170389
49	0x3a8f40cf	0.0010929349
50	0x3dd162af	0.102239005
51	0x3b9e7cc3	0.00483665
52	0x3de30469	0.110848255
53	0xbc892dd4	-0.016745485
54	0xbc87930a	-0.016549606
55	0x3d4995cd	0.049215127
56	0x3d00e5be	0.0314691
57	0xbc19a880	-0.009378552
58	0xbd3b2a4b	-0.04569463
59	0xbd92b02d	-0.07162509
60	0xbd5cbbd3	-0.05389006
61	0x3df38856	0.118912384
62	0xbd10dbf5	-0.035366017
63	0x3df0f4b1	0.11765421
64	0xbd02563b	-0.031820517
65	0xbc43a3bd	-0.011940894
66	0x3beaa5b3	0.007160866
67	0xbbbd9dc9	-0.0057866317
68	0x3d4b4306	0.049624465
69	0x3cad6214	0.021164931
70	0x3d2ddac3	0.042444956
71	0xbd05ed5f	-0.032697078
72	0x3d45f4c4	0.04832913
73	0xbca28424	-0.0198384
74	0xbdbbff00	-0.09179497
75	0x3cb420f9	0.021988379
76	0x3ddcd181	0.10782147
77	0xbdb8ae65	-0.09017638
78	0xbc42fe0b	-0.011901389
79	0x3d28fad2	0.041254826
80	0xbd0b00b2	-0.03393621
81	0x3d8082f6	0.06274979
82	0x3c5c041e	0.013428716
83	0xbdcbdef1	-0.09954632
84	0xbdd1eb97	-0.10250013
85	0xbdb9091d	-0.09034941
86	0xbc9120b6	-0.017715793
87	0x3dc17440	0.09446001
88	0x3c4835bd	0.012219843
89	0x3dc0a442	0.0940633
90	0xbb4b90cf	-0.0031061654
91	0xbdb19f35	-0.086729445
92	0x3bb271e9	0.005445708
93	0x3d8ff40d	0.07028971
94	0x3b0b5601	0.002126098
95	0x3d8e7f7c	0.069579095
96	0xbce64dd9	-0.028113293
97	0x3c653a68	0.013990976
98	0xbdc2e3c9	-0.09516103
99	0xbd551206	-0.05201914
100	0x3ccd55b7	0.025065286
101	0x3be8d421	0.007105366
102	0x3d0dc58f	0.034612235
103	0xbd3ee73f	-0.046607252
104	0xbc8acfc2	-0.01694477
105	0x3d4bc74f	0.049750622
106	0x3d0e58ac	0.034752533
107	0xbc6cda36	-0.014456322
108	0xbce48f17	-0.027900262
109	0x3d937dd9	0.07201738
110	0xbc1136e7	-0.008863187
111	0x3d207985	0.03917839
112	0x3d569960	0.052392364
113	0xbc43f169	-0.011959412
114	0x3d5034a8	0.050831467
115	0xbd5e4563	-0.05426539
116	0x3c7e3c55	0.015517314
117	0xbc649ec0	-0.013953865
118	0xbb3f4ec5	-0.0029191237
119	0x3d8ba63c	0.06818816
120	0xbcc55d16	-0.024092238
121	0x3db78c16	0.08962266
122	0x3cef2696	0.029193204
123	0xbd384e28	-0.04499641
124	0xbdc10ca6	-0.094262406
125	0x3c690af5	0.014223804
126	0xbd8d8a37	-0.06911128
127	0xbd973c9e	-0.07384609
128	0xbc3a3de1	-0.011367292
129	0xbd3f3fe7	-0.0466918
130	0xbc815c06	-0.01579095
131	0xbddc94dc	-0.1077058
132	0x3d6cabf5	0.05778118
133	0xbd4c2522	-0.0498401
134	0xbd4642f4	-0.048403695
135	0x3d6de069	0.058075342
136	0xbd4024c8	-0.046910077
137	0x3d93e45c	0.072212905
138	0xbd937079	-0.07199187
139	0xbd680d06	-0.056653045
140	0xbd8b66dc	-0.06806728
141	0x3c5cdfcb	0.013481091
142	0x3d9fe6a3	0.07807662
143	0xbdcade66	-0.099057004
144	0x3c097977	0.008390776
145	0x3d843040	0.064545155
146	0xbd934eb7	-0.07192748
147	0xbdbec9eb	-0.093158565
148	0x3c5e68fc	0.013574835
149	0x3c8f6396	0.017503541
150	0xbd3bc4a7	-0.04584184
151	0x3d59f31a	0.053210355
152	0x3ce85f23	0.028365677
153	0xbc02df65	-0.007987832
154	0xbab7403f	-0.0013980939
155	0x3d388652	0.045049973
156	0xbcc8a27b	-0.02449154
157	0x3cd4358f	0.025904445
158	0xbc89725b	-0.016778162
159	0x3ccccf82	0.025001291
160	0xbd242a8c	-0.04007964
161	0xbd5959d7	-0.053064194
162	0xbd0efbdb	-0.034908157
163	0xbd189bcb	-0.03725795
164	0x3d67bbe4	0.05657567
165	0xbd1f4431	-0.03888339
166	0x3d088c4b	0.03333692
167	0xbd8575c3	-0.06516602
168	0x3c4a2ba4	0.012339506
169	0xbd07db6e	-0.03316825
170	0xbc4a7c2c	-0.012358706
171	0x39391b2f	0.00017653102
172	0xbd0e8aeb	-0.03480045
173	0xbd4aa27b	-0.04947136
174	0xbcbdb193	-0.023155963
175	0x3dd763a5	0.105170526
176	0x3c235db1	0.009971068
177	0xbbfcba41	-0.007712633
178	0x37dba2a6	2.6182573e-05
179	0x3d15998e	0.036523394
180	0x3c05a942	0.00815803
181	0xbd006fe3	-0.031356703
182	0xbd9ac39b	-0.0755684
183	0x3d86f823	0.06590297
184	0x3d2d0089	0.04223684
185	0xbd496a92	-0.0491739
186	0xbd88119b	-0.06643983
187	0x3c84e851	0.016224058
188	0xbd2efbe1	-0.04272068
189	0x3d71144a	0.05885724
190	0xbc9e9fe9	-0.01936336
191	0x3b937e87	0.004501167
192	0xbc15b4e5	-0.009137367
193	0x3d036127	0.032075074
194	0xba8c3281	-0.0010696204
195	0x3cfc476c	0.030795775
196	0x3d560d6d	0.052258898
197	0xbd546902	-0.051857956
198	0xbde3f9a9	-0.11131603
199	0xbd44fbf1	-0.048091833
200	0xbc6e59d2	-0.014547782
201	0xbd993e45	-0.0748258
202	0xbd339abe	-0.043848746
203	0x3d9d334f	0.07675802
204	0xbddd6e11	-0.10812009
205	0xbbb66cdc	-0.0055671763
206	0xbd13f462	-0.036121733
207	0x3d9e17a7	0.07719355
208	0xbcf633ec	-0.030054055
209	0xbd858b9f	-0.06520771
210	0x3dafcaf7	0.08583634
211	0x3d2157e3	0.039390456
212	0xbc99f7ff	-0.018795012
213	0x3d9eed65	0.07760123
214	0x3d36c322	0.044619687
215	0x3c290486	0.01031602
216	0x3adc6c1f	0.001681689
217	0xbdda6bae	-0.106650695
218	0xbc56e4ac	-0.013116043
219	0xbd476835	-0.048683364
220	0x3c29dc02	0.010367395
221	0xbd35a014	-0.044342116
222	0xbdc3836f	-0.09546553
223	0x3cb78757	0.022403402
224	0x3dc1741a	0.09445973
225	0x3c2a247d	0.010384676
226	0x3b99930b	0.0046867183
227	0xbd8afe59	-0.06786794
228	0x3d2b884b	0.041878026
229	0xbcc5b17b	-0.02413248
230	0x3d3e34bf	0.04643702
231	0x3dcba9e0	0.099445105
232	0x3cda8197	0.026673121
233	0x3d55ec38	0.05222723
234	0x3cfaf755	0.030635515
235	0x3d189370	0.037249982
236	0x3d02f452	0.031971283
237	0xbce8649e	-0.02836829
238	0x3d90a028	0.070617974
239	0x3cfad93f	0.03062117
240	0xbd1afbb7	-0.03783771
241	0xbd5d5394	-0.054034784
242	0x3ce26f1d	0.027640874
243	0x3d252376	0.04031702
244	0x3dd3aa21	0.10335184
245	0xbd3c7067	-0.046005633
246	0xbcb9fa13	-0.022702252
247	0xbdb748f9	-0.08949465
248	0x3d295964	0.041345015
249	0xbd3b9564	-0.045796767
250	0xbacbe292	-0.0015555194
251	0x3d3a7a6f	0.045526918
252	0x3ddc5759	0.10758848
253	0x3d91a8c7	0.0711227
254	0x3d632fc7	0.055465486
255	0x3d1082d0	0.035281003

4.bias f4 [64]
0	0x3de547c0	0.11195326
1	0xbd8acfaa	-0.0677789
2	0xbd2d1432	-0.042255588
3	0x3cb6d873	0.022320008
4	0x3daa909b	0.083283626
5	0x3dcad494	0.09903827
6	0xbd9156cd	-0.07096634
7	0xbdd8c09f	-0.105836146
8	0x3d82c231	0.06384695
9	0xbd430c3c	-0.04761909
10	0x3cb295e9	0.021799998
11	0xbd6e1a04	-0.05813028
12	0x3c8d3303	0.017236238
13	0x3d9b9976	0.0759763
14	0xbdd0b75a	-0.101912215
15	0xbd7e0621	-0.062017564
16	0x3d528b1d	0.0514022
17	0x3b9997fd	0.004687308
18	0x3d967fec	0.07348618
19	0x3d8a9d35	0.06768266
20	0x3c1386cb	0.009004305
21	0xbd3abc13	-0.045589518
22	0x3d4be8d5	0.049782593
23	0x3cb01468	0.021494105
24	0xbda69e02	-0.08135606
25	0x3d6ea464	0.058262244
26	0xbc90fb20	-0.01769787
27	0x3dec2422	0.11530329
28	0xbd89c31f	-0.067266695
29	0x3d4da46f	0.050205644
30	0xbdbc284e	-0.09187375
31	0xbb7e0143	-0.0038758076
32	0xbcc1d1c0	-0.023659587
33	0x3cd7613f	0.026291488
34	0xbcfae6aa	-0.030627567
35	0xbd4dfa5e	-0.050287597
36	0xbc8c376b	-0.01711627
37	0xbd95b818	-0.07310504
38	0xbd8e13e5	-0.06937388
39	0xbc96f229	-0.018426018
40	0x3d7d2a92	0.061808176
41	0xbd1d040a	-0.03833393
42	0x3c83cf4e	0.016090062
43	0xbc869ec8	-0.016433135
44	0xbdb54409	-0.08850867
45	0xbd98fa75	-0.07469646
46	0x3bc26074	0.0059319083
47	0x3d934baf	0.0719217
48	0xbcb1051c	-0.021608882
49	0x3daa714f	0.08322393
50	0x3d833c20	0.06407952
51	0x3be06a40	0.0068486035
52	0x3c8a1b46	0.016858708
53	0xbd04b05f	-0.032394763
54	0x3dbff2ab	0.09372457
55	0x3d16c542	0.036809213
56	0x3c1ac2f7	0.009445897
57	0x3d789f62	0.060698874
58	0xba8f1e47	-0.0010919058
59	0x3df07468	0.11740953
60	0xbd3ad009	-0.045608554
61	0x3bf5829a	0.0074923756
62	0x3c3b96b9	0.011449509
63	0xbda1856f	-0.078867786

6.weight f4 [3, 64]
0	0x3dcd248d	0.10016737
1	0xbdadadb0	-0.08480394
2	0x3d6a616b	0.05722181
3	0x3dfc0474	0.12305537
4	0xbd8547a1	-0.06507803
5	0x3e005dbb	0.12535755
6	0x3b897fc1	0.0041961377
7	0xbe0c0266	-0.1367279
8	0x3c1a35ad	0.009412211
9	0x3d68f9e4	0.05687894
10	0xbdb439d5	-0.08800093
11	0x3cbe3645	0.023219237
12	0x3b568957	0.003273567
13	0x3d4d9e6f	0.050199922
14	0xbde9246d	-0.11383901
15	0xbdb51742	-0.08842327
16	0xbdaa40a1	-0.08313108
17	0x3cc2e894	0.023792543
18	0x3cb3dab7	0.021954877
19	0x3dca4be5	0.09877757
20	0xbdadbc68	-0.08483201
21	0xbcd6be06	-0.026213657
22	0xbca052b3	-0.019570684
23	0xbd147dcb	-0.036252778
24	0xbdc4023b	-0.09570738
25	0x3d4c0a6f	0.049814638
26	0x3d9d51e3	0.07681634
27	0x3e1d9756	0.15389761
28	0x3a7bb3cf	0.00096016837
29	0xbddf3216	-0.10898225
30	0xbddee4d3	-0.108834885
31	0x3d3ca901	0.046059612
32	0xbcd21516	-0.02564482
33	0xbdbd5d36	-0.09246294
34	0x3d05989f	0.032616254
35	0x3db1821b	0.08667394
36	0xbdb64223	-0.08899333
37	0xbd6a3d55	-0.057187397
38	0xbe074ad1	-0.13212134
39	0x3de17ddc	0.11010334
40	0xbcc62fca	-0.02419271
41	0xbdd5cee2	-0.104398504
42	0x3e07c6dc	0.13259453
43	0xbb7753a6	-0.0037739067
44	0xbd9416d6	-0.07230918
45	0xbdb26cb3	-0.08712139
46	0xbbb18642	-0.005417616
47	0x3d906b7c	0.07051751
48	0xbddc2fe9	-0.10751326
49	0x3d9f22ef	0.07770335
50	0x3d08b318	0.033373922
51	0xbd8ee8da	-0.06978007
52	0xbd2195f3	-0.039449643
53	0xbdf559b5	-0.11980001
54	0xbc99b9bb	-0.018765321
55	0xbded18b8	-0.1157698
56	0xbe19cf59	-0.15020503
57	0x3dba5f6f	0.09100234
58	0x3dc1b161	0.094576605
59	0x3e12f9bf	0.14353083
60	0xbc4612aa	-0.012089411
61	0x3de2a03a	0.11065717
62	0xbd0b963f	-0.034078833
63	0xbe0029df	-0.12515973
64	0x3b3cdef5	0.0028819416
65	0x3e1a4c54	0.1506818
66	0x3d8cf2a7	0.0688222
67	0x3c7a25d2	0.015267806
68	0xbd15c4e3	-0.03656472
69	0xbb8110d0	-0.003938772
70	0x3d5d8797	0.054084387
71	0x3df3dcb0	0.11907327
72	0x3dfd1d87	0.123591475
73	0xbdf43419	-0.11923999
74	0xbcd9675d	-0.026538545
75	0xbcc6cb06	-0.024266731
76	0xbcb75f4a	-0.022384305
77	0xbd9bf3a3	-0.076148294
78	0x3d918eeb	0.071073376
79	0xbd926b9c	-0.07149431
80	0xbe019d76	-0.12657723
81	0x3c9dfe3f	0.019286273
82	0x3db55f92	0.08856119
83	0xbcb3fddc	-0.021971636
84	0xbdb477d6	-0.088119194
85	0x3d6082c9	0.054812226
86	0xbd8d7916	-0.06907861
87	0x3a9511b9	0.001137308
88	0x3e0d39fc	0.1379165
89	0x3dad84b4	0.08472577
90	0x3df6e34b	0.120550714
91	0xbd8b85d6	-0.068126366
92	0xbd8912b0	-0.066930175
93	0x3c35f4bf	0.011105715
94	0xbd888d70	-0.06667602
95	0xbc03c3fd	-0.008042333
96	0x3c879afc	0.016553394
97	0xbd8dd3e1	-0.06925178
98	0x3cbcfeed	0.023070777
99	0x3e026cbd	0.12736793
100	0x3c540edc	0.012942996
101	0x3d38178b	0.044944327
102	0x3ced6093	0.028976714
103	0xbb4f225a	-0.0031606168
104	0x3dabb29a	0.08383675
105	0x3df7686c	0.12080464
106	0x3cc63964	0.024197288
107	0xbde18b3f	-0.11012887
108	0xbd505984	-0.05086662
109	0x3e02fac3	0.1279097
110	0x3e0a1a02	0.13486484
111	0xbc694b5a	-0.014239157
112	0xbcc4bbde	-0.024015363
113	0xbd9c9dfc	-0.07647321
114	0xbe0252a4	-0.12726837
115	0x3d9b93a8	0.075965226
116	0xbd918c08	-0.07106787
117	0xb9a71574	-0.00031868706
118	0xbdc17ce1	-0.09447647
119	0x3dc6f2cb	0.09714278
120	0x3a9c2132	0.0011911748
121	0x3d2197be	0.039451353
122	0x3da04cb9	0.07827134
123	0xbcdc48d6	-0.0268902
124	0x3ddea27c	0.10870835
125	0x3d6255e2	0.055257685
126	0x3de8fe57	0.113766365
127	0xbce58f2d	-0.028022373
128	0xbb61e604	-0.0034469375
129	0x3c309d68	0.010779716
130	0x3c928267	0.017884446
131	0xbdee15be	-0.11625241
132	0x3d10667c	0.035253987
133	0x3cbed44e	0.023294594
134	0x3dc49454	0.09598604
135	0x3dfe7bc9	0.12425954
136	0x3c125e67	0.00893364
137	0x3e0a7fd2	0.13525322
138	0x3c67bd92	0.014144318
139	0x3d813b75	0.06310169
140	0xbd87e509	-0.06635482
141	0xbd911d8b	-0.07085713
142	0xbd2a36df	-0.041556235
143	0x3d9226cf	0.071363084
144	0xbb1a63ab	-0.0023557942
145	0xbb519e20	-0.003198512
146	0xbdd778af	-0.105210654
147	0x3d71d855	0.0590442
148	0xbd9eefbc	-0.077605695
149	0xbdaf508c	-0.08560285
150	0xbd14255a	-0.036168434
151	0xbdd79ee4	-0.10528353
152	0x3d99217f	0.07477092
153	0x3dc7afde	0.09750341
154	0x3deb729b	0.11496469
155	0xbde3e8f9	-0.111284204
156	0xbd24101c	-0.040054426
157	0xbd66298e	-0.056191973
158	0x3da181d3	0.0788609
159	0x3d7d564f	0.06184989
160	0xbb275aaf	-0.002553623
161	0xbde90e82	-0.1137972
162	0xbcca6322	-0.024705473
163	0x3d7cc1d3	0.061708283
164	0xbc0684a7	-0.008210338
165	0xbc8fe039	-0.017562972
166	0x3cb018db	0.021496227
167	0xbc86c284	-0.016450174
168	0x3c55c891	0.013048307
169	0x3cc68c65	0.024236867
170	0x3dfaf7af	0.12254273
171	0xbdb7b620	-0.089702845
172	0x3ce98a3f	0.028508304
173	0xbc3c17f2	-0.011480318
174	0x3db6ed1f	0.08931946
175	0xbbb416b2	-0.0054958696
176	0xbda2511e	-0.07925628
177	0x3c22ef68	0.009944774
178	0xbdf99c86	-0.121880576
179	0x3b54a4b3	0.0032446801
180	0x3dd5aec2	0.10433723
181	0xbdee6be9	-0.11641676
182	0x3c84e109	0.016220586
183	0x3d32a76d	0.0436167
184	0x3db95480	0.0904932
185	0xbcdc8975	-0.026921013
186	0xbd690d76	-0.056897603
187	0xbd4e2cb5	-0.050335605
188	0x3d6c49b1	0.057687465
189	0xbcbeb7ad	-0.023280943
190	0xbdcdff7d	-0.10058496
191	0xbdb52d9f	-0.08846592

6.bias f4 [3]
0	0xbd491c5e	-0.04909932
1	0x3d06fb23	0.032954346
2	0xbd36b944	-0.044610277
